model_zoo/cls_mobilenetv2_cifar10.tflite (tflite, 40328 bytes, 8 tensors)

fuse_attr_2 i1 [16, 3, 3, 16]
000000 fa ff 09 ec f9 04 24 01 fc 13 fc ee ec e0 f8 14
       -6 -1 9 -20 -7 4 36 1 -4 19 -4 -18 -20 -32 -8 20
000010 ea 1f ef f9 fb dc 0f e9 2e f1 47 f5 f9 ec 07 c3
       -22 31 -17 -7 -5 -36 15 -23 46 -15 71 -11 -7 -20 7 -61
000020 09 e6 f5 fb fe 07 f7 02 fb 14 10 fd f9 e2 ee 03
       9 -26 -11 -5 -2 7 -9 2 -5 20 16 -3 -7 -30 -18 3
000030 e5 1c eb 09 e5 ff eb 0b 20 e8 ce 22 2f 40 d5 20
       -27 28 -21 9 -27 -1 -21 11 32 -24 -50 34 47 64 -43 32
000040 2d 94 2b f3 2b 40 04 fb 9a 15 bc dd 61 ee f2 7f
       45 -108 43 -13 43 64 4 -5 -102 21 -68 -35 97 -18 -14 127
000050 fb 12 17 04 ff 1f 09 fd 18 0d 1f eb d2 e0 07 e0
       -5 18 23 4 -1 31 9 -3 24 13 31 -21 -46 -32 7 -32
000060 11 f3 fd 00 fb 1c f2 f5 e8 11 06 00 ed 01 25 00
       17 -13 -3 0 -5 28 -14 -11 -24 17 6 0 -19 1 37 0
000070 ed 22 08 02 f4 33 d6 f9 fb ef eb 14 e4 35 0a d9
       -19 34 8 2 -12 51 -42 -7 -5 -17 -21 20 -28 53 10 -39
000080 fc 02 e8 04 f0 06 00 06 19 ea f5 16 0a 25 f6 ef
       -4 2 -24 4 -16 6 0 6 25 -22 -11 22 10 37 -10 -17
000090 fc ec 06 02 f7 f2 ea f9 ff 06 18 df d3 d7 cf fb
       -4 -20 6 2 -9 -14 -22 -7 -1 6 24 -33 -45 -41 -49 -5
0000a0 f5 fc 1d 0c 03 fc f7 ea fc 1d 2f 1c 00 ca 13 e6
       -11 -4 29 12 3 -4 -9 -22 -4 29 47 28 0 -54 19 -26
0000b0 f4 05 14 fe 0f f4 05 f4 f9 07 0d fc fd ec ff 03
       -12 5 20 -2 15 -12 5 -12 -7 7 13 -4 -3 -20 -1 3
0000c0 fd 06 08 fd f0 00 f2 de f3 2a 20 25 2a ca 1e 09
       -3 6 8 -3 -16 0 -14 -34 -13 42 32 37 42 -54 30 9
0000d0 f9 5f 14 01 4a 0c 02 16 8d 02 b9 e3 7f 24 fc db
       -7 95 20 1 74 12 2 22 -115 2 -71 -29 127 36 -4 -37
0000e0 0f fe e1 e9 f4 10 14 0c f2 ce bb d0 12 33 e1 06
       15 -2 -31 -23 -12 16 20 12 -14 -50 -69 -48 18 51 -31 6
0000f0 17 14 ec 1e 1a 02 ef f4 f5 fb d3 f9 f5 29 ed e7
       23 20 -20 30 26 2 -17 -12 -11 -5 -45 -7 -11 41 -19 -25

fuse_attr_7 i1 [32, 3, 3, 32]
000000 29 06 0a 1f 09 05 f4 f8 13 38 1f 22 ea 7f 21 08
       41 6 10 31 9 5 -12 -8 19 56 31 34 -22 127 33 8
000010 f3 d0 12 de 11 0b 40 3d f9 12 e4 06 df fb ce f2
       -13 -48 18 -34 17 11 64 61 -7 18 -28 6 -33 -5 -50 -14
000020 18 fd 09 01 1b fb e2 43 1b f5 db de fc 1d 0c 09
       24 -3 9 1 27 -5 -30 67 27 -11 -37 -34 -4 29 12 9
000030 fe 11 e2 f0 0b 56 16 f8 f7 ea e9 ec 1b fc de da
       -2 17 -30 -16 11 86 22 -8 -9 -22 -23 -20 27 -4 -34 -38
000040 fb 20 18 d7 3a f2 e5 15 e2 d5 d7 dc e8 0a 0e 38
       -5 32 24 -41 58 -14 -27 21 -30 -43 -41 -36 -24 10 14 56
000050 d0 fa 18 0a 26 ff 3a f6 f2 42 2f fc fd 11 f5 03
       -48 -6 24 10 38 -1 58 -10 -14 66 47 -4 -3 17 -11 3
000060 21 0d 21 e8 f3 ff 63 23 45 d9 40 c5 07 00 fa 00
       33 13 33 -24 -13 -1 99 35 69 -39 64 -59 7 0 -6 0
000070 d3 01 ec e3 26 a4 fd 43 f5 fd c1 f3 12 0b bc 10
       -45 1 -20 -29 38 -92 -3 67 -11 -3 -63 -13 18 11 -68 16
000080 f0 e3 59 d2 ff 10 03 dd 6a dd 05 9f f1 cf 4b f3
       -16 -29 89 -46 -1 16 3 -35 106 -35 5 -97 -15 -49 75 -13
000090 f1 10 d9 31 e0 a6 11 0a fe 17 d2 f5 0d f3 dc f9
       -15 16 -39 49 -32 -90 17 10 -2 23 -46 -11 13 -13 -36 -7
0000a0 fd cd 03 eb dd 0d db 1c 5c 0b e3 c3 d2 21 62 df
       -3 -51 3 -21 -35 13 -37 28 92 11 -29 -61 -46 33 98 -33
0000b0 f2 ca 23 fe dc d5 ff 01 f3 ef 2f 19 12 ea b9 da
       -14 -54 35 -2 -36 -43 -1 1 -13 -17 47 25 18 -22 -71 -38
0000c0 12 00 25 ec d5 13 21 c1 fe ca 3e cc eb c0 07 21
       18 0 37 -20 -43 19 33 -63 -2 -54 62 -52 -21 -64 7 33
0000d0 e7 22 20 ff 1f fd 00 be f5 f1 02 ec 0e 0f 22 36
       -25 34 32 -1 31 -3 0 -66 -11 -15 2 -20 14 15 34 54
0000e0 d7 f3 e6 d7 f3 41 0b c4 3f 05 0a de f0 ea 26 28
       -41 -13 -26 -41 -13 65 11 -60 63 5 10 -34 -16 -22 38 40
0000f0 dc 30 1e ec 08 f3 d4 db 1b e6 df 25 15 04 4c 37
       -36 48 30 -20 8 -13 -44 -37 27 -26 -33 37 21 4 76 55

fuse_attr_5 i1 [32, 3, 3, 16]
000000 e4 d8 0b c0 cc f6 44 2c cd 01 d9 d4 db da db 2a
       -28 -40 11 -64 -52 -10 68 44 -51 1 -39 -44 -37 -38 -37 42
000010 a9 11 33 dd d0 e0 2b 12 dd 43 f6 01 1a f0 cb 3c
       -87 17 51 -35 -48 -32 43 18 -35 67 -10 1 26 -16 -53 60
000020 de 22 78 db c0 3e 1a 2a ec 37 08 0a 22 00 ea 63
       -34 34 120 -37 -64 62 26 42 -20 55 8 10 34 0 -22 99
000030 ca ce 06 48 18 d1 58 26 b2 23 d9 bf 2b 95 fd 25
       -54 -50 6 72 24 -47 88 38 -78 35 -39 -65 43 -107 -3 37
000040 c4 92 3e 69 e7 cb 40 70 96 47 fb 90 16 a6 da 09
       -60 -110 62 105 -25 -53 64 112 -106 71 -5 -112 22 -90 -38 9
000050 dd 91 3b f2 dc 01 11 60 db 4f c5 80 21 91 ba 12
       -35 -111 59 -14 -36 1 17 96 -37 79 -59 -128 33 -111 -70 18
000060 17 ed dd 48 45 fa ea 08 d4 2b 1a b2 f2 e3 0f aa
       23 -19 -35 72 69 -6 -22 8 -44 43 26 -78 -14 -29 15 -86
000070 04 ca eb 35 dd f1 c9 19 ec 2f 0a 98 25 a5 bc de
       4 -54 -21 53 -35 -15 -55 25 -20 47 10 -104 37 -91 -68 -34
000080 ec b9 eb 16 fd 26 e7 1e 48 15 df e2 0e c6 f9 1e
       -20 -71 -21 22 -3 38 -25 30 72 21 -33 -30 14 -58 -7 30
000090 f5 05 35 2a d6 34 94 18 04 e9 f9 29 15 ea c8 07
       -11 5 53 42 -42 52 -108 24 4 -23 -7 41 21 -22 -56 7
0000a0 d7 ed c8 13 d7 34 0f 00 fd c9 0f 27 d9 ea f9 c5
       -41 -19 -56 19 -41 52 15 0 -3 -55 15 39 -39 -22 -7 -59
0000b0 fc e0 d9 ca f5 00 d7 dc ee d7 16 38 e4 e6 df a2
       -4 -32 -39 -54 -11 0 -41 -36 -18 -41 22 56 -28 -26 -33 -94
0000c0 2e e6 0d 06 bd 4e 0d 0a 1a e5 44 f9 0a c1 f7 ca
       46 -26 13 6 -67 78 13 10 26 -27 68 -7 10 -63 -9 -54
0000d0 ef f9 94 c1 0b 28 0d 07 18 e8 7f f8 c0 c6 1e d6
       -17 -7 -108 -63 11 40 13 7 24 -24 127 -8 -64 -58 30 -42
0000e0 d1 e6 a1 f9 fd d6 f2 d4 0a d1 48 ef d8 f5 11 cd
       -47 -26 -95 -7 -3 -42 -14 -44 10 -47 72 -17 -40 -11 17 -51
0000f0 2d ee ad db ab fd f9 20 2d 0b 43 ec 02 e4 ea 22
       45 -18 -83 -37 -85 -3 -7 32 45 11 67 -20 2 -28 -22 34

fuse_attr_3 i1 [16, 3, 3, 16]
000000 e9 23 e3 ce fe db eb d2 44 e3 f0 d6 d3 ae f5 d7
       -23 35 -29 -50 -2 -37 -21 -46 68 -29 -16 -42 -45 -82 -11 -41
000010 d9 1e db c9 e6 d2 f5 f4 23 31 0f ff bf 82 bd d5
       -39 30 -37 -55 -26 -46 -11 -12 35 49 15 -1 -65 -126 -67 -43
000020 f1 36 ef f0 d8 ff 10 24 1d 28 48 16 c3 b6 15 f4
       -15 54 -17 -16 -40 -1 16 36 29 40 72 22 -61 -74 21 -12
000030 c7 34 f4 17 1c f3 ee fd 30 34 21 08 bf ac ea d4
       -57 52 -12 23 28 -13 -18 -3 48 52 33 8 -65 -84 -22 -44
000040 da 3c e9 e2 f0 ec cd fd 26 46 4c 1a 9b bd 19 ec
       -38 60 -23 -30 -16 -20 -51 -3 38 70 76 26 -101 -67 25 -20
000050 e0 54 f3 05 ce 05 e8 03 24 2e 65 e1 a8 d5 12 2b
       -32 84 -13 5 -50 5 -24 3 36 46 101 -31 -88 -43 18 43
000060 e4 22 f9 46 fa d1 18 42 d5 f6 28 e9 80 d7 0e d9
       -28 34 -7 70 -6 -47 24 66 -43 -10 40 -23 -128 -41 14 -39
000070 d8 2a 00 e8 de cd dc 18 21 05 5a 0f a2 e7 1b 12
       -40 42 0 -24 -34 -51 -36 24 33 5 90 15 -94 -25 27 18
000080 e4 25 fa 01 ea 18 e2 29 1b 46 45 03 f1 f8 02 05
       -28 37 -6 1 -22 24 -30 41 27 70 69 3 -15 -8 2 5
000090 f0 06 17 e9 20 11 e2 27 e8 3d ff fe e3 24 04 02
       -16 6 23 -23 32 17 -30 39 -24 61 -1 -2 -29 36 4 2
0000a0 1f 1c 37 08 31 0b f2 27 e2 64 12 05 0d 25 18 13
       31 28 55 8 49 11 -14 39 -30 100 18 5 13 37 24 19
0000b0 0d 1b 0d e8 1a f1 fa f7 15 1e ff f4 09 1c 35 07
       13 27 13 -24 26 -15 -6 -9 21 30 -1 -12 9 28 53 7
0000c0 05 0d 3d d1 3b 1a 1d 2f bc 5c 25 f9 13 1b 03 05
       5 13 61 -47 59 26 29 47 -68 92 37 -7 19 27 3 5
0000d0 f2 0d 73 1e 38 22 12 1e bf 34 0b f4 2c 19 7f 35
       -14 13 115 30 56 34 18 30 -65 52 11 -12 44 25 127 53
0000e0 eb fe 34 f9 1d 0e e0 e0 e5 d2 ce 14 2a b5 3f 0f
       -21 -2 52 -7 29 14 -32 -32 -27 -46 -50 20 42 -75 63 15
0000f0 03 0f 48 d5 fc 29 29 ea f4 e2 15 ed d9 19 1f 01
       3 15 72 -43 -4 41 41 -22 -12 -30 21 -19 -39 25 31 1

Xq.2_attr i1 [10, 32] scale=0.016107585 zero_point=0
000000 ec e5 44 17 cb 30 4b 28 03 31 f4 f0 cb ed c4 00
       -0.32215172 -0.4349048 1.0953158 0.37047446 -0.853702 0.7731641 1.2080688 0.64430344 0.048322756 0.78927165 -0.19329102 -0.25772136 -0.853702 -0.30604413 -0.9664551 0.0
000010 c9 0c 9f d5 f3 3f e9 13 3b d4 dd f0 57 ee 24 15
       -0.8859172 0.19329102 -1.5624357 -0.6926262 -0.20939861 1.0147779 -0.37047446 0.30604413 0.95034754 -0.70873374 -0.56376547 -0.25772136 1.4013599 -0.28993654 0.5798731 0.33825928
000020 b7 7d c9 dd e8 d1 00 5d f3 f8 0b b3 ce c8 57 c7
       -1.1758537 2.0134482 -0.8859172 -0.56376547 -0.38658205 -0.75705653 0.0 1.4980054 -0.20939861 -0.12886068 0.17718343 -1.2402841 -0.8053793 -0.90202475 1.4013599 -0.91813236
000030 48 36 08 f5 be 08 06 0d bc 0c eb c9 0b ea 44 37
       1.1597462 0.8698096 0.12886068 -0.17718343 -1.0631006 0.12886068 0.09664551 0.20939861 -1.0953158 0.19329102 -0.33825928 -0.8859172 0.17718343 -0.35436687 1.0953158 0.8859172
000040 ed ec 28 e6 f4 34 38 19 5b e0 0e 27 12 5a f0 c6
       -0.30604413 -0.32215172 0.64430344 -0.41879722 -0.19329102 0.83759445 0.90202475 0.40268964 1.4657903 -0.5154427 0.22550619 0.6281958 0.28993654 1.4496827 -0.25772136 -0.9342399
000050 18 c3 2b e0 45 08 e6 b6 f3 f5 cc 3b e9 ec d2 39
       0.38658205 -0.9825627 0.6926262 -0.5154427 1.1114234 0.12886068 -0.41879722 -1.1919613 -0.20939861 -0.17718343 -0.83759445 0.95034754 -0.37047446 -0.32215172 -0.7409489 0.91813236
000060 18 e6 04 49 30 01 d0 f4 01 d8 d8 f7 1b 0b fd 2f
       0.38658205 -0.41879722 0.06443034 1.1758537 0.7731641 0.016107585 -0.7731641 -0.19329102 0.016107585 -0.64430344 -0.64430344 -0.14496827 0.4349048 0.17718343 -0.048322756 0.75705653
000070 d9 d6 32 47 06 09 e3 27 e5 fb 13 fc 26 e1 c7 01
       -0.6281958 -0.67651856 0.8053793 1.1436386 0.09664551 0.14496827 -0.46711996 0.6281958 -0.4349048 -0.08053793 0.30604413 -0.06443034 0.61208826 -0.49933514 -0.91813236 0.016107585
000080 67 da 17 f2 ee d6 36 dc e7 13 e1 d2 b8 48 c2 16
       1.6590813 -0.61208826 0.37047446 -0.22550619 -0.28993654 -0.67651856 0.8698096 -0.5798731 -0.40268964 0.30604413 -0.49933514 -0.7409489 -1.1597462 1.1597462 -0.9986703 0.35436687
000090 de e6 35 06 1b c6 2f f5 eb 7b d5 1d ee 0b f2 f0
       -0.5476579 -0.41879722 0.853702 0.09664551 0.4349048 -0.9342399 0.75705653 -0.17718343 -0.33825928 1.981233 -0.6926262 0.46711996 -0.28993654 0.17718343 -0.22550619 -0.25772136
0000a0 42 ec ff 04 32 f7 c9 e6 4c 06 d8 ff 3b 19 e1 fe
       1.0631006 -0.32215172 -0.016107585 0.06443034 0.8053793 -0.14496827 -0.8859172 -0.41879722 1.2241765 0.09664551 -0.64430344 -0.016107585 0.95034754 0.40268964 -0.49933514 -0.03221517
0000b0 27 cd f4 4c e3 d1 f0 01 fb 07 35 f9 23 36 bb e2
       0.6281958 -0.82148683 -0.19329102 1.2241765 -0.46711996 -0.75705653 -0.25772136 0.016107585 -0.08053793 0.11275309 0.853702 -0.11275309 0.56376547 0.8698096 -1.1114234 -0.48322755
0000c0 e4 da d7 bc ee dd b4 2a d0 c1 6b e8 03 fe 1b 27
       -0.45101237 -0.61208826 -0.660411 -1.0953158 -0.28993654 -0.56376547 -1.2241765 0.67651856 -0.7731641 -1.0147779 1.7235116 -0.38658205 0.048322756 -0.03221517 0.4349048 0.6281958
0000d0 23 d0 23 3f 12 4c e4 07 6c eb d3 5d ed 41 17 af
       0.56376547 -0.7731641 0.56376547 1.0147779 0.28993654 1.2241765 -0.45101237 0.11275309 1.7396193 -0.33825928 -0.72484136 1.4980054 -0.30604413 1.046993 0.37047446 -1.3047144
0000e0 27 d8 b5 11 4d ea e4 d2 f5 6a ec 53 3c 01 eb cc
       0.6281958 -0.64430344 -1.2080688 0.27382895 1.2402841 -0.35436687 -0.45101237 -0.7409489 -0.17718343 1.707404 -0.32215172 1.3369296 0.9664551 0.016107585 -0.33825928 -0.83759445
0000f0 d0 f2 e9 d4 d4 c5 7f 05 f3 ca fd 2d d8 20 d7 24
       -0.7731641 -0.22550619 -0.37047446 -0.70873374 -0.70873374 -0.95034754 2.0456634 0.08053793 -0.20939861 -0.8698096 -0.048322756 0.72484136 -0.64430344 0.5154427 -0.660411 0.5798731

fuse_attr_4 i1 [16, 3, 3, 16]
000000 0b dc 0b 1e 38 f7 12 10 f0 df 04 e9 fa f3 f2 06
       11 -36 11 30 56 -9 18 16 -16 -33 4 -23 -6 -13 -14 6
000010 ea fc 36 15 e0 e5 1c 1f f7 ca 08 d7 02 ee ed d7
       -22 -4 54 21 -32 -27 28 31 -9 -54 8 -41 2 -18 -19 -41
000020 ff 09 50 24 eb f9 1d 2b fd 01 ed f2 14 33 ff 18
       -1 9 80 36 -21 -7 29 43 -3 1 -19 -14 20 51 -1 24
000030 04 da 2b f1 2d f8 20 f2 08 f9 f7 f6 fa 1c f9 1b
       4 -38 43 -15 45 -8 32 -14 8 -7 -9 -10 -6 28 -7 27
000040 c4 bb 9f bf f5 03 51 08 4a 0a 09 bb f7 e1 ae 80
       -60 -69 -97 -65 -11 3 81 8 74 10 9 -69 -9 -31 -82 -128
000050 cf e6 03 0c 1c e4 13 28 27 dc 1d d3 05 1b e1 e5
       -49 -26 3 12 28 -28 19 40 39 -36 29 -45 5 27 -31 -27
000060 38 f2 fd df ff e3 f5 e0 fa fd 00 e5 c7 f5 ff 1b
       56 -14 -3 -33 -1 -29 -11 -32 -6 -3 0 -27 -57 -11 -1 27
000070 0c de bb d5 03 fd 1d c6 01 35 01 ea f3 dd cf f3
       12 -34 -69 -43 3 -3 29 -58 1 53 1 -22 -13 -35 -49 -13
000080 d1 fa 09 0d 0a 1f b1 dd 1a d9 06 fe f8 d8 07 13
       -47 -6 9 13 10 31 -79 -35 26 -39 6 -2 -8 -40 7 19
000090 18 18 f2 c0 de f2 25 d4 8e fd f0 f8 14 19 19 2a
       24 24 -14 -64 -34 -14 37 -44 -114 -3 -16 -8 20 25 25 42
0000a0 e6 28 40 21 dc 0c 0b ed 9d 16 d5 05 0b 2b c6 35
       -26 40 64 33 -36 12 11 -19 -99 22 -43 5 11 43 -58 53
0000b0 d3 0b e7 e7 4b 13 ec f9 e6 04 40 34 cd ee 07 f6
       -45 11 -25 -25 75 19 -20 -7 -26 4 64 52 -51 -18 7 -10
0000c0 f8 07 39 87 80 b5 00 e0 0e 1a df 61 fe f3 52 fe
       -8 7 57 -121 -128 -75 0 -32 14 26 -33 97 -2 -13 82 -2
0000d0 af ad 08 30 b6 1f e3 f5 70 f9 39 6b f6 86 9f a3
       -81 -83 8 48 -74 31 -29 -11 112 -7 57 107 -10 -122 -97 -93
0000e0 e0 ee ef f5 1d ff d8 d1 3b bb 12 14 10 a9 ed ef
       -32 -18 -17 -11 29 -1 -40 -47 59 -69 18 20 16 -87 -19 -17
0000f0 03 cc e0 bb c6 4c 25 fd 54 26 09 15 11 bf f7 f3
       3 -52 -32 -69 -58 76 37 -3 84 38 9 21 17 -65 -9 -13

fuse_attr_6 i1 [32, 3, 3, 32]
000000 fa f6 bb f7 22 08 ba e8 f8 1b 5a 52 12 16 cf de
       -6 -10 -69 -9 34 8 -70 -24 -8 27 90 82 18 22 -49 -34
000010 d0 d3 fb 3e d4 32 0a e8 0b 35 fc b9 0f f4 10 2f
       -48 -45 -5 62 -44 50 10 -24 11 53 -4 -71 15 -12 16 47
000020 1c e5 fc d8 24 16 f8 0e fb ed 0f 01 fc ee e7 1d
       28 -27 -4 -40 36 22 -8 14 -5 -19 15 1 -4 -18 -25 29
000030 10 ce eb c6 28 df 1e 0d fe 28 b6 e9 0c 1d d8 1f
       16 -50 -21 -58 40 -33 30 13 -2 40 -74 -23 12 29 -40 31
000040 11 f7 4b 2b 04 d8 e8 c6 ed f6 ce ff 45 fe 53 e1
       17 -9 75 43 4 -40 -24 -58 -19 -10 -50 -1 69 -2 83 -31
000050 15 d3 14 57 f7 18 cf 11 2d 03 26 f4 ae e9 e9 30
       21 -45 20 87 -9 24 -49 17 45 3 38 -12 -82 -23 -23 48
000060 ad ef fe 3d 1b 0d 05 05 07 01 fd 1b 3a dc db 07
       -83 -17 -2 61 27 13 5 5 7 1 -3 27 58 -36 -37 7
000070 f3 ee 09 08 d1 ee c7 fa 0d 01 1b ea f2 fc 4b 34
       -13 -18 9 8 -47 -18 -57 -6 13 1 27 -22 -14 -4 75 52
000080 c7 23 04 2c 1b 02 1c eb 03 ec c5 25 07 a5 ec 0f
       -57 35 4 44 27 2 28 -21 3 -20 -59 37 7 -91 -20 15
000090 cf fe ef 00 c7 06 f9 e4 ea db f7 f4 df fd 06 0f
       -49 -2 -17 0 -57 6 -7 -28 -22 -37 -9 -12 -33 -3 6 15
0000a0 d3 e3 ff 20 c1 cc 46 1f f0 d1 2a e4 1e f8 ed e5
       -45 -29 -1 32 -63 -52 70 31 -16 -47 42 -28 30 -8 -19 -27
0000b0 7f ab f3 4c bc 08 2b ce 03 ff 5c b1 07 12 0c f6
       127 -85 -13 76 -68 8 43 -50 3 -1 92 -79 7 18 12 -10
0000c0 26 35 12 e5 0b 2a 14 dc e8 11 0e 24 41 fe d7 15
       38 53 18 -27 11 42 20 -36 -24 17 14 36 65 -2 -41 21
0000d0 5f 4a f4 f8 fa ec 37 26 dc ea 04 0c 32 f0 fc ef
       95 74 -12 -8 -6 -20 55 38 -36 -22 4 12 50 -16 -4 -17
0000e0 f9 17 22 23 1d f5 0e 07 ff ef 0f e4 ef 0d 0c 3f
       -7 23 34 35 29 -11 14 7 -1 -17 15 -28 -17 13 12 63
0000f0 11 a1 2e fb f7 ef fd dc 0c 0c 0f 37 c8 f8 e6 21
       17 -95 46 -5 -9 -17 -3 -36 12 12 15 55 -56 -8 -26 33

fuse_attr_1 i1 [16, 3, 3, 3]
000000 f2 f9 02 2a 3e 26 d8 d3 d2 ce ce d8 6e 7f 67 e7
       -14 -7 2 42 62 38 -40 -45 -46 -50 -50 -40 110 127 103 -25
000010 c7 cb d1 d9 e3 24 21 1c ec f8 f4 0f 25 e6 ec 07
       -57 -53 -47 -39 -29 36 33 28 -20 -8 -12 15 37 -26 -20 7
000020 fa 02 ea 11 47 7f 55 fd e5 eb aa 8a b2 27 4f 50
       -6 2 -22 17 71 127 85 -3 -27 -21 -86 -118 -78 39 79 80
000030 04 fe fd c9 c9 d9 be 0f 39 c8 1e 57 d6 07 19 5a
       4 -2 -3 -55 -55 -39 -66 15 57 -56 30 87 -42 7 25 90
000040 3f 24 4f 45 2e 09 11 fd 39 f1 8b 11 dd 80 ff 0f
       63 36 79 69 46 9 17 -3 57 -15 -117 17 -35 -128 -1 15
000050 cf 35 02 db 1c 12 d3 ea 27 11 39 ec a1 20 fe 80
       -49 53 2 -37 28 18 -45 -22 39 17 57 -20 -95 32 -2 -128
000060 04 22 e7 05 11 ba e9 14 bc db 44 28 2e 12 15 42
       4 34 -25 5 17 -70 -23 20 -68 -37 68 40 46 18 21 66
000070 03 2d 33 04 0b 63 ab fb 53 b7 1f 06 d3 19 fb 8f
       3 45 51 4 11 99 -85 -5 83 -73 31 6 -45 25 -5 -113
000080 cb de 80 d9 c5 c6 15 c8 ed c2 99 be 81 c4 e8 a7
       -53 -34 -128 -39 -59 -58 21 -56 -19 -62 -103 -66 -127 -60 -24 -89
000090 25 15 38 55 55 6e 33 33 49 18 fe 10 00 e5 ff 1e
       37 21 56 85 85 110 51 51 73 24 -2 16 0 -27 -1 30
0000a0 fa 0f fe 15 fb a6 0a 35 e0 06 35 d6 f7 1a 8b 20
       -6 15 -2 21 -5 -90 10 53 -32 6 53 -42 -9 26 -117 32
0000b0 7f c2 07 44 e3 eb 25 b0 f5 5f e4 fa 2d ee 16 1c
       127 -62 7 68 -29 -21 37 -80 -11 95 -28 -6 45 -18 22 28
0000c0 e8 e3 fa 38 fc cf f0 41 72 a9 a6 cd 7f 1f f9 d4
       -24 -29 -6 56 -4 -49 -16 65 114 -87 -90 -51 127 31 -7 -44
0000d0 2a 4c af ad b9 65 28 df 0d de 05 1c ce d1 56 0e
       42 76 -81 -83 -71 101 40 -33 13 -34 5 28 -50 -47 86 14
0000e0 d7 bc d1 ee af d1 d0 05 1b f9 ed 25 3d ec 6d 7f
       -41 -68 -47 -18 -81 -47 -48 5 27 -7 -19 37 61 -20 109 127
0000f0 06 1d 0b 0d c0 0a 65 cf e4 2c ee f6 33 d0 06 7f
       6 29 11 13 -64 10 101 -49 -28 44 -18 -10 51 -48 6 127
