model_zoo/fomo_int8.tflite (tflite, 56904 bytes, 21 tensors)

model_1/Conv1/Conv2D i1 [16, 3, 3, 1]
000000 aa 92 e1 43 dc 10 21 7f 13 71 9f f2 81 6f 17 0e
       -86 -110 -31 67 -36 16 33 127 19 113 -97 -14 -127 111 23 14
000010 fe f0 ea fe cf 26 60 7f f5 a2 af 79 7d 3a 03 ea
       -2 -16 -22 -2 -49 38 96 127 -11 -94 -81 121 125 58 3 -22
000020 f2 9c 81 d5 2d e1 37 19 81 2c 2a d8 f8 a3 2b 1c
       -14 -100 -127 -43 45 -31 55 25 -127 44 42 -40 -8 -93 43 28
000030 81 3d 1a a2 38 0d ee 4f 7f cb 36 ec e0 cc a6 32
       -127 61 26 -94 56 13 -18 79 127 -53 54 -20 -32 -52 -90 50
000040 07 d0 7f 1f d5 2a 03 ef eb e3 37 cc ab 7f e7 c4
       7 -48 127 31 -43 42 3 -17 -21 -29 55 -52 -85 127 -25 -60
000050 60 db 57 dc de 7f c5 ef 50 ca 19 58 0b dc 81 e2
       96 -37 87 -36 -34 127 -59 -17 80 -54 25 88 11 -36 -127 -30
000060 0d 2a 11 08 ed 07 41 a4 21 ad 7f d2 d7 31 f7 81
       13 42 17 8 -19 7 65 -92 33 -83 127 -46 -41 49 -9 -127
000070 73 07 b2 50 06 42 05 15 76 7f 1d 44 77 4c e3 e5
       115 7 -78 80 6 66 5 21 118 127 29 68 119 76 -29 -27
000080 2d 2f 65 81 f2 bd 4f 81 c4 07 84 a8 38 b8 97 fa
       45 47 101 -127 -14 -67 79 -127 -60 7 -124 -88 56 -72 -105 -6

model_1/expanded_conv_depthwise_BN/FusedBatchNormV3;model_1/expanded_conv_depthwise/depthwise;model_1/block_5_project/Conv2D i1 [1, 3, 3, 16]
000000 f5 e5 eb 0d e2 0d 12 0e fe f5 f9 fb 09 00 f8 09
       -11 -27 -21 13 -30 13 18 14 -2 -11 -7 -5 9 0 -8 9
000010 fd e4 e2 f9 06 fd 13 e3 e1 09 ed 39 f0 19 ef 0e
       -3 -28 -30 -7 6 -3 19 -29 -31 9 -19 57 -16 25 -17 14
000020 0c fc f4 fe 05 f1 0b 09 f6 01 04 e5 f5 02 fc 09
       12 -4 -12 -2 5 -15 11 9 -10 1 4 -27 -11 2 -4 9
000030 fd ed 00 eb 7f ea 81 eb 7f 7f f5 f1 7d e8 ec f1
       -3 -19 0 -21 127 -22 -127 -21 127 127 -11 -15 125 -24 -20 -15
000040 81 7f 7f e8 a1 a3 03 9d fa 95 7f 7f 7f 7f 7f 7f
       -127 127 127 -24 -95 -93 3 -99 -6 -107 127 127 127 127 127 127
000050 06 de fc f3 fc 7f 13 f7 f7 f2 e5 fd ed fe da fa
       6 -34 -4 -13 -4 127 19 -9 -9 -14 -27 -3 -19 -2 -38 -6
000060 09 f9 0d d6 e7 12 57 06 ea f8 fd e5 f4 fc 06 fb
       9 -7 13 -42 -25 18 87 6 -22 -8 -3 -27 -12 -4 6 -5
000070 1d d9 fe 81 04 ee f0 7f f3 01 d3 e3 ea bf d0 e5
       29 -39 -2 -127 4 -18 -16 127 -13 1 -45 -29 -22 -65 -48 -27
000080 07 08 fa ea 05 fb ef ff 00 02 f1 e8 f3 f8 ea f9
       7 8 -6 -22 5 -5 -17 -1 0 2 -15 -24 -13 -8 -22 -7

model_1/expanded_conv_project/Conv2D i1 [8, 1, 1, 16]
000000 ff f2 ff 9c f1 e0 2f e2 2b 1e eb f9 75 7f e4 b1
       -1 -14 -1 -100 -15 -32 47 -30 43 30 -21 -7 117 127 -28 -79
000010 7f cf e2 14 db 48 b6 d4 ca 4d dd c3 f5 02 bb fb
       127 -49 -30 20 -37 72 -74 -44 -54 77 -35 -61 -11 2 -69 -5
000020 ce 9b 18 2c 15 a7 97 02 22 96 08 81 35 d9 a1 1c
       -50 -101 24 44 21 -89 -105 2 34 -106 8 -127 53 -39 -95 28
000030 15 0a f7 12 f8 52 ce e9 7f 2e 02 06 fe e5 01 03
       21 10 -9 18 -8 82 -50 -23 127 46 2 6 -2 -27 1 3
000040 aa c9 f2 95 03 35 55 8b 26 d9 d7 bd 81 19 d1 e1
       -86 -55 -14 -107 3 53 85 -117 38 -39 -41 -67 -127 25 -47 -31
000050 48 31 3e dc 1f d2 8a 81 fc c1 3b 22 d9 3b 24 e5
       72 49 62 -36 31 -46 -118 -127 -4 -63 59 34 -39 59 36 -27
000060 73 23 88 bf 10 ba e3 a7 d5 1c 81 4a 51 a2 f9 5a
       115 35 -120 -65 16 -70 -29 -89 -43 28 -127 74 81 -94 -7 90
000070 81 0a 5a ec c4 07 14 d4 cd 45 59 f3 30 e8 18 15
       -127 10 90 -20 -60 7 20 -44 -51 69 89 -13 48 -24 24 21

model_1/block_1_expand/Conv2D i1 [48, 1, 1, 8]
000000 d9 41 fd 08 81 c0 85 ec 5a b7 bb d9 7f 99 40 21
       -39 65 -3 8 -127 -64 -123 -20 90 -73 -69 -39 127 -103 64 33
000010 81 70 bb 87 43 05 eb 44 2e 2a 5a fd 43 46 7f fe
       -127 112 -69 -121 67 5 -21 68 46 42 90 -3 67 70 127 -2
000020 fc 81 38 ed d5 b2 0a da 7f ee 51 41 b8 f2 fc 00
       -4 -127 56 -19 -43 -78 10 -38 127 -18 81 65 -72 -14 -4 0
000030 fd 1b 7f e1 1b a5 ba 29 40 0d 81 07 e2 6c 57 ca
       -3 27 127 -31 27 -91 -70 41 64 13 -127 7 -30 108 87 -54
000040 fd 7f de 03 36 3b 1c 04 00 7f d5 2c 1f c9 13 42
       -3 127 -34 3 54 59 28 4 0 127 -43 44 31 -55 19 66
000050 e7 93 11 01 e2 81 ee b1 81 ba 4a 1a dc b7 4c 1b
       -25 -109 17 1 -30 -127 -18 -79 -127 -70 74 26 -36 -73 76 27
000060 81 19 92 34 16 cd c7 4a 5c 96 7f 59 f5 1a 15 ac
       -127 25 -110 52 22 -51 -57 74 92 -106 127 89 -11 26 21 -84
000070 14 71 d9 81 1a a5 f9 c1 32 67 27 f1 fb cc 63 81
       20 113 -39 -127 26 -91 -7 -63 50 103 39 -15 -5 -52 99 -127
000080 ed 81 e3 71 e7 19 23 3f c9 af 81 6f dc 63 d8 41
       -19 -127 -29 113 -25 25 35 63 -55 -81 -127 111 -36 99 -40 65
000090 e7 b5 e4 7f 23 52 2a 2d 32 81 40 bd 0b e3 25 e3
       -25 -75 -28 127 35 82 42 45 50 -127 64 -67 11 -29 37 -29
0000a0 12 2d 32 0b 13 7f 42 fa fa 6f 3b da 19 bd 60 81
       18 45 50 11 19 127 66 -6 -6 111 59 -38 25 -67 96 -127
0000b0 14 fd 7f 47 f6 64 3e e1 81 8d 14 9e 1d 44 d5 82
       20 -3 127 71 -10 100 62 -31 -127 -115 20 -98 29 68 -43 -126
0000c0 b7 9e 49 a1 43 65 d7 81 7f db aa e6 03 12 a8 1b
       -73 -98 73 -95 67 101 -41 -127 127 -37 -86 -26 3 18 -88 27
0000d0 81 ea 87 dd c7 dc f7 fa 3e 14 f0 c5 81 e3 65 64
       -127 -22 -121 -35 -57 -36 -9 -6 62 20 -16 -59 -127 -29 101 100
0000e0 b4 c2 fe 4d d6 81 0e e2 38 47 0d cd 27 ed ed 81
       -76 -62 -2 77 -42 -127 14 -30 56 71 13 -51 39 -19 -19 -127
0000f0 b8 93 3b a1 31 62 de 81 24 29 e6 7f 07 b9 06 0f
       -72 -109 59 -95 49 98 -34 -127 36 41 -26 127 7 -71 6 15

model_1/block_1_depthwise_BN/FusedBatchNormV3;model_1/block_1_depthwise/depthwise;model_1/block_3_depthwise/depthwise i1 [1, 3, 3, 48]
000000 f0 81 04 c9 7f 81 37 ee b2 81 fb dd 5e 3f 2a 81
       -16 -127 4 -55 127 -127 55 -18 -78 -127 -5 -35 94 63 42 -127
000010 38 f1 e7 de 81 25 a8 26 c0 3f 2c e0 6e c8 0b b9
       56 -15 -25 -34 -127 37 -88 38 -64 63 44 -32 110 -56 11 -71
000020 93 b8 28 40 14 4a 6b a8 81 da 30 39 3b cb 76 7f
       -109 -72 40 64 20 74 107 -88 -127 -38 48 57 59 -53 118 127
000030 db a5 d2 41 97 74 13 b9 97 1b 4b a0 5e 40 5a ab
       -37 -91 -46 65 -105 116 19 -71 -105 27 75 -96 94 64 90 -85
000040 b2 81 24 92 b5 2a b3 7f b8 53 5b bc 7c c1 11 cd
       -78 -127 36 -110 -75 42 -77 127 -72 83 91 -68 124 -63 17 -51
000050 d5 b0 40 6b 7f 63 70 81 c7 bc 3f 66 6b 62 7c 66
       -43 -80 64 107 127 99 112 -127 -57 -68 63 102 107 98 124 102
000060 f1 b5 81 57 dc 19 fe 05 59 68 3d c4 1c 37 e8 01
       -15 -75 -127 87 -36 25 -2 5 89 104 61 -60 28 55 -24 1
000070 b8 e5 2e af 5f 2e 81 f0 da 05 43 bd 6b 44 46 d7
       -72 -27 46 -81 95 46 -127 -16 -38 5 67 -67 107 68 70 -41
000080 eb fa 06 57 5a 6b 5d cf 13 35 33 34 e8 17 21 ab
       -21 -6 6 87 90 107 93 -49 19 53 51 52 -24 23 33 -85
000090 bb de e6 c6 df a3 7f 9f 81 88 7d af 57 33 89 d2
       -69 -34 -26 -58 -33 -93 127 -97 -127 -120 125 -81 87 51 -119 -46
0000a0 7f aa ce e6 2a 43 b7 33 b6 6b 7b b3 87 b3 2d bd
       127 -86 -50 -26 42 67 -73 51 -74 107 123 -77 -121 -77 45 -67
0000b0 81 81 81 4c 09 4e 3f ec 1b d3 5c 7f 56 7f 6e 95
       -127 -127 -127 76 9 78 63 -20 27 -45 92 127 86 127 110 -107
0000c0 bf d1 a8 cd d2 66 66 81 48 51 7f 81 7f 7f 19 89
       -65 -47 -88 -51 -46 102 102 -127 72 81 127 -127 127 127 25 -119
0000d0 3a b1 81 81 bc 7f 84 52 a9 7f 7f 81 81 7f de 81
       58 -79 -127 -127 -68 127 -124 82 -87 127 127 -127 -127 127 -34 -127
0000e0 c7 98 31 7f 57 7f 1a aa 59 81 7f 54 7f 13 7f 59
       -57 -104 49 127 87 127 26 -86 89 -127 127 84 127 19 127 89
0000f0 ba e7 97 7f 72 f7 ff ca 2b 64 09 d0 20 29 49 f4
       -70 -25 -105 127 114 -9 -1 -54 43 100 9 -48 32 41 73 -12

model_1/block_1_project/Conv2D i1 [8, 1, 1, 48]
000000 d6 01 1d 08 e4 df 08 04 d7 f2 cc cc e6 c7 0b ef
       -42 1 29 8 -28 -33 8 4 -41 -14 -52 -52 -26 -57 11 -17
000010 2c d6 2f 36 09 13 de 14 fb dd 31 ef fc ed 11 07
       44 -42 47 54 9 19 -34 20 -5 -35 49 -17 -4 -19 17 7
000020 41 24 17 81 1c 1b e9 d9 f7 f1 28 2d 21 0b 13 0b
       65 36 23 -127 28 27 -23 -39 -9 -15 40 45 33 11 19 11
000030 16 23 38 fe f9 5c bb e6 0a 10 e8 a7 19 7f ec 34
       22 35 56 -2 -7 92 -69 -26 10 16 -24 -89 25 127 -20 52
000040 e4 0f e3 b8 fe b2 d7 34 a7 fb 03 98 e4 05 1c a9
       -28 15 -29 -72 -2 -78 -41 52 -89 -5 3 -104 -28 5 28 -87
000050 28 34 de 12 5e d7 f9 34 ed 24 b4 fa 6c 04 d8 dd
       40 52 -34 18 94 -41 -7 52 -19 36 -76 -6 108 4 -40 -35
000060 21 ed d4 11 05 35 fd 02 fe 32 0c 02 29 ce 14 d9
       33 -19 -44 17 5 53 -3 2 -2 50 12 2 41 -50 20 -39
000070 28 c1 0b 0e ec 2f f0 23 e7 25 fa d9 1e fa 18 cc
       40 -63 11 14 -20 47 -16 35 -25 37 -6 -39 30 -6 24 -52
000080 e2 ce 26 ff 45 f6 f7 de 07 00 43 20 7f fd 20 10
       -30 -50 38 -1 69 -10 -9 -34 7 0 67 32 127 -3 32 16
000090 df 09 92 43 01 e0 af 82 16 18 b8 1c 0d 19 47 59
       -33 9 -110 67 1 -32 -81 -126 22 24 -72 28 13 25 71 89
0000a0 03 04 00 12 f9 ac 06 d9 b2 f9 7f de d2 f3 bb 02
       3 4 0 18 -7 -84 6 -39 -78 -7 127 -34 -46 -13 -69 2
0000b0 c9 86 00 0e fc ef c5 65 d1 ec 10 14 46 18 db 47
       -55 -122 0 14 -4 -17 -59 101 -47 -20 16 20 70 24 -37 71
0000c0 e1 c7 fd fe 1e d4 f9 04 16 da 3f b4 ff 12 05 20
       -31 -57 -3 -2 30 -44 -7 4 22 -38 63 -76 -1 18 5 32
0000d0 e9 de 02 e8 03 d1 fe ee 10 e6 24 1e 2b 15 ee 19
       -23 -34 2 -24 3 -47 -2 -18 16 -26 36 30 43 21 -18 25
0000e0 0d ff ff fa bc 69 2c d0 0d d5 ea e6 bd 17 7f 0c
       13 -1 -1 -6 -68 105 44 -48 13 -43 -22 -26 -67 23 127 12
0000f0 41 f8 f5 f9 24 e9 34 81 1d d0 fa 71 ae 54 fc b5
       65 -8 -11 -7 36 -23 52 -127 29 -48 -6 113 -82 84 -4 -75

model_1/block_2_expand/Conv2D i1 [48, 1, 1, 8]
000000 25 35 cb bb 0d 37 2c 7f 46 b1 0c 81 b8 44 b3 c3
       37 53 -53 -69 13 55 44 127 70 -79 12 -127 -72 68 -77 -61
000010 f1 7f 3c 12 51 2a 6a ff 3c 07 b5 0c fd ba 81 e7
       -15 127 60 18 81 42 106 -1 60 7 -75 12 -3 -70 -127 -25
000020 e2 7f 51 a6 b8 63 78 39 04 55 9a 81 6b 43 f4 e7
       -30 127 81 -90 -72 99 120 57 4 85 -102 -127 107 67 -12 -25
000030 dd 7f 21 42 4d 08 28 e5 7f be f7 06 3b 10 75 1e
       -35 127 33 66 77 8 40 -27 127 -66 -9 6 59 16 117 30
000040 4e 45 2c 7f 5f 2c 35 b1 38 3b 81 a8 21 22 12 4e
       78 69 44 127 95 44 53 -79 56 59 -127 -88 33 34 18 78
000050 d5 a8 f8 9e f0 d8 c7 7f f9 b1 81 f3 f9 ee 14 ce
       -43 -88 -8 -98 -16 -40 -57 127 -7 -79 -127 -13 -7 -18 20 -50
000060 cb c8 bd 17 81 24 ee 0e e7 1b b8 7f 84 de fa 01
       -53 -56 -67 23 -127 36 -18 14 -25 27 -72 127 -124 -34 -6 1
000070 e5 d5 81 ef 24 ff 07 cb 0d 81 b4 c5 d4 bf b2 0e
       -27 -43 -127 -17 36 -1 7 -53 13 -127 -76 -59 -44 -65 -78 14
000080 7f c6 cf 31 d3 42 31 76 f1 7f 72 d6 ce f1 d5 c0
       127 -58 -49 49 -45 66 49 118 -15 127 114 -42 -50 -15 -43 -64
000090 06 a4 6b 69 18 9a 01 81 7f d5 e3 2b bf 01 22 4f
       6 -92 107 105 24 -102 1 -127 127 -43 -29 43 -65 1 34 79
0000a0 c6 84 68 57 d1 81 f9 d1 06 e4 c9 d3 7f e2 3d 3e
       -58 -124 104 87 -47 -127 -7 -47 6 -28 -55 -45 127 -30 61 62
0000b0 a2 00 be 1f 2c 32 ba 81 b7 b8 02 03 c4 45 7f ff
       -94 0 -66 31 44 50 -70 -127 -73 -72 2 3 -60 69 127 -1
0000c0 f4 fa db c5 ef 7f 30 0a 99 a6 81 e4 d0 0e fd d8
       -12 -6 -37 -59 -17 127 48 10 -103 -90 -127 -28 -48 14 -3 -40
0000d0 f7 24 de 7f b4 3f d4 de 15 81 0f 2a 0f be f4 86
       -9 36 -34 127 -76 63 -44 -34 21 -127 15 42 15 -66 -12 -122
0000e0 29 78 ff 07 7f 01 20 d9 7f 09 d1 d8 5d e3 c6 3f
       41 120 -1 7 127 1 32 -39 127 9 -47 -40 93 -29 -58 63
0000f0 3f 0f 7f bb 62 26 21 e6 3f c6 0a 2c 09 ff 1c 7f
       63 15 127 -69 98 38 33 -26 63 -58 10 44 9 -1 28 127

model_1/block_2_depthwise_BN/FusedBatchNormV3;model_1/block_2_depthwise/depthwise;model_1/block_3_depthwise/depthwise i1 [1, 3, 3, 48]
000000 13 8d 03 3a e9 81 d2 7f 0e da 96 04 2f 17 20 02
       19 -115 3 58 -23 -127 -46 127 14 -38 -106 4 47 23 32 2
000010 7d 11 29 ec 2e 06 81 42 f8 dc 09 00 98 7f f1 81
       125 17 41 -20 46 6 -127 66 -8 -36 9 0 -104 127 -15 -127
000020 2c f2 ac 90 f8 e3 a7 0a e4 33 34 f9 e6 3e 7f ef
       44 -14 -84 -112 -8 -29 -89 10 -28 51 52 -7 -26 62 127 -17
000030 81 87 e5 7f aa 19 a2 76 47 1b 9b ee 2b 7f 14 dd
       -127 -121 -27 127 -86 25 -94 118 71 27 -101 -18 43 127 20 -35
000040 cf 46 10 15 23 7f 0c 7f 64 cf e4 19 6e a2 e5 d6
       -49 70 16 21 35 127 12 127 100 -49 -28 25 110 -94 -27 -42
000050 28 ee ce 81 1b 05 81 b4 8c 2b 88 81 40 35 f2 51
       40 -18 -50 -127 27 5 -127 -76 -116 43 -120 -127 64 53 -14 81
000060 ff f5 02 27 af 4a 39 3d 44 c8 81 05 ef 05 11 06
       -1 -11 2 39 -81 74 57 61 68 -56 -127 5 -17 5 17 6
000070 81 3a 99 ff f1 f2 68 2a fa 21 ff d0 27 23 f7 0b
       -127 58 -103 -1 -15 -14 104 42 -6 33 -1 -48 39 35 -9 11
000080 e9 fa dd 4c 0a f5 e5 31 20 1e 12 e1 f4 1c e4 f2
       -23 -6 -35 76 10 -11 -27 49 32 30 18 -31 -12 28 -28 -14
000090 d3 ca ed 0f 2c a3 7f de 03 1c 06 0e 7f f6 45 da
       -45 -54 -19 15 44 -93 127 -34 3 28 6 14 127 -10 69 -38
0000a0 07 c2 09 0d 7f d6 09 e7 a4 7f c0 d9 7f a9 d7 f4
       7 -62 9 13 127 -42 9 -25 -92 127 -64 -39 127 -87 -41 -12
0000b0 cf 18 27 f6 06 ca 9d 2a 5f 7f 28 cc ac a7 0d 2e
       -49 24 39 -10 6 -54 -99 42 95 127 40 -52 -84 -89 13 46
0000c0 50 81 7f fe 7f 1e d1 9c e7 7f 54 81 9b 7d 7f 7f
       80 -127 127 -2 127 30 -47 -100 -25 127 84 -127 -101 125 127 127
0000d0 5a 7f 7e 7f 6c 5b e2 ed 39 84 81 75 2c 56 7f 32
       90 127 126 127 108 91 -30 -19 57 -124 -127 117 44 86 127 50
0000e0 81 7f 7f 4e 81 7f b4 81 05 1e 81 05 7f 81 ba 37
       -127 127 127 78 -127 127 -76 -127 5 30 -127 5 127 -127 -70 55
0000f0 fe 0f da f3 b9 41 93 00 5b b2 f0 2e df ee 15 b0
       -2 15 -38 -13 -71 65 -109 0 91 -78 -16 46 -33 -18 21 -80

model_1/block_2_project/Conv2D i1 [8, 1, 1, 48]
000000 c8 04 03 a9 ec f5 58 21 a2 97 05 17 b5 f3 bf 2f
       -56 4 3 -87 -20 -11 88 33 -94 -105 5 23 -75 -13 -65 47
000010 81 1a f6 60 7a f2 f7 5c 41 76 36 eb 93 e8 90 c2
       -127 26 -10 96 122 -14 -9 92 65 118 54 -21 -109 -24 -112 -62
000020 e3 51 1a d2 13 c5 62 f2 27 f8 fd 95 0f c6 db be
       -29 81 26 -46 19 -59 98 -14 39 -8 -3 -107 15 -58 -37 -66
000030 31 63 01 bd b8 6b e5 ae ba 46 df 0f 30 40 ae fd
       49 99 1 -67 -72 107 -27 -82 -70 70 -33 15 48 64 -82 -3
000040 f8 9b 5f c0 6e 27 c3 23 59 1b b0 3a 31 f2 ff 16
       -8 -101 95 -64 110 39 -61 35 89 27 -80 58 49 -14 -1 22
000050 e1 0d 18 db 09 6b eb 01 42 fb e1 09 7f 0c cd 5c
       -31 13 24 -37 9 107 -21 1 66 -5 -31 9 127 12 -51 92
000060 01 f4 7b 08 5e f1 1a 17 b1 0a e2 20 26 de c9 b7
       1 -12 123 8 94 -15 26 23 -79 10 -30 32 38 -34 -55 -73
000070 dc 81 f3 e8 90 1a f7 df ef f3 08 eb ed f6 dd f5
       -36 -127 -13 -24 -112 26 -9 -33 -17 -13 8 -21 -19 -10 -35 -11
000080 0c 02 16 f8 08 f1 d0 21 16 e0 fb d7 b9 db c9 d2
       12 2 22 -8 8 -15 -48 33 22 -32 -5 -41 -71 -37 -55 -46
000090 2c db 2c ea fe cd 3f 4a e2 02 49 c5 c4 1d cd 1b
       44 -37 44 -22 -2 -51 63 74 -30 2 73 -59 -60 29 -51 27
0000a0 35 42 c8 36 9f b5 66 21 06 1f e3 cf d7 33 7f aa
       53 66 -56 54 -97 -75 102 33 6 31 -29 -49 -41 51 127 -86
0000b0 f7 b2 cc 33 10 bf 05 13 a1 a7 40 ee 94 d1 44 ec
       -9 -78 -52 51 16 -65 5 19 -95 -89 64 -18 -108 -47 68 -20
0000c0 f5 ef 2d db ff f1 f0 17 bf 05 e4 cc 0d c4 1c 9c
       -11 -17 45 -37 -1 -15 -16 23 -65 5 -28 -52 13 -60 28 -100
0000d0 22 17 fb e0 09 1d 22 10 ec e9 47 02 27 1d 81 e3
       34 23 -5 -32 9 29 34 16 -20 -23 71 2 39 29 -127 -29
0000e0 f7 d8 f2 1a 0c 0c 52 07 cf 1e ca 26 cd 9a 15 1b
       -9 -40 -14 26 12 12 82 7 -49 30 -54 38 -51 -102 21 27
0000f0 10 b6 2b 20 17 0c 1d fb ab fe f2 38 09 f7 14 f1
       16 -74 43 32 23 12 29 -5 -85 -2 -14 56 9 -9 20 -15

model_1/block_3_expand/Conv2D i1 [48, 1, 1, 8]
000000 42 03 7f 02 3c 78 cd d7 31 81 ac 1c 4d 0f 21 07
       66 3 127 2 60 120 -51 -41 49 -127 -84 28 77 15 33 7
000010 81 16 e8 eb 3d 26 ba de 26 40 61 c1 37 81 27 db
       -127 22 -24 -21 61 38 -70 -34 38 64 97 -63 55 -127 39 -37
000020 81 05 ba d5 3e e2 ec b0 81 36 c6 f9 0d 38 a5 8d
       -127 5 -70 -43 62 -30 -20 -80 -127 54 -58 -7 13 56 -91 -115
000030 dc 81 b5 31 6e 1a 22 0a 11 81 ae b0 f9 ba e5 79
       -36 -127 -75 49 110 26 34 10 17 -127 -82 -80 -7 -70 -27 121
000040 3f 01 03 fe 61 af 81 17 e5 36 07 55 e1 cc 7f ea
       63 1 3 -2 97 -81 -127 23 -27 54 7 85 -31 -52 127 -22
000050 e6 74 20 43 7f f2 f2 46 98 c6 f1 ea 85 52 7f d5
       -26 116 32 67 127 -14 -14 70 -104 -58 -15 -22 -123 82 127 -43
000060 39 f9 81 1a fa e8 c9 e9 34 f6 d4 fa fe 81 de e0
       57 -7 -127 26 -6 -24 -55 -23 52 -10 -44 -6 -2 -127 -34 -32
000070 0b 85 28 ee 7f ac c3 13 e4 ba e9 7f 3c 48 c9 f4
       11 -123 40 -18 127 -84 -61 19 -28 -70 -23 127 60 72 -55 -12
000080 7f 2f d7 01 3f 83 b9 e1 40 7f 2c 3b 2b 43 04 a7
       127 47 -41 1 63 -125 -71 -31 64 127 44 59 43 67 4 -89
000090 29 0c 05 0c 7f fc 07 f0 ee 7f 46 2f 86 20 16 f7
       41 12 5 12 127 -4 7 -16 -18 127 70 47 -122 32 22 -9
0000a0 d6 0d 20 81 07 f7 cf 60 f9 35 3d 86 3b 00 f8 7f
       -42 13 32 -127 7 -9 -49 96 -7 53 61 -122 59 0 -8 127
0000b0 bf a2 c6 1f 81 66 4f 02 49 39 8e 36 1a dc 81 0d
       -65 -94 -58 31 -127 102 79 2 73 57 -114 54 26 -36 -127 13
0000c0 f9 23 14 36 08 72 81 6a a0 ab 81 12 c2 d3 2c 5b
       -7 35 20 54 8 114 -127 106 -96 -85 -127 18 -62 -45 44 91
0000d0 25 f7 e6 ee 7f 00 74 e7 7f d4 38 48 2a 0d 06 4e
       37 -9 -26 -18 127 0 116 -25 127 -44 56 72 42 13 6 78
0000e0 47 55 2f e2 7f d8 3b ed cc ed fd c4 ea 17 7f 00
       71 85 47 -30 127 -40 59 -19 -52 -19 -3 -60 -22 23 127 0
0000f0 2c 81 ad 96 b6 1b 0a d9 08 4f 04 00 81 07 f6 06
       44 -127 -83 -106 -74 27 10 -39 8 79 4 0 -127 7 -10 6

model_1/block_3_depthwise_BN/FusedBatchNormV3;model_1/block_3_depthwise/depthwise i1 [1, 3, 3, 48]
000000 af 60 a1 2f cb 52 c2 0c cd 9e 26 e3 44 f2 b0 dc
       -81 96 -95 47 -53 82 -62 12 -51 -98 38 -29 68 -14 -80 -36
000010 6a 5f 39 c1 5e 81 2a c4 cb cd 2f 7f a1 91 cd 63
       106 95 57 -63 94 -127 42 -60 -53 -51 47 127 -95 -111 -51 99
000020 39 8f 54 81 e4 eb 4b dc f1 f7 64 a9 7f 34 96 c9
       57 -113 84 -127 -28 -21 75 -36 -15 -9 100 -87 127 52 -106 -55
000030 8c f1 b4 51 b5 7f 1f 24 dd d0 30 d0 5e ae d1 ad
       -116 -15 -76 81 -75 127 31 36 -35 -48 48 -48 94 -82 -47 -83
000040 74 5b 4b 81 57 c4 35 a8 da 82 6c 72 03 9b 81 76
       116 91 75 -127 87 -60 53 -88 -38 -126 108 114 3 -101 -127 118
000050 59 81 6f b6 bb d9 4b 95 91 7d 6f 9f c8 7f b6 c3
       89 -127 111 -74 -69 -39 75 -107 -111 125 111 -97 -56 127 -74 -61
000060 cf 20 fc 27 bc 21 bf fc c7 c2 21 f9 0a df d3 09
       -49 32 -4 39 -68 33 -65 -4 -57 -62 33 -7 10 -33 -45 9
000070 30 38 3d c0 70 ca f9 dc d8 c6 43 33 64 cc bc f7
       48 56 61 -64 112 -54 -7 -36 -40 -58 67 51 100 -52 -68 -9
000080 ed ad 33 d5 d8 30 17 fc 90 b3 20 81 db 2e c7 97
       -19 -83 51 -43 -40 48 23 -4 -112 -77 32 -127 -37 46 -57 -105
000090 10 7f fc 56 cf 40 84 3b 81 c3 5c ba 53 a0 81 81
       16 127 -4 86 -49 64 -124 59 -127 -61 92 -70 83 -96 -127 -127
0000a0 7f 55 a9 e8 60 af 4d a4 05 8c 62 6b 81 81 14 60
       127 85 -87 -24 96 -81 77 -92 5 -116 98 107 -127 -127 20 96
0000b0 7e f4 55 b8 c9 ce 7f ae c7 bb 7f b7 64 2a 81 98
       126 -12 85 -72 -55 -50 127 -82 -57 -69 127 -73 100 42 -127 -104
0000c0 e4 29 b2 7f 84 45 e4 7f e7 81 7f 85 7f 81 b6 b7
       -28 41 -78 127 -124 69 -28 127 -25 -127 127 -123 127 -127 -74 -73
0000d0 79 7f 81 b3 7f b1 7f 15 b2 81 79 31 16 d4 e5 5a
       121 127 -127 -77 127 -79 127 21 -78 -127 121 49 22 -44 -27 90
0000e0 7f cd 7f ef d3 81 6a 81 bd 7f 30 e8 ac 5a 95 fa
       127 -51 127 -17 -45 -127 106 -127 -67 127 48 -24 -84 90 -107 -6
0000f0 ca 5b 9d 30 a6 06 83 24 c9 ad 46 8c 39 f8 8b 42
       -54 91 -99 48 -90 6 -125 36 -55 -83 70 -116 57 -8 -117 66

model_1/block_3_project/Conv2D i1 [16, 1, 1, 48]
000000 12 40 05 ad 5b 58 bb 4b 10 5f 07 3a fb 2c f0 24
       18 64 5 -83 91 88 -69 75 16 95 7 58 -5 44 -16 36
000010 20 45 3c c1 ba 5b f1 57 55 22 26 4d c7 d1 e5 6b
       32 69 60 -63 -70 91 -15 87 85 34 38 77 -57 -47 -27 107
000020 d7 ee 9e 4d 71 81 d6 f3 10 01 30 05 f2 b2 c1 01
       -41 -18 -98 77 113 -127 -42 -13 16 1 48 5 -14 -78 -63 1
000030 d3 29 ae b0 05 71 ae 08 ef dc e0 16 30 ea d2 e9
       -45 41 -82 -80 5 113 -82 8 -17 -36 -32 22 48 -22 -46 -23
000040 d9 f5 f5 0c c5 28 81 d3 df f4 51 2e f1 e0 32 cc
       -39 -11 -11 12 -59 40 -127 -45 -33 -12 81 46 -15 -32 50 -52
000050 1c a9 07 4f 1d d7 72 f9 eb 04 c6 de 16 14 1f 22
       28 -87 7 79 29 -41 114 -7 -21 4 -58 -34 22 20 31 34
000060 f2 43 41 bc 13 d2 14 47 6c 52 a3 1c 7f d8 74 49
       -14 67 65 -68 19 -46 20 71 108 82 -93 28 127 -40 116 73
000070 b1 cb b8 14 77 d0 c3 ba 19 ca 19 c4 20 32 c8 21
       -79 -53 -72 20 119 -48 -61 -70 25 -54 25 -60 32 50 -56 33
000080 3a dd 2f 2d e2 09 0b cb 27 47 5f ee 4b 93 5e c3
       58 -35 47 45 -30 9 11 -53 39 71 95 -18 75 -109 94 -61
000090 14 09 db e6 01 5d 18 15 08 bf 24 ea d7 2a 15 27
       20 9 -37 -26 1 93 24 21 8 -65 36 -22 -41 42 21 39
0000a0 e6 dc 48 81 0c f6 e0 02 eb 42 5b 1e f6 d6 21 4b
       -26 -36 72 -127 12 -10 -32 2 -21 66 91 30 -10 -42 33 75
0000b0 29 fa 63 01 d0 e1 17 36 23 1b 0b 1c 1e 16 e6 ed
       41 -6 99 1 -48 -31 23 54 35 27 11 28 30 22 -26 -19
0000c0 32 16 1d bc 43 42 57 18 40 e1 ad 33 41 12 fe cd
       50 22 29 -68 67 66 87 24 64 -31 -83 51 65 18 -2 -51
0000d0 8f 94 e7 84 f0 20 ba c4 b4 7f 88 5c b8 e6 38 5d
       -113 -108 -25 -124 -16 32 -70 -60 -76 127 -120 92 -72 -26 56 93
0000e0 43 a8 fe da 02 1b d2 0b e1 11 04 2e 05 4b ea a2
       67 -88 -2 -38 2 27 -46 11 -31 17 4 46 5 75 -22 -94
0000f0 f5 0a d0 02 f0 56 14 ef 26 33 21 4f 33 cc 29 0a
       -11 10 -48 2 -16 86 20 -17 38 51 33 79 51 -52 41 10

model_1/block_4_expand/Conv2D i1 [96, 1, 1, 16]
000000 3c 26 1c 0f d1 e3 4c 16 33 66 10 3c 14 b2 ff 7f
       60 38 28 15 -47 -29 76 22 51 102 16 60 20 -78 -1 127
000010 dd 2e c2 17 7c 7f e7 09 f1 f3 d2 dc e0 2b de 0d
       -35 46 -62 23 124 127 -25 9 -15 -13 -46 -36 -32 43 -34 13
000020 d7 38 7d d9 58 79 ed 20 3d 0c 0a f5 5b 81 13 f3
       -41 56 125 -39 88 121 -19 32 61 12 10 -11 91 -127 19 -13
000030 51 e6 16 13 7f 55 37 e0 f4 fa d5 a1 1a 71 95 46
       81 -26 22 19 127 85 55 -32 -12 -6 -43 -95 26 113 -107 70
000040 e7 f6 d5 1e 9d eb b7 f6 1c 37 52 eb d3 1f c9 7f
       -25 -10 -43 30 -99 -21 -73 -10 28 55 82 -21 -45 31 -55 127
000050 81 e3 3b 1e 3e e7 25 eb b3 0a de f8 cf 11 9d cc
       -127 -29 59 30 62 -25 37 -21 -77 10 -34 -8 -49 17 -99 -52
000060 8e 1c 99 0e a4 81 61 f5 dd 06 f7 46 56 aa f9 ed
       -114 28 -103 14 -92 -127 97 -11 -35 6 -9 70 86 -86 -7 -19
000070 ec 5c 7f 01 70 e6 3b 17 0b e7 1f 65 d2 89 0c ee
       -20 92 127 1 112 -26 59 23 11 -25 31 101 -46 -119 12 -18
000080 e0 c2 be 17 f5 ef 87 ee 3f 56 5d 63 7f 0c b9 d5
       -32 -62 -66 23 -11 -17 -121 -18 63 86 93 99 127 12 -71 -43
000090 e0 ca e2 6a ec f1 f2 14 4d f5 f1 2a 81 ff 01 18
       -32 -54 -30 106 -20 -15 -14 20 77 -11 -15 42 -127 -1 1 24
0000a0 dd ea cf 0c c6 1e 22 1d 1c c4 04 14 ed 2f 29 7f
       -35 -22 -49 12 -58 30 34 29 28 -60 4 20 -19 47 41 127
0000b0 d9 96 0e 1a 0b 0c ef f5 53 f0 06 81 a1 5c dc 20
       -39 -106 14 26 11 12 -17 -11 83 -16 6 -127 -95 92 -36 32
0000c0 eb 8d 19 47 b4 81 ec 35 2e 36 e3 37 d9 f5 26 c4
       -21 -115 25 71 -76 -127 -20 53 46 54 -29 55 -39 -11 38 -60
0000d0 c6 ec cd f9 09 16 15 1e eb 7f f8 d9 28 41 ef 00
       -58 -20 -51 -7 9 22 21 30 -21 127 -8 -39 40 65 -17 0
0000e0 a3 be e5 ca 28 11 e5 ef 3c 01 fe e3 63 fb 81 ac
       -93 -66 -27 -54 40 17 -27 -17 60 1 -2 -29 99 -5 -127 -84
0000f0 e4 a0 43 9f 98 c6 23 69 0e c8 ca 15 7f d9 14 ee
       -28 -96 67 -97 -104 -58 35 105 14 -56 -54 21 127 -39 20 -18

model_1/block_4_depthwise_BN/FusedBatchNormV3;model_1/block_4_depthwise/depthwise;model_1/block_6_expand/Conv2D i1 [1, 3, 3, 96]
000000 f6 cb 1e da 11 27 4b e9 d7 fc d3 c0 f1 a4 df e1
       -10 -53 30 -38 17 39 75 -23 -41 -4 -45 -64 -15 -92 -33 -31
000010 ce f4 0c dc 00 43 d1 4b e1 20 fa 81 ff fd 37 25
       -50 -12 12 -36 0 67 -47 75 -31 32 -6 -127 -1 -3 55 37
000020 81 1d 04 e9 04 9b aa f0 aa f0 28 f7 db 62 a3 0e
       -127 29 4 -23 4 -101 -86 -16 -86 -16 40 -9 -37 98 -93 14
000030 f2 24 36 35 c9 11 4d c4 f6 e0 05 37 d4 c7 f0 a7
       -14 36 54 53 -55 17 77 -60 -10 -32 5 55 -44 -57 -16 -89
000040 14 dd cf cc 06 0c 00 0f 44 3c f1 ae d0 87 7f e8
       20 -35 -49 -52 6 12 0 15 68 60 -15 -82 -48 -121 127 -24
000050 d2 f2 9c bf 05 e6 e4 10 cf 5a 28 9d fc fc fc f5
       -46 -14 -100 -65 5 -26 -28 16 -49 90 40 -99 -4 -4 -4 -11
000060 08 13 7f 81 b9 e1 7a ad e6 d9 cc f4 d0 b3 81 40
       8 19 127 -127 -71 -31 122 -83 -26 -39 -52 -12 -48 -77 -127 64
000070 e9 48 44 c0 11 7e f6 56 07 f7 22 50 7f 12 7f df
       -23 72 68 -64 17 126 -10 86 7 -9 34 80 127 18 127 -33
000080 8a 0b 85 d6 e1 a0 7f ed 85 e5 13 de 44 e4 f0 d1
       -118 11 -123 -42 -31 -96 127 -19 -123 -27 19 -34 68 -28 -16 -47
000090 28 f2 3c 5f bf 7f 81 17 b7 e8 f9 7f e3 81 81 9c
       40 -14 60 95 -65 127 -127 23 -73 -24 -7 127 -29 -127 -127 -100
0000a0 eb 01 ef 8b 00 ee a5 7f bd e9 ee d4 81 ab d4 81
       -21 1 -17 -117 0 -18 -91 127 -67 -23 -18 -44 -127 -85 -44 -127
0000b0 18 06 29 01 23 3f 82 0b cc 13 7f b7 03 3e f6 bb
       24 6 41 1 35 63 -126 11 -52 19 127 -73 3 62 -10 -69
0000c0 d1 c9 31 b7 07 f0 7f c3 db 35 e2 1b a6 a4 48 bf
       -47 -55 49 -73 7 -16 127 -61 -37 53 -30 27 -90 -92 72 -65
0000d0 c5 e5 b7 f6 f9 23 e6 14 d0 eb 7f 92 e5 06 35 0d
       -59 -27 -73 -10 -7 35 -26 20 -48 -21 127 -110 -27 6 53 13
0000e0 9c 0e bb 59 3d 81 d2 db c1 81 39 ea d5 d9 a2 f1
       -100 14 -69 89 61 -127 -46 -37 -63 -127 57 -22 -43 -39 -94 -15
0000f0 f1 25 7f 41 4f 35 2b ac 79 e7 fd 1e c5 e2 90 81
       -15 37 127 65 79 53 43 -84 121 -25 -3 30 -59 -30 -112 -127

model_1/block_4_project/Conv2D i1 [16, 1, 1, 96]
000000 da 31 44 1f d2 a3 15 e3 ee ec de d4 44 d6 2e e9
       -38 49 68 31 -46 -93 21 -29 -18 -20 -34 -44 68 -42 46 -23
000010 c8 e6 0a 10 31 23 bc 18 f4 2a 67 4e 07 39 34 05
       -56 -26 10 16 49 35 -68 24 -12 42 103 78 7 57 52 5
000020 e7 09 17 f4 0e 2d de ef 49 05 f1 fa e0 0f da e4
       -25 9 23 -12 14 45 -34 -17 73 5 -15 -6 -32 15 -38 -28
000030 04 e1 52 12 c0 fe 11 01 e4 f7 45 33 03 12 06 d7
       4 -31 82 18 -64 -2 17 1 -28 -9 69 51 3 18 6 -41
000040 3c 0a 3e 2f ef f6 08 f3 02 2a db 32 32 bd 12 0e
       60 10 62 47 -17 -10 8 -13 2 42 -37 50 50 -67 18 14
000050 df 0d 05 26 cc d5 ef 2e 36 0d 81 f6 0d e4 60 41
       -33 13 5 38 -52 -43 -17 46 54 13 -127 -10 13 -28 96 65
000060 08 05 f3 01 f9 de 56 9c 98 c2 a3 c0 f5 e6 0e e2
       8 5 -13 1 -7 -34 86 -100 -104 -62 -93 -64 -11 -26 14 -30
000070 ed d4 f8 e3 d3 da 30 f8 fa 05 27 22 d6 2e e1 e9
       -19 -44 -8 -29 -45 -38 48 -8 -6 5 39 34 -42 46 -31 -23
000080 cc f1 22 bd 01 25 e9 52 f1 d4 f4 cf fe c5 c2 cb
       -52 -15 34 -67 1 37 -23 82 -15 -44 -12 -49 -2 -59 -62 -53
000090 c1 cf 3f b3 b8 2a 4a 1e f5 12 d0 04 c9 ef ca ca
       -63 -49 63 -77 -72 42 74 30 -11 18 -48 4 -55 -17 -54 -54
0000a0 e1 fd 57 1f ce 81 f1 0c 0f 1d ec 1b c1 ee 5a d2
       -31 -3 87 31 -50 -127 -15 12 15 29 -20 27 -63 -18 90 -46
0000b0 46 ea 69 b1 ec 9a 0a 26 f3 8f bb e1 52 b2 e6 03
       70 -22 105 -79 -20 -102 10 38 -13 -113 -69 -31 82 -78 -26 3
0000c0 0a e3 12 b8 19 0e cb 13 ea 29 2d f2 73 13 19 e1
       10 -29 18 -72 25 14 -53 19 -22 41 45 -14 115 19 25 -31
0000d0 0b e7 81 10 e1 d7 d0 2d fa e0 cb 1f ca e7 e5 69
       11 -25 -127 16 -31 -41 -48 45 -6 -32 -53 31 -54 -25 -27 105
0000e0 07 ff 07 f6 c2 39 d2 ac 55 0b 12 4d 30 4a 1b 12
       7 -1 7 -10 -62 57 -46 -84 85 11 18 77 48 74 27 18
0000f0 ac 0f d0 24 0f 49 0d c6 28 24 44 49 01 35 21 50
       -84 15 -48 36 15 73 13 -58 40 36 68 73 1 53 33 80

model_1/block_5_expand/Conv2D i1 [96, 1, 1, 16]
000000 bc 0d f8 da a3 d3 d4 38 36 cb 25 e2 27 81 20 b8
       -68 13 -8 -38 -93 -45 -44 56 54 -53 37 -30 39 -127 32 -72
000010 c6 6a 99 fe dc 34 66 1e 09 b4 35 81 0d 5b db 44
       -58 106 -103 -2 -36 52 102 30 9 -76 53 -127 13 91 -37 68
000020 ce 10 81 17 e3 a8 0f bd b4 1d 33 20 08 d8 da 4c
       -50 16 -127 23 -29 -88 15 -67 -76 29 51 32 8 -40 -38 76
000030 d9 bc 0d d9 c5 09 eb 8f 27 fc 77 e1 c1 e8 a7 81
       -39 -68 13 -39 -59 9 -21 -113 39 -4 119 -31 -63 -24 -89 -127
000040 ed c4 2b df 81 20 b9 1a 07 39 d8 1f 4d eb 3a c1
       -19 -60 43 -33 -127 32 -71 26 7 57 -40 31 77 -21 58 -63
000050 04 4b d3 bd e3 b1 17 c5 06 d5 fa de dc 81 db 00
       4 75 -45 -67 -29 -79 23 -59 6 -43 -6 -34 -36 -127 -37 0
000060 d3 98 ee 24 8a 0d 43 f2 07 1d 7f da 07 f9 9e ef
       -45 -104 -18 36 -118 13 67 -14 7 29 127 -38 7 -7 -98 -17
000070 ea 1f 23 d4 ea 7a c4 f1 37 35 81 b3 eb ef 37 48
       -22 31 35 -44 -22 122 -60 -15 55 53 -127 -77 -21 -17 55 72
000080 ee 56 19 e1 13 f9 22 7f db 51 c2 9f 68 6d e8 e3
       -18 86 25 -31 19 -7 34 127 -37 81 -62 -97 104 109 -24 -29
000090 27 28 03 e4 e9 12 81 d4 0c e1 28 dc e2 de 4a ea
       39 40 3 -28 -23 18 -127 -44 12 -31 40 -36 -30 -34 74 -22
0000a0 ec c4 f4 81 84 30 19 2a dd fa ca f7 eb fb d3 0c
       -20 -60 -12 -127 -124 48 25 42 -35 -6 -54 -9 -21 -5 -45 12
0000b0 4d ec c7 45 99 14 26 e5 75 2a e6 bf f8 f0 02 7f
       77 -20 -57 69 -103 20 38 -27 117 42 -26 -65 -8 -16 2 127
0000c0 30 28 7f b6 38 c0 0f 48 d5 cf 6b 4e cf d1 c7 c8
       48 40 127 -74 56 -64 15 72 -43 -49 107 78 -49 -47 -57 -56
0000d0 d5 e6 de 30 15 df 7f ea 98 df 3d 1f 11 5c 1e f6
       -43 -26 -34 48 21 -33 127 -22 -104 -33 61 31 17 92 30 -10
0000e0 42 ec 3c 60 59 38 29 36 7f 07 45 13 24 ec 0a 27
       66 -20 60 96 89 56 41 54 127 7 69 19 36 -20 10 39
0000f0 02 19 1a 0e ff 7f f5 22 ef eb ce f8 f0 2c 1f d6
       2 25 26 14 -1 127 -11 34 -17 -21 -50 -8 -16 44 31 -42

model_1/block_5_depthwise_BN/FusedBatchNormV3;model_1/block_5_depthwise/depthwise;model_1/block_6_expand/Conv2D i1 [1, 3, 3, 96]
000000 12 41 2a c9 be 1e f2 37 38 81 d0 06 e7 b6 3f a3
       18 65 42 -55 -66 30 -14 55 56 -127 -48 6 -25 -74 63 -93
000010 ce 3a 13 0e ee 43 60 6c ec c9 e4 a9 ef 15 1b 18
       -50 58 19 14 -18 67 96 108 -20 -55 -28 -87 -17 21 27 24
000020 fa d0 c1 5b 09 7f 0c eb 68 9f 38 36 81 8f 14 d4
       -6 -48 -63 91 9 127 12 -21 104 -97 56 54 -127 -113 20 -44
000030 af 91 02 cc 0f 58 d7 04 d4 81 81 81 a9 f5 d0 d1
       -81 -111 2 -52 15 88 -41 4 -44 -127 -127 -127 -87 -11 -48 -47
000040 c7 3d 61 af f8 4e 3a 1d 00 39 45 ad f3 d6 8d 2b
       -57 61 97 -81 -8 78 58 29 0 57 69 -83 -13 -42 -115 43
000050 12 97 48 2d c0 e5 11 2a 84 59 85 4a 7f d3 6a f3
       18 -105 72 45 -64 -27 17 42 -124 89 -123 74 127 -45 106 -13
000060 e6 07 22 0b e1 28 d0 b9 00 03 81 7f 95 b6 d1 45
       -26 7 34 11 -31 40 -48 -71 0 3 -127 127 -107 -74 -47 69
000070 05 3b fa 3e 6a f2 6c 01 e4 be 35 10 f1 61 e0 81
       5 59 -6 62 106 -14 108 1 -28 -66 53 16 -15 97 -32 -127
000080 44 54 04 cd 41 1f 1e 81 7f a0 7f 58 a0 f5 7f 81
       68 84 4 -51 65 31 30 -127 127 -96 127 88 -96 -11 127 -127
000090 b9 89 9d 83 49 7f de 81 fd f0 b9 aa 8a e0 dd 56
       -71 -119 -99 -125 73 127 -34 -127 -3 -16 -71 -86 -118 -32 -35 86
0000a0 da 42 7f ce 13 7f 7f 0e b3 67 d8 81 45 da 2f 7f
       -38 66 127 -50 19 127 127 14 -77 103 -40 -127 69 -38 47 127
0000b0 d6 9a 73 e6 d7 47 7f 12 15 7f ce 0e 56 fa 7f 16
       -42 -102 115 -26 -41 71 127 18 21 127 -50 14 86 -6 127 22
0000c0 dc dd 09 e6 f5 f6 e3 6d ef 44 d2 48 f2 2f 14 30
       -36 -35 9 -26 -11 -10 -29 109 -17 68 -46 72 -14 47 20 48
0000d0 ea 2b 1e 17 e7 28 7f 67 1a 81 e6 04 f4 27 e6 c0
       -22 43 30 23 -25 40 127 103 26 -127 -26 4 -12 39 -26 -64
0000e0 f9 81 81 7f fa f2 04 36 0e c1 29 7f be 81 03 c1
       -7 -127 -127 127 -6 -14 4 54 14 -63 41 127 -66 -127 3 -63
0000f0 7f f8 c1 ad 31 1c 07 f1 7f e9 a2 f3 81 d6 81 d7
       127 -8 -63 -83 49 28 7 -15 127 -23 -94 -13 -127 -42 -127 -41

model_1/block_5_project/Conv2D i1 [16, 1, 1, 96]
000000 cc 44 ec f3 c9 e1 dd 09 cf f3 eb dd 33 2d 0b e7
       -52 68 -20 -13 -55 -31 -35 9 -49 -13 -21 -35 51 45 11 -25
000010 d4 e8 69 33 1a e9 4b 38 50 2c d4 da db 9e 81 13
       -44 -24 105 51 26 -23 75 56 80 44 -44 -38 -37 -98 -127 19
000020 df ba 15 fc 0c 16 16 21 f9 0f ae de b7 f8 1d 49
       -33 -70 21 -4 12 22 22 33 -7 15 -82 -34 -73 -8 29 73
000030 c8 0a e0 f0 03 15 39 d7 91 0d ff 40 3a fe 01 f4
       -56 10 -32 -16 3 21 57 -41 -111 13 -1 64 58 -2 1 -12
000040 bb cb f1 2a c5 d8 0c 34 f1 ee b2 e5 fe 2e 0c f6
       -69 -53 -15 42 -59 -40 12 52 -15 -18 -78 -27 -2 46 12 -10
000050 cd 28 3e f0 5f 4d d8 3d 11 fa f1 fc d3 17 df 16
       -51 40 62 -16 95 77 -40 61 17 -6 -15 -4 -45 23 -33 22
000060 09 00 3a be ab 18 d1 db 07 d4 0f d1 1c e9 e1 1b
       9 0 58 -66 -85 24 -47 -37 7 -44 15 -47 28 -23 -31 27
000070 07 19 d1 12 ee c6 19 fe f8 e6 fc 02 37 ba 68 c2
       7 25 -47 18 -18 -58 25 -2 -8 -26 -4 2 55 -70 104 -62
000080 12 f1 dd fc 0b 00 03 e4 1e d9 ca 16 fd fc a2 bc
       18 -15 -35 -4 11 0 3 -28 30 -39 -54 22 -3 -4 -94 -68
000090 a7 ce ed ea 3c e6 d6 11 c4 d4 b1 10 e9 08 f5 bf
       -89 -50 -19 -22 60 -26 -42 17 -60 -44 -79 16 -23 8 -11 -65
0000a0 0b e8 e3 d1 07 da e9 ff 01 e8 fd c9 15 ec 49 b4
       11 -24 -29 -47 7 -38 -23 -1 1 -24 -3 -55 21 -20 73 -76
0000b0 b6 17 a9 d3 14 bc de 10 81 ee de 3b 1a 2f de 32
       -74 23 -87 -45 20 -68 -34 16 -127 -18 -34 59 26 47 -34 50
0000c0 3f fa b8 1a 2a c9 37 3d ed 28 19 30 af e7 25 ad
       63 -6 -72 26 42 -55 55 61 -19 40 25 48 -81 -25 37 -83
0000d0 83 c1 f4 07 e5 f5 e4 2e f4 f7 e8 cd c2 4f 81 55
       -125 -63 -12 7 -27 -11 -28 46 -12 -9 -24 -51 -62 79 -127 85
0000e0 bd 5e ba 2a ec 1a 0c e1 8e 4f 42 de d0 2a d9 11
       -67 94 -70 42 -20 26 12 -31 -114 79 66 -34 -48 42 -39 17
0000f0 33 03 e7 dc 0c d5 0a 5c 4e 0e 43 e2 46 12 f5 09
       51 3 -25 -36 12 -43 10 92 78 14 67 -30 70 18 -11 9

model_1/block_6_expand/Conv2D i1 [96, 1, 1, 16]
000000 f4 22 ea 3a 37 09 5b 29 e3 00 03 c7 2a 7f d2 d7
       -12 34 -22 58 55 9 91 41 -29 0 3 -57 42 127 -46 -41
000010 db 16 c0 0b f9 0a 0a 81 0a de d5 e0 e4 ec a0 06
       -37 22 -64 11 -7 10 10 -127 10 -34 -43 -32 -28 -20 -96 6
000020 b1 d7 00 52 19 3f 9c 7f 16 45 7a ea f7 87 c3 71
       -79 -41 0 82 25 63 -100 127 22 69 122 -22 -9 -121 -61 113
000030 4c 89 5e 05 09 cd ae 7f fa 63 5d 74 fc 55 f7 3d
       76 -119 94 5 9 -51 -82 127 -6 99 93 116 -4 85 -9 61
000040 db 12 e9 13 b9 f8 f4 81 ea 07 f6 e9 fc 23 28 69
       -37 18 -23 19 -71 -8 -12 -127 -22 7 -10 -23 -4 35 40 105
000050 42 1b 13 f9 cb ec 16 23 33 f0 34 7f 4d 1c d3 fa
       66 27 19 -7 -53 -20 22 35 51 -16 52 127 77 28 -45 -6
000060 16 06 a9 91 83 d6 fb da a3 cd e8 fb 53 25 7f 00
       22 6 -87 -111 -125 -42 -5 -38 -93 -51 -24 -5 83 37 127 0
000070 e9 33 da 9e ea d3 bb 1c 81 2e 9d 98 a4 d6 21 50
       -23 51 -38 -98 -22 -45 -69 28 -127 46 -99 -104 -92 -42 33 80
000080 38 42 39 04 25 1a 3a eb 32 da 0c fa 81 d6 cd 11
       56 66 57 4 37 26 58 -21 50 -38 12 -6 -127 -42 -51 17
000090 e4 1a 34 ec 00 03 1d e3 0c 5f c9 fb 08 7f de 06
       -28 26 52 -20 0 3 29 -29 12 95 -55 -5 8 127 -34 6
0000a0 4a 4e c6 00 c7 e3 14 d0 8b e7 b2 81 ac b3 1f 76
       74 78 -58 0 -57 -29 20 -48 -117 -25 -78 -127 -84 -77 31 118
0000b0 35 e6 37 f2 e6 fa 20 41 d1 09 de e2 f8 e3 7f 49
       53 -26 55 -14 -26 -6 32 65 -47 9 -34 -30 -8 -29 127 73
0000c0 0a 03 27 06 37 1d 5e 20 bf 3c f2 e6 c7 7f 9b 56
       10 3 39 6 55 29 94 32 -65 60 -14 -26 -57 127 -101 86
0000d0 00 00 25 0f 3c 0f 2c 28 00 7f a8 f1 fe 34 a7 f6
       0 0 37 15 60 15 44 40 0 127 -88 -15 -2 52 -89 -10
0000e0 9b 7c eb 05 fe ff 13 c3 dc 20 25 14 81 11 9b 31
       -101 124 -21 5 -2 -1 19 -61 -36 32 37 20 -127 17 -101 49
0000f0 d6 e4 81 e4 3b db 9f cf fe 1d e9 c8 f3 9f bb 13
       -42 -28 -127 -28 59 -37 -97 -49 -2 29 -23 -56 -13 -97 -69 19

model_1/head/Conv2D i1 [32, 1, 1, 96]
000000 f6 1c 12 b3 bb f8 fb 33 d5 d1 81 a1 8d 4e b8 2b
       -10 28 18 -77 -69 -8 -5 51 -43 -47 -127 -95 -115 78 -72 43
000010 12 37 0b fe ca 85 d2 0b 44 9e f1 53 29 ab 3d ec
       18 55 11 -2 -54 -123 -46 11 68 -98 -15 83 41 -85 61 -20
000020 9e 3e 0b c5 db 04 a0 d7 91 d8 58 ac 3a d9 a7 4e
       -98 62 11 -59 -37 4 -96 -41 -111 -40 88 -84 58 -39 -89 78
000030 8f 4d b4 01 e5 34 01 19 a8 a6 f3 07 e4 40 0c 95
       -113 77 -76 1 -27 52 1 25 -88 -90 -13 7 -28 64 12 -107
000040 3e 87 a1 20 21 b1 dc 63 b6 16 cb 5b c1 c1 d2 dc
       62 -121 -95 32 33 -79 -36 99 -74 22 -53 91 -63 -63 -46 -36
000050 97 2c 38 0e c4 b6 b5 b8 0e 1c 0d 24 a2 a4 d0 28
       -105 44 56 14 -60 -74 -75 -72 14 28 13 36 -94 -92 -48 40
000060 2b ef 30 0f 03 a4 e9 55 12 29 a2 29 83 8d 02 a4
       43 -17 48 15 3 -92 -23 85 18 41 -94 41 -125 -115 2 -92
000070 b5 c9 f9 ce 47 3f 9a aa 17 e8 cc ae 40 15 d3 ac
       -75 -55 -7 -50 71 63 -102 -86 23 -24 -52 -82 64 21 -45 -84
000080 9c 9d 97 a6 0b aa be f9 f1 4c e3 07 0b ed cd 0f
       -100 -99 -105 -90 11 -86 -66 -7 -15 76 -29 7 11 -19 -51 15
000090 04 81 e7 c2 df 87 b6 91 18 14 43 f3 24 9e c7 cb
       4 -127 -25 -62 -33 -121 -74 -111 24 20 67 -13 36 -98 -57 -53
0000a0 58 df e9 41 31 3e 1b 52 ea 05 1c 0b 2b ad 59 e1
       88 -33 -23 65 49 62 27 82 -22 5 28 11 43 -83 89 -31
0000b0 9f 4d aa 36 0c fb 87 09 b6 af 27 d3 ca fd 0f f9
       -97 77 -86 54 12 -5 -121 9 -74 -81 39 -45 -54 -3 15 -7
0000c0 f2 cb cc b7 d8 fd 15 04 7f da cf e9 0e 1d d3 bf
       -14 -53 -52 -73 -40 -3 21 4 127 -38 -49 -23 14 29 -45 -65
0000d0 d1 fe e5 05 c3 e5 04 06 d0 14 e9 d7 e9 e5 c4 fe
       -47 -2 -27 5 -61 -27 4 6 -48 20 -23 -41 -23 -27 -60 -2
0000e0 fe c7 08 f8 cc ff d1 14 0a e3 37 19 d2 ec 12 02
       -2 -57 8 -8 -52 -1 -47 20 10 -29 55 25 -46 -20 18 2
0000f0 e8 d1 f2 25 c6 ca ed cb e0 fa 20 2f 2c 1a d3 25
       -24 -47 -14 37 -58 -54 -19 -53 -32 -6 32 47 44 26 -45 37

model_1/logits/Conv2D i1 [3, 1, 1, 32]
000000 f2 48 bd 3f 35 cb c0 12 27 f7 f4 c8 2c 43 d1 04
       -14 72 -67 63 53 -53 -64 18 39 -9 -12 -56 44 67 -47 4
000010 b8 c9 10 d3 0c c5 7f e3 f4 31 5c fc c8 0f 07 36
       -72 -55 16 -45 12 -59 127 -29 -12 49 92 -4 -56 15 7 54
000020 46 d9 cb 0b 09 1d b2 bb d4 56 41 0a 3e 3c d4 e5
       70 -39 -53 11 9 29 -78 -69 -44 86 65 10 62 60 -44 -27
000030 54 09 a3 81 66 02 b3 12 e7 32 de e7 51 1c c7 a3
       84 9 -93 -127 102 2 -77 18 -25 50 -34 -25 81 28 -57 -93
000040 f9 ca 49 3b f5 2b c3 0e f5 25 af 36 f1 db 2b 08
       -7 -54 73 59 -11 43 -61 14 -11 37 -81 54 -15 -37 43 8
000050 40 81 ac 2e 03 0e bd 1d bb dd c4 e9 0e 20 d4 0f
       64 -127 -84 46 3 14 -67 29 -69 -35 -60 -23 14 32 -44 15
