model_zoo/latest_int8.tflite (tflite, 61808 bytes, 21 tensors)

model/model_parser/tf_base_conv2d/sequential/conv2d/Conv2D i1 [16, 3, 3, 3]
00000000: ef81 03f1 c9dd 0401 13b4 cdf7 40f3 00f5
00000010: 9e9f aa1b 0e15 da02 cec4 00d4 fd28 f7ea
00000020: 5004 442b 27eb c317 3a21 3ae1 34db 0002
00000030: e900 02f5 007f 89c3 bf5b 32da e75d befe
00000040: 778f 47e5 e022 7fc1 44e5 af04 4b42 0806
00000050: 1ef8 733c f6b4 55b3 8881 ddf9 5222 a1a5
00000060: eef0 2516 c33c 933f b021 d9a2 0eee f01a
00000070: 0dbb 58a0 ce1c cff8 e07f f9f2 feed 1f22
00000080: 22e3 2cf5 df1b a2d9 92a0 febf b9cb d7bd
00000090: c3ca 0908 4fcd 8123 1853 151a c710 3fc6
000000a0: bbee 2e1f e47f 34e3 09da 8f48 5eea ffab
000000b0: efc3 e930 341e e902 bef6 55f5 1ffe db1b
000000c0: 0aee d23c dbfd 0e12 d628 2fcd 2036 8115
000000d0: 24ce fa18 2ae6 1b24 62d1 a3ec 24e9 fb47
000000e0: e3f0 4831 2090 0551 34e4 52d8 307f dbf6
000000f0: 4bc8 2ad7 aed6 e8e7 4301 beff f2d2 61e7
-17 -127 3 -15 -55 -35 4 1
19 -76 -51 -9 64 -13 0 -11
-98 -97 -86 27 14 21 -38 2
-50 -60 0 -44 -3 40 -9 -22
80 4 68 43 39 -21 -61 23
58 33 58 -31 52 -37 0 2
-23 0 2 -11 0 127 -119 -61
-65 91 50 -38 -25 93 -66 -2
119 -113 71 -27 -32 34 127 -63
68 -27 -81 4 75 66 8 6
30 -8 115 60 -10 -76 85 -77
-120 -127 -35 -7 82 34 -95 -91
-18 -16 37 22 -61 60 -109 63
-80 33 -39 -94 14 -18 -16 26
13 -69 88 -96 -50 28 -49 -8
-32 127 -7 -14 -2 -19 31 34
34 -29 44 -11 -33 27 -94 -39
-110 -96 -2 -65 -71 -53 -41 -67
-61 -54 9 8 79 -51 -127 35
24 83 21 26 -57 16 63 -58
-69 -18 46 31 -28 127 52 -29
9 -38 -113 72 94 -22 -1 -85
-17 -61 -23 48 52 30 -23 2
-66 -10 85 -11 31 -2 -37 27
10 -18 -46 60 -37 -3 14 18
-42 40 47 -51 32 54 -127 21
36 -50 -6 24 42 -26 27 36
98 -47 -93 -20 36 -23 -5 71
-29 -16 72 49 32 -112 5 81
52 -28 82 -40 48 127 -37 -10
75 -56 42 -41 -82 -42 -24 -25
67 1 -66 -1 -14 -46 97 -25

model/model_parser/tfbn_1/batch_normalization_1/FusedBatchNormV3;model/model_parser/tf_base_conv2d_1/depthwise_conv2d/depthwise;model/model_parser/tf_base_conv2d_17/conv2d_11/Conv2D i1 [1, 3, 3, 16]
00000000: 2e0d 108b 0f4a 58dc 923a d0d0 134e f63a
00000010: 7fcc e7f1 4e7f cc52 2494 490f 7f49 81be
00000020: 6c03 dad3 fe19 f521 0b0d 45e5 bf25 de54
00000030: 3a2f d9a6 81b3 e3d4 2b81 ea81 d666 42d1
00000040: 43c7 24a7 b3d8 21ff 7f27 7f05 3993 097f
00000050: 4181 7f7f 554f 817f 3e61 f708 e87f 4801
00000060: 0706 fbfb e5a2 1ee4 2c96 93d5 c5ec 6f08
00000070: a978 fc53 0ddf 9baf 05c8 d3ac 3cb9 eb97
00000080: 001b 1d6c 58e5 2c5a 4a58 cb56 d099 0ebe
46 13 16 -117 15 74 88 -36
-110 58 -48 -48 19 78 -10 58
127 -52 -25 -15 78 127 -52 82
36 -108 73 15 127 73 -127 -66
108 3 -38 -45 -2 25 -11 33
11 13 69 -27 -65 37 -34 84
58 47 -39 -90 -127 -77 -29 -44
43 -127 -22 -127 -42 102 66 -47
67 -57 36 -89 -77 -40 33 -1
127 39 127 5 57 -109 9 127
65 -127 127 127 85 79 -127 127
62 97 -9 8 -24 127 72 1
7 6 -5 -5 -27 -94 30 -28
44 -106 -109 -43 -59 -20 111 8
-87 120 -4 83 13 -33 -101 -81
5 -56 -45 -84 60 -71 -21 -105
0 27 29 108 88 -27 44 90
74 88 -53 86 -48 -103 14 -66

model/model_parser/tf_base_conv2d_2/conv2d_1/Conv2D i1 [8, 1, 1, 16]
00000000: 36ab 1f7f fd09 e9b3 bdd7 5874 56d7 f081
00000010: ea5c ea24 1f32 2181 d24f b7f2 4fc2 34bf
00000020: 4e59 caeb 05df 27b4 3216 bb81 c67f 4551
00000030: 084b 3f68 7f14 e032 bf06 f539 351b 503a
00000040: 2369 29cd 95de 387f 57fd c8b7 6604 fc09
00000050: ec81 2bed 18c7 5e02 3d37 0005 440f 1d59
00000060: fc2c e4b6 2181 4dbf 3c48 0a4b fc6a b603
00000070: bf52 f5ea f8b8 c07f e554 efea 12f0 8c31
54 -85 31 127 -3 9 -23 -77
-67 -41 88 116 86 -41 -16 -127
-22 92 -22 36 31 50 33 -127
-46 79 -73 -14 79 -62 52 -65
78 89 -54 -21 5 -33 39 -76
50 22 -69 -127 -58 127 69 81
8 75 63 104 127 20 -32 50
-65 6 -11 57 53 27 80 58
35 105 41 -51 -107 -34 56 127
87 -3 -56 -73 102 4 -4 9
-20 -127 43 -19 24 -57 94 2
61 55 0 5 68 15 29 89
-4 44 -28 -74 33 -127 77 -65
60 72 10 75 -4 106 -74 3
-65 82 -11 -22 -8 -72 -64 127
-27 84 -17 -22 18 -16 -116 49

model/model_parser/tf_base_conv2d_3/conv2d_2/Conv2D i1 [48, 1, 1, 8]
00000000: c2ac 3b81 c7d4 ea0b 049c 9289 0669 81fe
00000010: 5655 ef1c e234 7f36 7fc5 c40d eeb9 0215
00000020: 8117 f803 4ad7 c7b8 1298 b95a fc24 017f
00000030: 7fbc b4ef 02f2 18da df3d 4081 01fa bcc7
00000040: 18ea e27f 3fcb fde8 81bb 59aa a4dc 43ee
00000050: fff9 df81 388b cef7 4708 b504 445f 2d7f
00000060: b98c 4924 bfcd b77f 4962 f924 2e12 7ff6
00000070: 0a7f f531 2c4f 23fd f71c d101 7fe3 280b
00000080: d8d3 437f d134 6c4e 81a9 aaee 54af b3e4
00000090: cd27 20d9 c5d1 b081 814a dbef ece3 d4c8
000000a0: 4b19 08f0 2901 7f14 2e4a eeed d63b b981
000000b0: f7ab 6c0a 7fb4 0dd7 6e31 c87f 1303 bd35
000000c0: 1f17 db81 1031 9f16 b3d6 3177 7f26 5931
000000d0: 81df 0ed7 1648 fec3 d4eb d07f 1f85 15e8
000000e0: 3a09 f27f ffcf dd0b 9329 307f 6fca e1fd
000000f0: b324 7f03 5e6f fd17 7f01 0b5b cd62 b944
-62 -84 59 -127 -57 -44 -22 11
4 -100 -110 -119 6 105 -127 -2
86 85 -17 28 -30 52 127 54
127 -59 -60 13 -18 -71 2 21
-127 23 -8 3 74 -41 -57 -72
18 -104 -71 90 -4 36 1 127
127 -68 -76 -17 2 -14 24 -38
-33 61 64 -127 1 -6 -68 -57
24 -22 -30 127 63 -53 -3 -24
-127 -69 89 -86 -92 -36 67 -18
-1 -7 -33 -127 56 -117 -50 -9
71 8 -75 4 68 95 45 127
-71 -116 73 36 -65 -51 -73 127
73 98 -7 36 46 18 127 -10
10 127 -11 49 44 79 35 -3
-9 28 -47 1 127 -29 40 11
-40 -45 67 127 -47 52 108 78
-127 -87 -86 -18 84 -81 -77 -28
-51 39 32 -39 -59 -47 -80 -127
-127 74 -37 -17 -20 -29 -44 -56
75 25 8 -16 41 1 127 20
46 74 -18 -19 -42 59 -71 -127
-9 -85 108 10 127 -76 13 -41
110 49 -56 127 19 3 -67 53
31 23 -37 -127 16 49 -97 22
-77 -42 49 119 127 38 89 49
-127 -33 14 -41 22 72 -2 -61
-44 -21 -48 127 31 -123 21 -24
58 9 -14 127 -1 -49 -35 11
-109 41 48 127 111 -54 -31 -3
-77 36 127 3 94 111 -3 23
127 1 11 91 -51 98 -71 68

model/model_parser/tfbn_4/batch_normalization_4/FusedBatchNormV3;model/model_parser/tf_base_conv2d_4/sequential_1/depthwise_conv2d_1/depthwise;model/model_parser/tf_base_conv2d_10/sequential_2/depthwise_conv2d_3/depthwise i1 [1, 3, 3, 48]
00000000: 8152 39fc fd12 ad81 81e7 ce37 1937 dcbc
00000010: f1a4 1032 e481 ace2 daec 7f2f 9acd c917
00000020: cbde 56ee 5f19 f47f fe40 d04e 81a2 2f08
00000030: c478 38f1 a8f1 a9bd 1098 b6b2 81e8 10e3
00000040: d226 7f0d ee1e bb81 8e14 6904 7f2e e4a1
00000050: 0520 1eea 237b 4f12 4ee6 da12 ef0a 7213
00000060: ab12 c9cb b02d d94e 247d d2de d1ce 3681
00000070: 020e 1dd8 e67e e3dd 40fe 31fa fba7 132f
00000080: 13cd 400a 7f3a c892 3c7f 07f3 ce5b 3d6c
00000090: 058f 473e 210f 89ea 0128 f813 f0d2 07d3
000000a0: 810e 085a 0df5 3ef4 2804 d681 f9b8 b4ab
000000b0: dfac a17f 2e47 a170 3b54 acf2 5c81 4c1d
000000c0: ef9c f6ee b106 a365 07c9 baf9 f7cf 4ec3
000000d0: c50f 1d95 2ff3 ddab 2d7f 0f8a 26f3 81fb
000000e0: 20f1 c063 f57f e0e1 3c3b 99db 1f22 15f7
000000f0: e0b7 7f37 d807 811c 133a d1b9 d0a0 dba1
-127 82 57 -4 -3 18 -83 -127
-127 -25 -50 55 25 55 -36 -68
-15 -92 16 50 -28 -127 -84 -30
-38 -20 127 47 -102 -51 -55 23
-53 -34 86 -18 95 25 -12 127
-2 64 -48 78 -127 -94 47 8
-60 120 56 -15 -88 -15 -87 -67
16 -104 -74 -78 -127 -24 16 -29
-46 38 127 13 -18 30 -69 -127
-114 20 105 4 127 46 -28 -95
5 32 30 -22 35 123 79 18
78 -26 -38 18 -17 10 114 19
-85 18 -55 -53 -80 45 -39 78
36 125 -46 -34 -47 -50 54 -127
2 14 29 -40 -26 126 -29 -35
64 -2 49 -6 -5 -89 19 47
19 -51 64 10 127 58 -56 -110
60 127 7 -13 -50 91 61 108
5 -113 71 62 33 15 -119 -22
1 40 -8 19 -16 -46 7 -45
-127 14 8 90 13 -11 62 -12
40 4 -42 -127 -7 -72 -76 -85
-33 -84 -95 127 46 71 -95 112
59 84 -84 -14 92 -127 76 29
-17 -100 -10 -18 -79 6 -93 101
7 -55 -70 -7 -9 -49 78 -61
-59 15 29 -107 47 -13 -35 -85
45 127 15 -118 38 -13 -127 -5
32 -15 -64 99 -11 127 -32 -31
60 59 -103 -37 31 34 21 -9
-32 -73 127 55 -40 7 -127 28
19 58 -47 -71 -48 -96 -37 -95

model/model_parser/tf_base_conv2d_5/conv2d_3/Conv2D i1 [8, 1, 1, 48]
00000000: 46b9 1d41 51e2 efca 48f9 3023 c5ed 2e45
00000010: 1d09 9a15 06e5 0f08 491a cef9 b8f6 2ade
00000020: 2bd3 facf e5cf c981 843a e2fa ebba e126
00000030: dee0 eae6 212a bf9f 6cea 0706 d64a d2e5
00000040: 212b f1fc 0ed5 304a fa58 e51a 270e 02d1
00000050: dfdd c9e0 ec81 ddc8 eb11 27e2 df15 040b
00000060: 3bde e611 ccd4 e802 9bd1 27ef 032f 9bf2
00000070: 04fd d2cf 81e9 1114 1e1b f010 be07 0bee
00000080: bceb e93e e8c2 1927 1f3a 42e2 fc1e 59f9
00000090: d814 2b21 f559 1307 dce9 1afc 2e28 11f0
000000a0: f119 7fff ba04 28f4 220c afe4 bce6 f411
000000b0: 01fd 385e 0c2e fcf5 44c5 6ae3 36e3 2211
000000c0: d931 1626 fa0f 1cec c509 b981 1b09 ff1b
000000d0: 1e2d e605 2d29 17fa 4b26 4325 e100 f406
000000e0: b428 0548 d5f4 40be d732 2c06 2fd4 03ef
000000f0: fff3 1cdb f181 39dd 51f3 efdf 31da 052a
70 -71 29 65 81 -30 -17 -54
72 -7 48 35 -59 -19 46 69
29 9 -102 21 6 -27 15 8
73 26 -50 -7 -72 -10 42 -34
43 -45 -6 -49 -27 -49 -55 -127
-124 58 -30 -6 -21 -70 -31 38
-34 -32 -22 -26 33 42 -65 -97
108 -22 7 6 -42 74 -46 -27
33 43 -15 -4 14 -43 48 74
-6 88 -27 26 39 14 2 -47
-33 -35 -55 -32 -20 -127 -35 -56
-21 17 39 -30 -33 21 4 11
59 -34 -26 17 -52 -44 -24 2
-101 -47 39 -17 3 47 -101 -14
4 -3 -46 -49 -127 -23 17 20
30 27 -16 16 -66 7 11 -18
-68 -21 -23 62 -24 -62 25 39
31 58 66 -30 -4 30 89 -7
-40 20 43 33 -11 89 19 7
-36 -23 26 -4 46 40 17 -16
-15 25 127 -1 -70 4 40 -12
34 12 -81 -28 -68 -26 -12 17
1 -3 56 94 12 46 -4 -11
68 -59 106 -29 54 -29 34 17
-39 49 22 38 -6 15 28 -20
-59 9 -71 -127 27 9 -1 27
30 45 -26 5 45 41 23 -6
75 38 67 37 -31 0 -12 6
-76 40 5 72 -43 -12 64 -66
-41 50 44 6 47 -44 3 -17
-1 -13 28 -37 -15 -127 57 -35
81 -13 -17 -33 49 -38 5 42

model/model_parser/tf_base_conv2d_6/conv2d_4/Conv2D i1 [48, 1, 1, 8]
00000000: 4581 68a6 261a cf63 7f6d 1f13 58db 09dd
00000010: fa7f 3d0d 2bc2 e91a 1391 07d0 9368 d97f
00000020: 7fde 0760 d406 1bc0 4728 7ffa 6676 1065
00000030: a924 6b04 7f00 bc3a f03d e75f 6388 8145
00000040: 93c3 14d3 b1d6 ae7f 2eef e7ed bccf 8151
00000050: f47d 0997 1f7f dd9c da6f 4224 4592 4a81
00000060: e926 170c f57f c092 ae03 7fcf ed3a 9b29
00000070: 0f33 6641 d2ac 097f da81 2e2e 1ec8 58df
00000080: 261a d8dc 7281 bc23 d4dd af81 fa7c 15b2
00000090: 81eb 3d57 ba50 a2ff e13e 5b7f faed 6244
000000a0: 267f b7bc 7819 ffe5 33f7 7f49 0a50 be60
000000b0: 522d 2ff9 68e4 8154 a26b 81ea ddb1 2de6
000000c0: a83d 7964 7de4 d67f 44fd 7b7f 9760 c516
000000d0: fcbf f8cd 7fde 5747 f015 48fe 2435 7f40
000000e0: f7b9 6712 32f5 7f57 fee5 7f03 5312 82e6
000000f0: 7f6a a60a c42f 4d4f 442f 8124 07d9 0d21
69 -127 104 -90 38 26 -49 99
127 109 31 19 88 -37 9 -35
-6 127 61 13 43 -62 -23 26
19 -111 7 -48 -109 104 -39 127
127 -34 7 96 -44 6 27 -64
71 40 127 -6 102 118 16 101
-87 36 107 4 127 0 -68 58
-16 61 -25 95 99 -120 -127 69
-109 -61 20 -45 -79 -42 -82 127
46 -17 -25 -19 -68 -49 -127 81
-12 125 9 -105 31 127 -35 -100
-38 111 66 36 69 -110 74 -127
-23 38 23 12 -11 127 -64 -110
-82 3 127 -49 -19 58 -101 41
15 51 102 65 -46 -84 9 127
-38 -127 46 46 30 -56 88 -33
38 26 -40 -36 114 -127 -68 35
-44 -35 -81 -127 -6 124 21 -78
-127 -21 61 87 -70 80 -94 -1
-31 62 91 127 -6 -19 98 68
38 127 -73 -68 120 25 -1 -27
51 -9 127 73 10 80 -66 96
82 45 47 -7 104 -28 -127 84
-94 107 -127 -22 -35 -79 45 -26
-88 61 121 100 125 -28 -42 127
68 -3 123 127 -105 96 -59 22
-4 -65 -8 -51 127 -34 87 71
-16 21 72 -2 36 53 127 64
-9 -71 103 18 50 -11 127 87
-2 -27 127 3 83 18 -126 -26
127 106 -90 10 -60 47 77 79
68 47 -127 36 7 -39 13 33

model/model_parser/tfbn_7/batch_normalization_7/FusedBatchNormV3;model/model_parser/tf_base_conv2d_7/depthwise_conv2d_2/depthwise;model/model_parser/tf_base_conv2d_10/sequential_2/depthwise_conv2d_3/depthwise i1 [1, 3, 3, 48]
00000000: bc7f 6211 4108 71e3 65f3 61f1 9a29 e1ce
00000010: 3704 81fa 2b22 4076 e623 0ee3 cdd2 e120
00000020: 0f44 39f2 f60f dc50 1340 eef3 9e58 4b9a
00000030: f951 37f5 79f3 36f5 05b4 5a3a 1cf3 452b
00000040: 07bb d3fa fa15 1a7e 7fb0 dab8 4c26 6116
00000050: ccd4 7fe6 e3fa 2e81 857f d62e 973a 8181
00000060: 3e4b f626 7fe4 ea28 6eee 3e7d 7f74 fc7f
00000070: bf3a e9eb 1b81 cdf4 fcbe 03cc c3f6 49e4
00000080: 1859 e32c 7f99 7fcc b664 4a46 f27f fb9f
00000090: cfc1 7fe9 231a 20db a3d5 32f1 c581 b701
000000a0: 2a18 1e43 1440 c132 147f fe27 b8d7 0b17
000000b0: 273a 9af1 1f1b 43ef d4f2 5c7b e1f9 35b5
000000c0: f225 e97f 1f30 607c 9455 bd81 402e 39c7
000000d0: feab 0081 0116 9dc4 01d4 1b56 7f30 077f
000000e0: 274b 269b 0b6f d523 f7ce 437f e6b5 13ca
000000f0: 2a3d f8ac aff0 020b 7f81 4f4d cc36 7fad
-68 127 98 17 65 8 113 -29
101 -13 97 -15 -102 41 -31 -50
55 4 -127 -6 43 34 64 118
-26 35 14 -29 -51 -46 -31 32
15 68 57 -14 -10 15 -36 80
19 64 -18 -13 -98 88 75 -102
-7 81 55 -11 121 -13 54 -11
5 -76 90 58 28 -13 69 43
7 -69 -45 -6 -6 21 26 126
127 -80 -38 -72 76 38 97 22
-52 -44 127 -26 -29 -6 46 -127
-123 127 -42 46 -105 58 -127 -127
62 75 -10 38 127 -28 -22 40
110 -18 62 125 127 116 -4 127
-65 58 -23 -21 27 -127 -51 -12
-4 -66 3 -52 -61 -10 73 -28
24 89 -29 44 127 -103 127 -52
-74 100 74 70 -14 127 -5 -97
-49 -63 127 -23 35 26 32 -37
-93 -43 50 -15 -59 -127 -73 1
42 24 30 67 20 64 -63 50
20 127 -2 39 -72 -41 11 23
39 58 -102 -15 31 27 67 -17
-44 -14 92 123 -31 -7 53 -75
-14 37 -23 127 31 48 96 124
-108 85 -67 -127 64 46 57 -57
-2 -85 0 -127 1 22 -99 -60
1 -44 27 86 127 48 7 127
39 75 38 -101 11 111 -43 35
-9 -50 67 127 -26 -75 19 -54
42 61 -8 -84 -81 -16 2 11
127 -127 79 77 -52 54 127 -83

model/model_parser/tf_base_conv2d_8/conv2d_5/Conv2D i1 [8, 1, 1, 48]
00000000: 0820 5e12 d569 6294 b3cc 2df6 f10e e3f9
00000010: f97f 31d5 0749 c0fa 0b2b e11e df02 c2f0
00000020: c109 21eb cd3e 0ca7 fbfa 12f9 3e3f f903
00000030: 43fd eee9 db43 812e f92b 3e13 05dd 111c
00000040: ec8f 96f7 eff2 06f7 eb34 260c ec21 2509
00000050: b8c7 35ee 071c fe05 dcef 076b 0b2e dbef
00000060: 465c f7b7 20de 4d26 1bfc 4dbc 1520 010a
00000070: 0600 ddef 1991 d409 114c b2fc d7d9 eef8
00000080: d47f df05 132e 73f4 a32c e4e4 ab22 dd2d
00000090: d3d0 81da 5b5b d2f3 1905 5439 eabc e7e2
000000a0: cb29 20f1 1c11 2efe 17fa 0b21 00ec 0dfc
000000b0: fad7 0feb dd9d 1f04 41d6 e5e0 e11c 10b3
000000c0: b718 ca0a fe55 ca28 291f eed5 1035 b102
000000d0: eade 7f2e fec2 5850 44e0 2315 0929 1c0d
000000e0: c706 eb10 a42a cdf3 f40a edcd 0ee3 96f1
000000f0: cde8 31ed fa32 41bb ed39 3cd4 f2fa 8111
8 32 94 18 -43 105 98 -108
-77 -52 45 -10 -15 14 -29 -7
-7 127 49 -43 7 73 -64 -6
11 43 -31 30 -33 2 -62 -16
-63 9 33 -21 -51 62 12 -89
-5 -6 18 -7 62 63 -7 3
67 -3 -18 -23 -37 67 -127 46
-7 43 62 19 5 -35 17 28
-20 -113 -106 -9 -17 -14 6 -9
-21 52 38 12 -20 33 37 9
-72 -57 53 -18 7 28 -2 5
-36 -17 7 107 11 46 -37 -17
70 92 -9 -73 32 -34 77 38
27 -4 77 -68 21 32 1 10
6 0 -35 -17 25 -111 -44 9
17 76 -78 -4 -41 -39 -18 -8
-44 127 -33 5 19 46 115 -12
-93 44 -28 -28 -85 34 -35 45
-45 -48 -127 -38 91 91 -46 -13
25 5 84 57 -22 -68 -25 -30
-53 41 32 -15 28 17 46 -2
23 -6 11 33 0 -20 13 -4
-6 -41 15 -21 -35 -99 31 4
65 -42 -27 -32 -31 28 16 -77
-73 24 -54 10 -2 85 -54 40
41 31 -18 -43 16 53 -79 2
-22 -34 127 46 -2 -62 88 80
68 -32 35 21 9 41 28 13
-57 6 -21 16 -92 42 -51 -13
-12 10 -19 -51 14 -29 -106 -15
-51 -24 49 -19 -6 50 65 -69
-19 57 60 -44 -14 -6 -127 17

model/model_parser/tf_base_conv2d_9/conv2d_6/Conv2D i1 [48, 1, 1, 8]
00000000: fdaa d381 05f6 be0b c811 6630 491d 4681
00000010: 40a4 ccc6 f26e 2a7f fd00 4f0f e128 7f10
00000020: 7f7a 523d 37ae 3901 297f 318f 412f b3e1
00000030: 4522 d3f4 4481 511c f3b7 e01e 713e 9e81
00000040: bf38 7fb9 24fc f6ee b89f 7f1a 2108 fe11
00000050: 7dad b619 814d 0814 b07b 34f3 c2d5 7f1e
00000060: 2dd9 4526 987f 20e0 167b bc47 81c8 c0d1
00000070: 06c9 ee00 639b b281 647f a630 94e6 0a17
00000080: ff66 02e7 e27f 844f 58c0 2d66 297f 544d
00000090: 7f29 b6ea 02c9 7c8d 33a7 d334 811b 1e0c
000000a0: 99df 0555 ed81 519f 7f3b 0acc 2ada ce26
000000b0: 0fff 7f48 8fee b22a 7f64 52f4 eb9f 8b15
000000c0: 0081 549d cff6 f22c 841e 65d9 5381 29a5
000000d0: b1ba fe06 aff5 815c c962 7fee fe71 35a5
000000e0: f7d0 01ee 7fac df9b ddbf 81db d10b 3b13
000000f0: 3c99 1f30 017f 089b a1d5 7d72 1861 7fae
-3 -86 -45 -127 5 -10 -66 11
-56 17 102 48 73 29 70 -127
64 -92 -52 -58 -14 110 42 127
-3 0 79 15 -31 40 127 16
127 122 82 61 55 -82 57 1
41 127 49 -113 65 47 -77 -31
69 34 -45 -12 68 -127 81 28
-13 -73 -32 30 113 62 -98 -127
-65 56 127 -71 36 -4 -10 -18
-72 -97 127 26 33 8 -2 17
125 -83 -74 25 -127 77 8 20
-80 123 52 -13 -62 -43 127 30
45 -39 69 38 -104 127 32 -32
22 123 -68 71 -127 -56 -64 -47
6 -55 -18 0 99 -101 -78 -127
100 127 -90 48 -108 -26 10 23
-1 102 2 -25 -30 127 -124 79
88 -64 45 102 41 127 84 77
127 41 -74 -22 2 -55 124 -115
51 -89 -45 52 -127 27 30 12
-103 -33 5 85 -19 -127 81 -97
127 59 10 -52 42 -38 -50 38
15 -1 127 72 -113 -18 -78 42
127 100 82 -12 -21 -97 -117 21
0 -127 84 -99 -49 -10 -14 44
-124 30 101 -39 83 -127 41 -91
-79 -70 -2 6 -81 -11 -127 92
-55 98 127 -18 -2 113 53 -91
-9 -48 1 -18 127 -84 -33 -101
-35 -65 -127 -37 -47 11 59 19
60 -103 31 48 1 127 8 -101
-95 -43 125 114 24 97 127 -82

model/model_parser/tfbn_10/batch_normalization_10/FusedBatchNormV3;model/model_parser/tf_base_conv2d_10/sequential_2/depthwise_conv2d_3/depthwise i1 [1, 3, 3, 48]
00000000: 2719 e11e 69a2 3b09 40b2 51d7 d84f 1dce
00000010: 16fc 816d 638a f057 2704 e868 11ef b428
00000020: 2c40 1f37 09e3 4c41 c899 edd1 ceb7 04d4
00000030: 6ff0 d1b5 7681 5df7 7fc3 7c7f eac8 7f81
00000040: 7722 af7f 4925 016d 5502 3725 141d 0171
00000050: 187f 7f56 7fd0 3d52 bd25 81bb dfae a1dd
00000060: 7954 ee3a 7f14 17ff 3ae9 d126 c481 ce88
00000070: f664 8d17 3319 d15b 71b7 7b1c 867f 1b73
00000080: 7f19 0cf1 2c31 3b16 e473 86eb 0096 2f02
00000090: e103 da10 4c0f 7f40 0d81 7f16 0724 cdd9
000000a0: 29e8 1b3a df3a 3872 152a 11db a4ed d17f
000000b0: a325 b357 331a 7279 a494 b01b 32b7 0bd4
000000c0: 3103 81be 36f6 5037 53f9 c31e 81db 12bb
000000d0: fc60 2672 cc15 086f 74f7 dd6c de4f ea12
000000e0: fff5 b77f 6019 3f7f 8146 c12e 6820 f4b6
000000f0: 7fef 115c 3760 f71d 23f0 c762 8ca0 0196
39 25 -31 30 105 -94 59 9
64 -78 81 -41 -40 79 29 -50
22 -4 -127 109 99 -118 -16 87
39 4 -24 104 17 -17 -76 40
44 64 31 55 9 -29 76 65
-56 -103 -19 -47 -50 -73 4 -44
111 -16 -47 -75 118 -127 93 -9
127 -61 124 127 -22 -56 127 -127
119 34 -81 127 73 37 1 109
85 2 55 37 20 29 1 113
24 127 127 86 127 -48 61 82
-67 37 -127 -69 -33 -82 -95 -35
121 84 -18 58 127 20 23 -1
58 -23 -47 38 -60 -127 -50 -120
-10 100 -115 23 51 25 -47 91
113 -73 123 28 -122 127 27 115
127 25 12 -15 44 49 59 22
-28 115 -122 -21 0 -106 47 2
-31 3 -38 16 76 15 127 64
13 -127 127 22 7 36 -51 -39
41 -24 27 58 -33 58 56 114
21 42 17 -37 -92 -19 -47 127
-93 37 -77 87 51 26 114 121
-92 -108 -80 27 50 -73 11 -44
49 3 -127 -66 54 -10 80 55
83 -7 -61 30 -127 -37 18 -69
-4 96 38 114 -52 21 8 111
116 -9 -35 108 -34 79 -22 18
-1 -11 -73 127 96 25 63 127
-127 70 -63 46 104 32 -12 -74
127 -17 17 92 55 96 -9 29
35 -16 -57 98 -116 -96 1 -106

model/model_parser/tf_base_conv2d_11/conv2d_7/Conv2D i1 [16, 1, 1, 48]
00000000: d71b f5ed 00ef dff4 25e3 fdf8 ee02 d705
00000010: 05e5 01c9 07fa da1c fee8 17ea d7bf 0cfb
00000020: 2e06 cee0 1304 c381 17ed ed1d 3604 6802
00000030: 43db f406 370c f20a fd14 244e f921 1cbe
00000040: e006 f869 e8a7 b200 2d28 fbe7 f2fd d3f8
00000050: ffed 0e0b 8127 2105 c4f9 d03c daf0 ff28
00000060: 17fe 1417 f906 1f7f 3de0 e51d 4c1b 234b
00000070: eed3 fee8 1934 e3f9 40ee ff2b f3ea d925
00000080: 0f1e e3fa e71f abdb 7c46 ecdc e0f0 f924
00000090: e531 df21 3410 d47f ee07 de3b d8d2 3443
000000a0: 60cc 30ec 2606 fe3c 373d facd 2b2c f624
000000b0: 2507 b31c b4ce c80e d61f e819 e215 1604
000000c0: d211 139b f706 1c81 fe06 3a3c f21e 2bbe
000000d0: b727 d1f8 2d25 20ff b0ef fc20 3b04 aece
000000e0: eefa 0f05 c7ac 06ec 3271 f6b3 1517 1441
000000f0: 1be1 e527 02ee cd58 93f8 0fdf 3cf3 ed0f
-41 27 -11 -19 0 -17 -33 -12
37 -29 -3 -8 -18 2 -41 5
5 -27 1 -55 7 -6 -38 28
-2 -24 23 -22 -41 -65 12 -5
46 6 -50 -32 19 4 -61 -127
23 -19 -19 29 54 4 104 2
67 -37 -12 6 55 12 -14 10
-3 20 36 78 -7 33 28 -66
-32 6 -8 105 -24 -89 -78 0
45 40 -5 -25 -14 -3 -45 -8
-1 -19 14 11 -127 39 33 5
-60 -7 -48 60 -38 -16 -1 40
23 -2 20 23 -7 6 31 127
61 -32 -27 29 76 27 35 75
-18 -45 -2 -24 25 52 -29 -7
64 -18 -1 43 -13 -22 -39 37
15 30 -29 -6 -25 31 -85 -37
124 70 -20 -36 -32 -16 -7 36
-27 49 -33 33 52 16 -44 127
-18 7 -34 59 -40 -46 52 67
96 -52 48 -20 38 6 -2 60
55 61 -6 -51 43 44 -10 36
37 7 -77 28 -76 -50 -56 14
-42 31 -24 25 -30 21 22 4
-46 17 19 -101 -9 6 28 -127
-2 6 58 60 -14 30 43 -66
-73 39 -47 -8 45 37 32 -1
-80 -17 -4 32 59 4 -82 -50
-18 -6 15 5 -57 -84 6 -20
50 113 -10 -77 21 23 20 65
27 -31 -27 39 2 -18 -51 88
-109 -8 15 -33 60 -13 -19 15

model/model_parser/tf_base_conv2d_12/conv2d_8/Conv2D i1 [96, 1, 1, 16]
00000000: 00cf f714 2513 e3d6 3e7f 1ee4 36dd f2e2
00000010: ca76 81d0 d825 c2cb c9f9 241b 1733 fe3e
00000020: 1e0e 461c 0669 fa08 f1e0 06fe 410b f881
00000030: 110d c900 df1b d447 5a0d 4e1f d1e3 81cc
00000040: 2ff0 4902 1865 d708 7ce6 be0a 0d81 1f15
00000050: 6335 e1e1 3a13 e024 527f 4777 44fe f515
00000060: 4c09 12d9 35fd d752 7fe5 f5fa 02e6 e7d2
00000070: db09 9006 818c c73b ec50 b4cb f8ad 43bf
00000080: 35c0 7f28 d801 17bf ee92 d7f5 a5c4 3029
00000090: dc3c 2c66 bfcd c034 7fe2 42a9 f41a 15ca
000000a0: 585c 188b 55c1 15dd 8176 b12b ae40 1dbf
000000b0: 0539 f45a adc4 3b71 3ae9 4615 f920 81c9
000000c0: e9f6 68b6 7f17 09d6 db19 e655 c375 a90d
000000d0: 66d7 e5c4 effb 7f04 bd7f 0645 74ae a055
000000e0: aa05 7fdd 2dd1 53fc c7e3 edf5 aae1 0d1c
000000f0: 217f 29b3 e221 f640 0c4c bf1a 2831 f613
0 -49 -9 20 37 19 -29 -42
62 127 30 -28 54 -35 -14 -30
-54 118 -127 -48 -40 37 -62 -53
-55 -7 36 27 23 51 -2 62
30 14 70 28 6 105 -6 8
-15 -32 6 -2 65 11 -8 -127
17 13 -55 0 -33 27 -44 71
90 13 78 31 -47 -29 -127 -52
47 -16 73 2 24 101 -41 8
124 -26 -66 10 13 -127 31 21
99 53 -31 -31 58 19 -32 36
82 127 71 119 68 -2 -11 21
76 9 18 -39 53 -3 -41 82
127 -27 -11 -6 2 -26 -25 -46
-37 9 -112 6 -127 -116 -57 59
-20 80 -76 -53 -8 -83 67 -65
53 -64 127 40 -40 1 23 -65
-18 -110 -41 -11 -91 -60 48 41
-36 60 44 102 -65 -51 -64 52
127 -30 66 -87 -12 26 21 -54
88 92 24 -117 85 -63 21 -35
-127 118 -79 43 -82 64 29 -65
5 57 -12 90 -83 -60 59 113
58 -23 70 21 -7 32 -127 -55
-23 -10 104 -74 127 23 9 -42
-37 25 -26 85 -61 117 -87 13
102 -41 -27 -60 -17 -5 127 4
-67 127 6 69 116 -82 -96 85
-86 5 127 -35 45 -47 83 -4
-57 -29 -19 -11 -86 -31 13 28
33 127 41 -77 -30 33 -10 64
12 76 -65 26 40 49 -10 19

model/model_parser/tfbn_13/batch_normalization_13/FusedBatchNormV3;model/model_parser/tf_base_conv2d_13/depthwise_conv2d_4/depthwise;model/model_parser/tf_base_conv2d_52/conv2d_35/Conv2D i1 [1, 3, 3, 96]
00000000: 3081 02f6 4aad 7f2a 03de 7fab 55d6 3333
00000010: fe88 b781 24f1 7f19 2a7f 2496 5f81 ffcd
00000020: 1058 5e04 d63f 6b89 0586 2b81 df51 e135
00000030: e3d2 34fe 1ade 014b 8152 7f81 374b 0c81
00000040: bbd1 1115 f57f dc96 0e4f ee7f ada7 aaef
00000050: 38db 11b5 e381 edb1 3809 937f ec15 1d7f
00000060: 18fe 25be 3a96 1d3b 257f c716 3549 d329
00000070: 850d 9111 c301 01f7 f719 e3b5 4ccd 51c5
00000080: 7fb9 405b f50e 5fc3 3fbf 67cd d1f1 dc81
00000090: c481 2707 7de4 170d 03af 61e9 8650 b01e
000000a0: cf81 fa33 e546 ed94 f32a e2d4 c893 d8ac
000000b0: 539c 1229 09c0 81d4 2581 e7f9 3ce8 3a18
000000c0: a6e6 276a 1f13 2e7f d6f5 cadf e3ee 157f
000000d0: aa45 c334 c1df fee1 11ba ec52 7fa5 5c1d
000000e0: 46ba 1c18 031e 3551 122c 1fd8 19c6 cf3c
000000f0: 03c6 06d8 143b 2665 6809 8d66 5b24 e165
48 -127 2 -10 74 -83 127 42
3 -34 127 -85 85 -42 51 51
-2 -120 -73 -127 36 -15 127 25
42 127 36 -106 95 -127 -1 -51
16 88 94 4 -42 63 107 -119
5 -122 43 -127 -33 81 -31 53
-29 -46 52 -2 26 -34 1 75
-127 82 127 -127 55 75 12 -127
-69 -47 17 21 -11 127 -36 -106
14 79 -18 127 -83 -89 -86 -17
56 -37 17 -75 -29 -127 -19 -79
56 9 -109 127 -20 21 29 127
24 -2 37 -66 58 -106 29 59
37 127 -57 22 53 73 -45 41
-123 13 -111 17 -61 1 1 -9
-9 25 -29 -75 76 -51 81 -59
127 -71 64 91 -11 14 95 -61
63 -65 103 -51 -47 -15 -36 -127
-60 -127 39 7 125 -28 23 13
3 -81 97 -23 -122 80 -80 30
-49 -127 -6 51 -27 70 -19 -108
-13 42 -30 -44 -56 -109 -40 -84
83 -100 18 41 9 -64 -127 -44
37 -127 -25 -7 60 -24 58 24
-90 -26 39 106 31 19 46 127
-42 -11 -54 -33 -29 -18 21 127
-86 69 -61 52 -63 -33 -2 -31
17 -70 -20 82 127 -91 92 29
70 -70 28 24 3 30 53 81
18 44 31 -40 25 -58 -49 60
3 -58 6 -40 20 59 38 101
104 9 -115 102 91 36 -31 101

model/model_parser/tf_base_conv2d_14/conv2d_9/Conv2D i1 [16, 1, 1, 96]
00000000: cf79 14b6 2c17 fe2c 48f4 dbed 17d9 c7bd
00000010: eaaf f0f5 0312 8153 fee8 9df7 d61c d0c7
00000020: bee4 1503 10f4 40fa decd 0a17 d9ce 042e
00000030: ecdc f011 efff f6b4 0808 1b27 f203 2bdd
00000040: 12f5 dfda dc0f 1014 edfa b1a9 02f2 28f9
00000050: fee2 323c c4d5 fdf5 2134 05b2 f811 080e
00000060: 831f d1c2 edc6 1001 160b 1123 28fc efeb
00000070: f274 0713 0621 2a29 fda1 b0ef f4ee f8fa
00000080: fa12 ebfb 0c0a d1e1 f410 e7f7 1c2e 2fd4
00000090: 02d8 7ff3 01f2 11b8 a925 f0ca f525 fe65
000000a0: 0c08 21ca d1ef 111c bc43 fce0 38ea fbdd
000000b0: 2002 284f fa17 fefe 37ff d3e6 0349 cb0b
000000c0: c405 5732 fc12 d724 5d16 3c45 dc09 0bc1
000000d0: 7711 efaf 0b44 2fd7 02d2 ca19 d410 136d
000000e0: 59b1 35d1 39f3 e1e0 ec42 b726 0111 0b10
000000f0: 212e 6519 fdec 3155 bc81 04e0 3e2e eb6e
-49 121 20 -74 44 23 -2 44
72 -12 -37 -19 23 -39 -57 -67
-22 -81 -16 -11 3 18 -127 83
-2 -24 -99 -9 -42 28 -48 -57
-66 -28 21 3 16 -12 64 -6
-34 -51 10 23 -39 -50 4 46
-20 -36 -16 17 -17 -1 -10 -76
8 8 27 39 -14 3 43 -35
18 -11 -33 -38 -36 15 16 20
-19 -6 -79 -87 2 -14 40 -7
-2 -30 50 60 -60 -43 -3 -11
33 52 5 -78 -8 17 8 14
-125 31 -47 -62 -19 -58 16 1
22 11 17 35 40 -4 -17 -21
-14 116 7 19 6 33 42 41
-3 -95 -80 -17 -12 -18 -8 -6
-6 18 -21 -5 12 10 -47 -31
-12 16 -25 -9 28 46 47 -44
2 -40 127 -13 1 -14 17 -72
-87 37 -16 -54 -11 37 -2 101
12 8 33 -54 -47 -17 17 28
-68 67 -4 -32 56 -22 -5 -35
32 2 40 79 -6 23 -2 -2
55 -1 -45 -26 3 73 -53 11
-60 5 87 50 -4 18 -41 36
93 22 60 69 -36 9 11 -63
119 17 -17 -81 11 68 47 -41
2 -46 -54 25 -44 16 19 109
89 -79 53 -47 57 -13 -31 -32
-20 66 -73 38 1 17 11 16
33 46 101 25 -3 -20 49 85
-68 -127 4 -32 62 46 -21 110

model/model_parser/tf_base_conv2d_15/conv2d_10/Conv2D i1 [96, 1, 1, 16]
00000000: 1a02 1081 2c0f bd2a 41e9 d9fe 1cf6 fea4
00000010: b4ea 81a1 ece0 52dd ef36 5559 be21 a750
00000020: 2506 cba0 2c5a f900 fa7f 74a5 4ed6 d6cd
00000030: c0d7 7f44 8b1c 1548 dca0 18a8 e7d8 ba07
00000040: 212b e437 81b9 0c10 3fb1 ef3a 1224 1c0c
00000050: 33fe cbb3 dacd 5004 52f2 191e 9d26 810a
00000060: c581 745a 0861 25e3 04ec baa8 f94e 2c96
00000070: 2981 101f a511 6e98 300a ecd8 0536 d1bc
00000080: 2b4c 77e3 976f 2181 44f0 40d8 5655 f3ef
00000090: 3cd4 e7b0 fc02 f011 f9d7 0813 613d 81ac
000000a0: 10dd 37d0 ee2e 25e0 c17f 034a 29ea beab
000000b0: a725 0f7f b4aa 4db2 6e0d d508 f6a3 bfe9
000000c0: 0c68 fe5c 0bb1 57e7 51f1 dbd4 6fbf 637f
000000d0: 1297 ef3e 0b23 c210 53ce 21fa 2cd8 810c
000000e0: 3625 1e81 eae2 0c25 6dbd fa13 f24a 40dc
000000f0: 169f 7f06 d3be 2d48 9f30 1bde 16ea 0416
26 2 16 -127 44 15 -67 42
65 -23 -39 -2 28 -10 -2 -92
-76 -22 -127 -95 -20 -32 82 -35
-17 54 85 89 -66 33 -89 80
37 6 -53 -96 44 90 -7 0
-6 127 116 -91 78 -42 -42 -51
-64 -41 127 68 -117 28 21 72
-36 -96 24 -88 -25 -40 -70 7
33 43 -28 55 -127 -71 12 16
63 -79 -17 58 18 36 28 12
51 -2 -53 -77 -38 -51 80 4
82 -14 25 30 -99 38 -127 10
-59 -127 116 90 8 97 37 -29
4 -20 -70 -88 -7 78 44 -106
41 -127 16 31 -91 17 110 -104
48 10 -20 -40 5 54 -47 -68
43 76 119 -29 -105 111 33 -127
68 -16 64 -40 86 85 -13 -17
60 -44 -25 -80 -4 2 -16 17
-7 -41 8 19 97 61 -127 -84
16 -35 55 -48 -18 46 37 -32
-63 127 3 74 41 -22 -66 -85
-89 37 15 127 -76 -86 77 -78
110 13 -43 8 -10 -93 -65 -23
12 104 -2 92 11 -79 87 -25
81 -15 -37 -44 111 -65 99 127
18 -105 -17 62 11 35 -62 16
83 -50 33 -6 44 -40 -127 12
54 37 30 -127 -22 -30 12 37
109 -67 -6 19 -14 74 64 -36
22 -97 127 6 -45 -66 45 72
-97 48 27 -34 22 -22 4 22

model/model_parser/tfbn_16/batch_normalization_16/FusedBatchNormV3;model/model_parser/tf_base_conv2d_16/depthwise_conv2d_5/depthwise;model/model_parser/tf_base_conv2d_52/conv2d_35/Conv2D i1 [1, 3, 3, 96]
00000000: d407 81ba 61e1 ef6e d1b3 0e81 2311 08ab
00000010: dbfc 3310 b913 3321 f785 c515 d56e 7fd3
00000020: c9c2 d3a6 734c 4108 af35 f7d1 1ac4 d1f1
00000030: 227f 1810 57f2 c07f 3021 83ec f3c1 0502
00000040: 6ad5 b7ce ea15 ee13 d2fb fae0 c281 e8f4
00000050: 7a4a 81a7 8c81 4e08 1a15 d8eb cb46 09ea
00000060: b148 fd24 49bf 25ad b20c 5299 02b8 ff01
00000070: d57f ce98 fb36 c8f4 317a da1a f230 f4ec
00000080: 28cc c153 7fd6 0605 1d13 1f26 e9ce 827f
00000090: 7fd1 b9ec 8103 d161 67a1 5498 7e25 c8c6
000000a0: dadf 1ce6 1060 e9f8 1568 05d5 06ac 231c
000000b0: 64d3 d6e0 0e88 dc0c 7f5b 003c 4106 4d00
000000c0: a77f 8af7 517f f725 f3c7 2a17 d62f 1df5
000000d0: f128 811d 3622 14ba 89ce bdf8 0a2a 9f39
000000e0: 0dd0 4c7f 3903 1a33 b10f 1aee e5b8 deeb
000000f0: 32d8 9545 5e94 add8 79f2 49ad 337f 6a9a
-44 7 -127 -70 97 -31 -17 110
-47 -77 14 -127 35 17 8 -85
-37 -4 51 16 -71 19 51 33
-9 -123 -59 21 -43 110 127 -45
-55 -62 -45 -90 115 76 65 8
-81 53 -9 -47 26 -60 -47 -15
34 127 24 16 87 -14 -64 127
48 33 -125 -20 -13 -63 5 2
106 -43 -73 -50 -22 21 -18 19
-46 -5 -6 -32 -62 -127 -24 -12
122 74 -127 -89 -116 -127 78 8
26 21 -40 -21 -53 70 9 -22
-79 72 -3 36 73 -65 37 -83
-78 12 82 -103 2 -72 -1 1
-43 127 -50 -104 -5 54 -56 -12
49 122 -38 26 -14 48 -12 -20
40 -52 -63 83 127 -42 6 5
29 19 31 38 -23 -50 -126 127
127 -47 -71 -20 -127 3 -47 97
103 -95 84 -104 126 37 -56 -58
-38 -33 28 -26 16 96 -23 -8
21 104 5 -43 6 -84 35 28
100 -45 -42 -32 14 -120 -36 12
127 91 0 60 65 6 77 0
-89 127 -118 -9 81 127 -9 37
-13 -57 42 23 -42 47 29 -11
-15 40 -127 29 54 34 20 -70
-119 -50 -67 -8 10 42 -97 57
13 -48 76 127 57 3 26 51
-79 15 26 -18 -27 -72 -34 -21
50 -40 -107 69 94 -108 -83 -40
121 -14 73 -83 51 127 106 -102

model/model_parser/tf_base_conv2d_17/conv2d_11/Conv2D i1 [16, 1, 1, 96]
00000000: 1bf7 2b06 12eb 2e0a 06e1 f50c cb07 f604
00000010: 0422 f61e 3f00 5cee 25ff 11c5 063f fcfb
00000020: 0b19 0acd 9ff0 1cfb edcd ecba f3dd 050a
00000030: d728 fac6 f1eb f6d6 1c0b 0fea 0022 ff04
00000040: e8f7 f4ce 0011 1c5c bf06 f8cb 5b05 f2ff
00000050: 23e2 14eb 0304 53eb eef8 f7f9 f681 fdf6
00000060: 30e2 ebf6 fc03 97f8 fef7 fe04 ecfa d8f9
00000070: 0f19 fe7f f004 f6fc ff0a 29f9 ffe5 2bcc
00000080: 0b07 facb f80a fefc 00ea f59b 13f9 160e
00000090: 060b 1ffa f1fd 06f3 310e fe29 fe1d 0200
000000a0: eefe 2809 1501 fe0f 36fe ff0e 0a09 0e00
000000b0: 023a 0ae5 0000 39fd 26ed 9a1b e8fc 6317
000000c0: 1e10 1dfd e31b ebf6 fded 18fd fe19 dc06
000000d0: 0310 e8fb 0c2b 0bdd f60a facd f77f 0f05
000000e0: 04f9 0923 cbd3 3fe6 ee08 f738 f701 f806
000000f0: f8f6 e31d fff8 03cb 62fa 310b 0202 fe12
27 -9 43 6 18 -21 46 10
6 -31 -11 12 -53 7 -10 4
4 34 -10 30 63 0 92 -18
37 -1 17 -59 6 63 -4 -5
11 25 10 -51 -97 -16 28 -5
-19 -51 -20 -70 -13 -35 5 10
-41 40 -6 -58 -15 -21 -10 -42
28 11 15 -22 0 34 -1 4
-24 -9 -12 -50 0 17 28 92
-65 6 -8 -53 91 5 -14 -1
35 -30 20 -21 3 4 83 -21
-18 -8 -9 -7 -10 -127 -3 -10
48 -30 -21 -10 -4 3 -105 -8
-2 -9 -2 4 -20 -6 -40 -7
15 25 -2 127 -16 4 -10 -4
-1 10 41 -7 -1 -27 43 -52
11 7 -6 -53 -8 10 -2 -4
0 -22 -11 -101 19 -7 22 14
6 11 31 -6 -15 -3 6 -13
49 14 -2 41 -2 29 2 0
-18 -2 40 9 21 1 -2 15
54 -2 -1 14 10 9 14 0
2 58 10 -27 0 0 57 -3
38 -19 -102 27 -24 -4 99 23
30 16 29 -3 -29 27 -21 -10
-3 -19 24 -3 -2 25 -36 6
3 16 -24 -5 12 43 11 -35
-10 10 -6 -51 -9 127 15 5
4 -7 9 35 -53 -45 63 -26
-18 8 -9 56 -9 1 -8 6
-8 -10 -29 29 -1 -8 3 -53
98 -6 49 11 2 2 -2 18

model/model_parser/tf_base_conv2d_52/conv2d_35/Conv2D i1 [96, 1, 1, 16]
00000000: caec c71c 290c 5c0b fcfe 402b 8114 ea22
00000010: 3f21 66e7 170d fcf4 836c adf7 3512 ff81
00000020: 04f4 97dc 5630 8103 d921 333e e42d d803
00000030: f313 81d6 6c35 9621 d83b 6d2e dd3c cffd
00000040: e8e2 b8c6 4ffc 9932 126a 7fe9 da17 d20f
00000050: 221c 2002 4318 8d08 957f e6fc 5111 9cbf
00000060: 2f20 f3e3 3f7f cede a640 dd52 087a 00be
00000070: ee0b 46c2 ebe6 040b be7f c5f7 c9ee de99
00000080: ee05 81c8 6414 aa1c d155 5717 c750 cef4
00000090: ceb8 180c f923 5981 ef0a 0211 965b f043
000000a0: cdd1 d015 1b2c 71bb 0bf5 1843 8156 d639
000000b0: 09f6 dbfd fffb 214e 05e0 706f 814a 091b
000000c0: 81db c21d 351e 02cf 1d0e fbfc cff8 d15d
000000d0: f811 81de 6037 861a d437 6635 d748 e9f7
000000e0: edd1 3722 ef0e 7fcd 06d2 ee00 df28 240c
000000f0: 1245 3214 cc81 6a4f aefb acc7 25aa aed0
-54 -20 -57 28 41 12 92 11
-4 -2 64 43 -127 20 -22 34
63 33 102 -25 23 13 -4 -12
-125 108 -83 -9 53 18 -1 -127
4 -12 -105 -36 86 48 -127 3
-39 33 51 62 -28 45 -40 3
-13 19 -127 -42 108 53 -106 33
-40 59 109 46 -35 60 -49 -3
-24 -30 -72 -58 79 -4 -103 50
18 106 127 -23 -38 23 -46 15
34 28 32 2 67 24 -115 8
-107 127 -26 -4 81 17 -100 -65
47 32 -13 -29 63 127 -50 -34
-90 64 -35 82 8 122 0 -66
-18 11 70 -62 -21 -26 4 11
-66 127 -59 -9 -55 -18 -34 -103
-18 5 -127 -56 100 20 -86 28
-47 85 87 23 -57 80 -50 -12
-50 -72 24 12 -7 35 89 -127
-17 10 2 17 -106 91 -16 67
-51 -47 -48 21 27 44 113 -69
11 -11 24 67 -127 86 -42 57
9 -10 -37 -3 -1 -5 33 78
5 -32 112 111 -127 74 9 27
-127 -37 -62 29 53 30 2 -49
29 14 -5 -4 -49 -8 -47 93
-8 17 -127 -34 96 55 -122 26
-44 55 102 53 -41 72 -23 -9
-19 -47 55 34 -17 14 127 -51
6 -46 -18 0 -33 40 36 12
18 69 50 20 -52 -127 106 79
-82 -5 -84 -57 37 -86 -82 -48

model/model_parser/tf_base_conv2d_53/conv2d_36/Conv2D i1 [32, 1, 1, 96]
00000000: fbfb c799 05ff e43c d3b4 d3df 02c1 cd11
00000010: 0420 a8f8 e3be feb4 c4fd e081 c5d7 f3bd
00000020: e8ad e3a7 0a02 ef03 dbda d10c d7f7 06c8
00000030: fec0 a806 e2e4 07fd bbea 0ff1 acff cada
00000040: fccb d6ff 09ee eaf6 fccb f3d9 9f9f e3bd
00000050: eacf e616 fafb 08f4 e786 fe28 d7bc bfd1
00000060: fe49 f9e2 20bd 3b38 e410 f2ee d4f7 11ea
00000070: 3747 e500 03e9 ef08 f2d8 cdd9 0833 e1f0
00000080: fce9 e7ec 1bd2 e91b eec7 42fa 3300 25f5
00000090: faec f016 d2dd d207 fbdb f57f eb30 e10e
000000a0: fd00 16ff f0e8 2c3f c824 00d0 d9cd 5d00
000000b0: 2d24 fe16 e0cc da10 51f4 d41e df21 f116
000000c0: 04fa a833 e6f1 fe0c 5c22 06fe 0c25 dcac
000000d0: 0043 f707 124e 04da 61fd ff0e 142a f9d2
000000e0: c648 4709 eaf3 06cf 2009 07a6 ecda c825
000000f0: ee63 05ed 0b87 dcf0 2cfd a401 50f4 64d5
-5 -5 -57 -103 5 -1 -28 60
-45 -76 -45 -33 2 -63 -51 17
4 32 -88 -8 -29 -66 -2 -76
-60 -3 -32 -127 -59 -41 -13 -67
-24 -83 -29 -89 10 2 -17 3
-37 -38 -47 12 -41 -9 6 -56
-2 -64 -88 6 -30 -28 7 -3
-69 -22 15 -15 -84 -1 -54 -38
-4 -53 -42 -1 9 -18 -22 -10
-4 -53 -13 -39 -97 -97 -29 -67
-22 -49 -26 22 -6 -5 8 -12
-25 -122 -2 40 -41 -68 -65 -47
-2 73 -7 -30 32 -67 59 56
-28 16 -14 -18 -44 -9 17 -22
55 71 -27 0 3 -23 -17 8
-14 -40 -51 -39 8 51 -31 -16
-4 -23 -25 -20 27 -46 -23 27
-18 -57 66 -6 51 0 37 -11
-6 -20 -16 22 -46 -35 -46 7
-5 -37 -11 127 -21 48 -31 14
-3 0 22 -1 -16 -24 44 63
-56 36 0 -48 -39 -51 93 0
45 36 -2 22 -32 -52 -38 16
81 -12 -44 30 -33 33 -15 22
4 -6 -88 51 -26 -15 -2 12
92 34 6 -2 12 37 -36 -84
0 67 -9 7 18 78 4 -38
97 -3 -1 14 20 42 -7 -46
-58 72 71 9 -22 -13 6 -49
32 9 7 -90 -20 -38 -56 37
-18 99 5 -19 11 -121 -36 -16
44 -3 -92 1 80 -12 100 -43

model/model_parser/tf_base_conv2d_54/conv2d_37/Conv2D i1 [3, 1, 1, 32]
00000000: 621b 5e61 5f5d dd43 645d 5ef3 5f60 5f5e
00000010: 6e59 605c 615a 5e66 147f 6162 6659 7be1
00000020: 9b6c 9e92 969b d193 a295 9bb3 a09e 9f9d
00000030: 8f99 999a 9898 a3a5 9b81 a3a2 a292 8261
00000040: 8cc1 968d 8697 5531 8598 944f 9392 9292
00000050: 9b93 9891 8b91 818a 4de4 9286 9794 c107
98 27 94 97 95 93 -35 67
100 93 94 -13 95 96 95 94
110 89 96 92 97 90 94 102
20 127 97 98 102 89 123 -31
-101 108 -98 -110 -106 -101 -47 -109
-94 -107 -101 -77 -96 -98 -97 -99
-113 -103 -103 -102 -104 -104 -93 -91
-101 -127 -93 -94 -94 -110 -126 97
-116 -63 -106 -115 -122 -105 85 49
-123 -104 -108 79 -109 -110 -110 -110
-101 -109 -104 -111 -117 -111 -127 -118
77 -28 -110 -122 -105 -108 -63 7
