model_zoo/model.tflite (tflite, 70088 bytes, 30 tensors)

fuse_attr_7 f4 [16]
000000 f3 83 07 be 42 5b 63 be fd 6a 37 be 70 72 f3 bc
       -0.13233928 -0.22202781 -0.17911907 -0.029717654
000010 79 a2 19 3f 16 44 b5 3e 92 b6 1e be e3 5e 0c 3f
       0.6001354 0.35403508 -0.15499333 0.54832286
000020 bc bb bb be 2e 68 fe 3c 2e eb ae bc 2a c0 18 bd
       -0.36666667 0.031055536 -0.021352377 -0.037292637
000030 46 d7 09 3f 95 61 37 be 88 f2 07 bf a0 e8 2c bb
       0.53844106 -0.17908318 -0.5310445 -0.0026383772

fuse_attr_51 f4 [16, 1, 1, 16]
000000 9c b5 4a be 04 87 98 be f4 dc a3 ba be 6a b9 bd
       -0.19795841 -0.2979051 -0.0012501762 -0.090535626
000010 7c 4b f9 bd eb cf 85 3e ac 2e 2c bd 8c d1 0f 3e
       -0.121726006 0.2613519 -0.042036697 0.1404478
000020 03 13 d9 bd 99 5f 36 3e 18 2d 98 3e e6 1d b1 bc
       -0.10599329 0.17809905 0.29721904 -0.021620702
000030 85 2c 6a be c8 33 b2 bc a7 55 ee b9 9a a9 cd 3d
       -0.22868545 -0.021753207 -0.00045458713 0.100421146
000040 9b d2 7b 3d 81 a5 80 bd af b9 b3 3d f5 22 88 bd
       0.061480146 -0.06281567 0.08775651 -0.066472925
000050 8f d0 04 be bf 54 a3 bd b6 d3 02 be 24 6c d0 bc
       -0.12970184 -0.079751484 -0.12776074 -0.02544219
000060 cb 2e 0a bc c5 09 c3 3d e9 65 dc bb 5f 91 47 3d
       -0.008434008 0.09523348 -0.006726016 0.04872262
000070 9b c2 70 be b4 39 90 bd f5 60 88 3d d4 68 c8 3d
       -0.23511736 -0.07042256 0.06659118 0.097856194
000080 c0 65 a6 3c b8 c4 13 3e c7 75 04 bd 16 55 16 bd
       0.02031219 0.14430511 -0.032338884 -0.036702238
000090 b7 d6 a2 bd 8d 3d 06 be 88 96 1a 3d ba 5a a9 3c
       -0.0795111 -0.13109417 0.037741214 0.020673145
0000a0 1e f8 d5 bd 0f 48 f6 bd cb c4 63 bd 63 4e c3 3d
       -0.10447715 -0.12025463 -0.0556076 0.095364355
0000b0 f0 e7 09 be c2 21 56 bd 08 ed f5 bd eb c0 18 be
       -0.13467383 -0.052278288 -0.12008101 -0.14917342
0000c0 7d d5 59 3d aa 2a 12 3e f0 71 f4 bd 1e 17 64 be
       0.053182114 0.14274088 -0.11935794 -0.22274444
0000d0 b0 61 cf bd 2e 71 32 be 50 69 51 be 09 4c 2d 3e
       -0.10126054 -0.17425987 -0.2045033 0.16923536
0000e0 4d f7 64 bd 43 9f 25 3e fe 2b b8 3d 0d f2 63 3b
       -0.055899907 0.16174035 0.08992766 0.0034781725
0000f0 a1 d6 3e be 45 9b 92 3d 6f 4c b8 3d 05 b0 d5 3c
       -0.18636562 0.071585216 0.089989536 0.02608491
000100 11 65 3d be ea 46 51 3c f8 82 19 3e 3a 76 57 3e
       -0.18495585 0.012773255 0.14991367 0.21041194
000110 56 3c 90 3c 9a 75 6a 3c c8 ff 1a 3a 1d 38 fe 3c
       0.017606895 0.014310265 0.0005912748 0.031032616
000120 76 ef 41 3d 05 31 1c 3e 37 5e c1 bd 1c 6e f3 3d
       0.04734751 0.15253074 -0.09441798 0.11886236
000130 13 76 45 be d9 ed ba 3c be 96 a6 bd 1e dc 01 be
       -0.19283323 0.022818493 -0.081342205 -0.12681624
000140 0b b6 38 be d5 0b de 3c 3f f0 df bd 85 a9 58 3e
       -0.18038194 0.027105251 -0.10934495 0.21158417
000150 f8 50 fc 3d 60 b5 e7 3c 80 21 a6 3d 28 23 34 bd
       0.12320131 0.028284729 0.08111858 -0.04397884
000160 67 8c 43 3e 5b c6 d9 3d f1 2a 1d 3e ef d8 11 be
       0.19096528 0.106335364 0.15348412 -0.1424291
000170 79 65 47 3e 22 46 41 bd a0 ad c9 ba a6 54 aa 3b
       0.19472302 -0.047186024 -0.0015386827 0.005198079
000180 09 e8 8d bd 3a d0 6d be 49 00 04 be a1 78 08 bc
       -0.06929023 -0.23223963 -0.12890734 -0.008329541
000190 5f fe 31 3c 95 20 8b be af 4a 24 3e 58 a7 20 3d
       0.010863869 -0.27173296 0.16044115 0.03922209
0001a0 f2 0c af 3e 37 ac a8 be 5b 67 48 bc 4c 22 67 3d
       0.34189564 -0.3294389 -0.012231673 0.056429192
0001b0 8b 9c ba bd e6 e8 b5 3e 54 92 e4 be 46 af 4b be
       -0.091118895 0.3552925 -0.4464289 -0.1989108
0001c0 75 4a 96 3c 2e 9c 5f be 2c 70 9e 3d 76 f6 09 3e
       0.01834605 -0.21836922 0.07736239 0.13472924
0001d0 35 35 28 3e 51 4d c6 bb e8 15 bc bc 74 b8 29 3d
       0.16426547 -0.0060516973 -0.022959664 0.041435674
0001e0 4b 36 86 bd d1 46 9d 3e 95 f2 bd 3d 2b f1 fd 3c
       -0.06553324 0.3071809 0.092747845 0.030998787
0001f0 aa 75 98 be 12 b4 30 be 24 ff a6 bd 00 23 62 be
       -0.2977727 -0.17256191 -0.08154133 -0.22083664
000200 ac 6e e9 bb 23 a3 3d bd dd 3b 02 3d 6a 42 d6 bc
       -0.007123789 -0.046298157 0.03179537 -0.026154716
000210 14 0d 41 be 51 95 5a 3c 52 5d 0f be 42 3b 22 bd
       -0.18852645 0.013341264 -0.14000443 -0.039607294
000220 af 33 b8 bd 36 36 29 3e 2e 53 c1 3c 72 73 95 bd
       -0.08994233 0.16524586 0.023599233 -0.0729741
000230 d3 d5 ce bd a0 6a 0d 3e 9a 50 71 bc ab 49 a6 3c
       -0.100993775 0.13810205 -0.01472869 0.0202988
000240 e1 ad 55 be 79 98 21 3d 23 fc a5 3d 8b 53 61 be
       -0.20867111 0.03945205 0.08104732 -0.22004525
000250 11 ff cb 3d 63 db 33 3e ec 04 a9 be 13 b0 45 be
       0.099607594 0.17564158 -0.33011568 -0.19305448
000260 f0 99 77 bc b0 78 2b bd c5 aa b5 bc 08 1b 48 3e
       -0.015112385 -0.041863143 -0.022176156 0.19541562
000270 e8 c2 23 3e 9f 9c 91 3e a9 9b 9a be 8e c1 f6 bd
       0.1599232 0.28439805 -0.30196884 -0.120486364
000280 8f f3 93 3d fa 97 4c 3e 10 52 02 3e 54 f5 66 3e
       0.072241895 0.1997985 0.12726617 0.22554523
000290 71 fa 27 3e 7c 31 d0 3c f7 d1 1f 3e 5b 7c 2e be
       0.1640413 0.025414221 0.15607439 -0.17039625
0002a0 62 8b 64 3d 96 99 c8 3d 63 17 8e 3c 38 3c d7 bd
       0.05579699 0.09794919 0.017345136 -0.10509533
0002b0 db 15 53 3e b5 18 d3 bd e8 80 09 3d dc af 48 be
       0.20613806 -0.10307447 0.0335702 -0.19598335
0002c0 ea 58 47 3e 09 ed dc bd de 2f a4 3b 24 cd 89 bc
       0.19467512 -0.10787398 0.005010589 -0.016821451
0002d0 8a 4b 28 be 94 ef 86 3c 7f 82 67 bd 37 47 bf bc
       -0.16435066 0.016471662 -0.056520935 -0.023349388
0002e0 4f 54 81 be 77 91 ab bd 47 4f 52 bd 7b 69 08 be
       -0.25259635 -0.083773546 -0.051345136 -0.13321488
0002f0 fd b5 80 be db 7a 8f 3e f2 96 13 be a8 8b 43 3e
       -0.25138846 0.2802342 -0.1441305 0.19096243
000300 46 97 08 3e 8d 70 15 3d e2 e3 01 3c 98 c8 72 3d
       0.13338956 0.03648429 0.007927867 0.059273332
000310 b7 7c c5 3d b5 0e eb bc 97 6c 99 bc 92 3f 38 3e
       0.09642928 -0.028693536 -0.018728537 0.17993
000320 83 a3 6c 3d 3d e2 1c be 35 62 2e bc 39 5b 34 3e
       0.057773124 -0.15320678 -0.010643532 0.17612924
000330 91 fe be bd b7 d4 a1 bd 47 5a 6e 3d 7f fd f3 bd
       -0.093258984 -0.079019 0.058191564 -0.11913585
000340 2a 9f ce 3d 07 da 5c 3d b0 b2 eb 3c eb 1b 94 bd
       0.10088952 0.053918865 0.028771728 -0.072318874
000350 ae 2f 69 3d fa 36 aa bd 1c aa 03 3d fa bc ef bd
       0.056930237 -0.08311267 0.03214465 -0.11705966
000360 13 61 b4 bd 12 6e fa 3c 81 38 ab bb 3a c3 08 bd
       -0.08807578 0.030570064 -0.0052252416 -0.033389308
000370 42 f9 d6 3d 39 e6 77 3d 68 ff 09 be f4 35 c1 3c
       0.10496761 0.06052229 -0.13476336 0.023585297
000380 ef a4 f8 bd 4e 9b 35 3d c3 2f 2f be 97 ad a0 bb
       -0.121408336 0.044337563 -0.17108063 -0.004903506
000390 74 6f 29 bd a2 6d 02 be bd d8 57 3e c2 ab b1 bd
       -0.041366056 -0.12737134 0.21078773 -0.08675338
0003a0 c9 f7 cf bd 33 f2 26 3d a7 8e 08 be c5 ed c5 bb
       -0.10154683 0.040758323 -0.13335668 -0.006040307
0003b0 63 49 b1 bd 2c 83 eb bd c6 34 7f b8 44 0e 34 3e
       -0.086565755 -0.114996284 -6.0845887e-05 0.17583567
0003c0 f7 82 99 bc e4 08 0a bd fa b5 03 bd a4 7d 95 3d
       -0.018739207 -0.033699885 -0.03215597 0.07299355
0003d0 cd a0 dc bd 82 14 a1 bc c7 78 50 bc 1d dc 69 be
       -0.10772858 -0.0196631 -0.012724108 -0.22837873
0003e0 3a 86 30 be d3 a6 f2 3d 57 19 f3 bd 80 74 ea bd
       -0.17238703 0.118482254 -0.118700676 -0.11448002
0003f0 ed 49 34 be df 81 3f 3e 4e d1 7b 3e 73 3e ac 3c
       -0.17606325 0.18701886 0.24591562 0.021025872

fuse_attr_52 f4 [1, 3, 3, 16]
000000 e8 34 42 bf 6e 9d 3b 3e 0b b6 b5 3d ce c8 d4 be
       -0.7586198 0.18321773 0.088726126 -0.41559452
000010 f1 37 1a bf 2a 4f 62 bf 28 f4 1f 3f 69 4d 8b 3c
       -0.6024161 -0.88402045 0.6248193 0.017004685
000020 27 d2 86 3e 03 00 46 c0 36 92 81 3f c1 3a e7 bf
       0.2633221 -3.0937507 1.0122745 -1.8064805
000030 90 3c 68 be 62 96 2f 3f be ae 00 3b 2e f4 8f bf
       -0.22679353 0.6858884 0.0019635404 -1.1246393
000040 f6 82 00 bf 10 da 83 3f 95 66 d5 3f 91 7d e3 bf
       -0.5019983 1.0300922 1.667193 -1.7772695
000050 6a d4 2e bf d9 e1 4c bf 30 46 90 3e 50 c2 e7 be
       -0.6829287 -0.80032116 0.2817855 -0.45265436
000060 6a 10 fc 3e a5 3e a3 3f ae d0 55 be 85 c8 11 bf
       0.49231273 1.2753493 -0.20880386 -0.56946594
000070 70 08 a4 be 80 ca 8f 3f d8 d9 15 3f 73 83 62 3f
       -0.32037687 1.1233673 0.5853553 0.88481826
000080 0a 8f e8 be a8 0a 9f 3f 84 cb d6 3f 2b e3 a1 3e
       -0.4542163 1.2425127 1.6780858 0.31618628
000090 cf a9 d1 be ff 06 b3 3f c5 6d 8b 3c 7d f5 b1 be
       -0.40949866 1.398651 0.017020116 -0.34757605
0000a0 bc 36 95 3d f1 ce c7 3f 55 91 83 bf 17 3f fb be
       0.072858304 1.5610029 -1.0278727 -0.4907157
0000b0 98 d2 af be ae cc e2 3e e2 61 26 3f 79 2f 6e 3f
       -0.34340358 0.44296783 0.6499311 0.9304119
0000c0 b7 9d 35 bc 21 ac ac 3d 0f de 60 bd 70 d6 8d bf
       -0.011084965 0.084312685 -0.05489927 -1.1081066
0000d0 c0 e4 cf be 1d 9a 82 bf b0 aa 91 3f 79 63 c8 be
       -0.4060421 -1.0203282 1.1380215 -0.39138392
0000e0 d6 3a 13 be bc 9a 84 bf 55 9b aa 3f a8 5a 45 bf
       -0.14377913 -1.0359721 1.3328654 -0.77091455
0000f0 5e be 4d bf ef 6d c7 3f f9 80 4f be df 3c 5e bf
       -0.803686 1.5580424 -0.20264043 -0.8681163
000100 88 60 9e 3e f8 42 6d be 9a ab 54 3f 08 03 45 3d
       0.30933022 -0.23170078 0.83074343 0.048098594
000110 2a 9c 6a bf 2e e6 54 bf a8 83 4a 3f 64 ea 87 bf
       -0.9164454 -0.83163726 0.7910714 -1.0618405
000120 18 fd 54 3f fb c7 f0 3e 5b 06 dc be 39 f2 07 3f
       0.8319869 0.47027573 -0.429736 0.5310398
000130 8a 90 64 bf 13 e5 bb 3e be 17 b7 3d fb 58 90 3f
       -0.8928305 0.36698207 0.08940075 1.1277155
000140 6c b0 86 3f ee e2 89 3f 3e 8b 05 bf 8c 42 9d 3e
       1.052259 1.0772378 -0.5216559 0.30714834
000150 05 d8 78 bf cb 18 4a 3f c3 f8 b4 bf f0 84 52 bf
       -0.9720462 0.7894408 -1.4138416 -0.82234097
000160 7d c6 ae 3f 1e 5d a4 3e 29 98 cb bf 42 a9 3a bf
       1.3654324 0.32102293 -1.590581 -0.72914517
000170 74 04 80 bf 4e 80 47 3b d6 de 79 3f bd 9c 47 3e
       -1.0001359 0.0030441466 0.97605646 0.19493385
000180 4f d5 81 3e 54 33 b1 bf 7d 0f 8e 3e af 2d f9 3e
       0.25358054 -1.3843789 0.27746192 0.48667666
000190 f0 a2 35 be 5f b5 86 be 10 81 8e 3f 9e 4e f7 be
       -0.17737937 -0.2631025 1.1133137 -0.48302168
0001a0 95 ce b6 bd e2 ae 5a be 5e 10 c4 3f 0d 19 d9 3f
       -0.08926121 -0.21355775 1.5317495 1.696077
0001b0 aa 73 c4 be 05 8f 12 3e 9b 1d b0 3d ba ed 71 bf
       -0.38369495 0.1431237 0.08599397 -0.94503367
0001c0 dd 7c 3d 3f f9 dd a6 be a3 1e d5 be de f9 91 3f
       0.7401865 -0.32591227 -0.41624936 1.1404378
0001d0 64 fc e1 bc f6 3c 14 bf 0c ec 9a be ea 92 61 bf
       -0.02758617 -0.5790552 -0.30258214 -0.881148
0001e0 8b 65 87 3f db 47 bf bd 7c ac 1c bf 97 ff a5 3f
       1.0577863 -0.09339877 -0.6120069 1.2968625
0001f0 f6 57 31 bf d3 90 af bf 03 44 ae 3e ea f6 1b 3e
       -0.6927484 -1.3716072 0.34036264 0.15230909
000200 67 ce fd 3f 5b be 90 3f 2c 76 63 bf e5 33 af 3f
       1.9828614 1.1308092 -0.8885219 1.3687712
000210 cf 96 fd 3d 1a 61 4c 3f 5a f8 b6 bf bb f5 ee be
       0.1238228 0.79835665 -1.4294541 -0.46671852
000220 62 23 65 3f 23 d0 fc 3d c2 ff 8c be 9a 13 da 3e
       0.89507115 0.123443864 -0.27538878 0.4259308
000230 3e 9d 37 bf ce 19 81 bf be a5 d3 3f ff 75 ec bd
       -0.7172431 -1.0086 1.6534956 -0.115459435

fuse_attr_50 f4 [16, 3, 3, 3]
000000 ca ee 81 3d 87 15 b5 bd ba dd 2e 3d 67 29 51 3e
       0.063443735 -0.08841997 0.042691924 0.2042595
000010 bb 49 f7 3e 3d 4c 23 bf b3 91 b4 3e 4c 7e dd be
       0.4829844 -0.63788205 0.3526741 -0.4326042
000020 34 7c 30 bf d5 42 9c bd 4a 86 7a 3f b8 2d 8e bf
       -0.6893952 -0.07629935 0.9786116 -1.1107702
000030 15 c4 b8 be 72 da 8d 3e f6 4d f2 be 2e a0 8d be
       -0.360871 0.27705723 -0.47325104 -0.2766127
000040 1f 08 1d 3f 0b 14 bb be 29 7b aa 3f ff 10 53 3d
       0.61340517 -0.3653873 1.3318835 0.05152988
000050 d2 e2 18 be 6d 15 2d 3f 09 cd 16 3f 97 66 0c be
       -0.14930275 0.6761082 0.5890661 -0.1371101
000060 c5 ad 27 3e 6f a9 bc 3e 01 69 24 bd fb e2 8b 3e
       0.16374882 0.36848018 -0.040139202 0.2732161
000070 aa 68 0e 3f 61 7d 11 be 31 84 31 bf b8 ab 3c 3f
       0.55628455 -0.14207985 -0.69342333 0.7369952
000080 84 7f 38 bf e5 bf 41 bf 3f 1f 9e 3e 41 10 80 be
       -0.72069573 -0.7568343 0.30883214 -0.250124
000090 f5 99 04 bf f0 35 80 be 06 53 97 3e bd 7a 8f 3d
       -0.5179742 -0.2504115 0.2955553 0.07005832
0000a0 f5 25 d0 3d e3 e4 1f be 56 76 7a 3e b2 58 0f 3f
       0.1016349 -0.15614657 0.24459204 0.55994713
0000b0 33 2e 37 bf b2 af 59 3e 2c a9 b9 3f eb 84 00 3f
       -0.7155487 0.21258429 1.4504752 0.50202817
0000c0 a3 a9 24 bf 07 53 77 3f 41 cf c0 3e b6 0e 2e bf
       -0.64321345 0.96611065 0.37658122 -0.679912
0000d0 13 57 cf 3e 40 88 43 3d 74 1d a7 bd b5 d9 bd bd
       0.4049612 0.04773736 -0.081599146 -0.0927004
0000e0 b7 c3 91 be 69 cb 9e 3e 74 d3 57 3e 8f 43 94 be
       -0.2846963 0.31014565 0.21076757 -0.28957793
0000f0 0c fd b1 3e 50 db b2 3e 4f d6 e4 bd 99 33 cb 3e
       0.34763372 0.34932947 -0.111736886 0.39687803
000100 a2 e5 6f 3e 21 46 22 3e cc a8 cd 3e 4a 54 bb bc
       0.23427442 0.15847065 0.40167844 -0.02286734
000110 e8 e8 99 be 9c 5f 48 3e 4d 52 e1 3e 38 3d 04 bf
       -0.30060506 0.19567722 0.44008103 -0.5165591
000120 2d 06 28 be a4 e4 c5 3c aa af 89 bf f5 2b fe 3e
       -0.16408606 0.024156876 -1.0756733 0.49642912
000130 b9 87 b8 be bf 84 27 be 3c ae b4 3d c9 c6 97 3e
       -0.36041048 -0.16359232 0.08822295 0.2964385
000140 6a d3 c9 bd 6f d3 2b 3c 7a 97 6c bd c1 6c 45 3f
       -0.09854777 0.010487421 -0.057761647 0.7711907
000150 8e 2c a8 3e 93 dd fc 3d 7b e0 2a 3f 1d bf 0c 3e
       0.32846493 0.123469494 0.6674878 0.13744779
000160 68 89 c6 be 80 e3 0e 3e 71 01 a6 be 8e b3 4c bd
       -0.38776708 0.13953972 -0.32422975 -0.049975924
000170 67 53 2a 3f 4c cc ae 3e 7d e6 be bd 9a af 48 3f
       0.6653351 0.3414024 -0.09321306 0.78392947
000180 0d f4 b1 be a5 2b aa 3d 0a aa 84 be 17 a7 41 bf
       -0.34756508 0.08309106 -0.2591098 -0.75645584
000190 e5 1e 57 bf 6d 8f d1 be ff 4e 7b bf 60 ef 49 be
       -0.84031516 -0.40929738 -0.98167413 -0.1972022
0001a0 05 96 15 be 7f 88 52 bc 01 ec 7c bf 19 5f 1a 3f
       -0.14608009 -0.012849926 -0.98797613 0.6030136
0001b0 ad c9 78 bf 26 9b 8c be aa 8d a4 3e 56 51 bb 3e
       -0.9718273 -0.2746212 0.3213933 0.36585492
0001c0 3f ea 3b bd bd 2d 84 3f 40 76 5c 3e c5 74 c2 be
       -0.04587769 1.0326458 0.21529484 -0.37979713
0001d0 ed c3 7f 3f 97 1f 79 3e 77 7f a8 bd 52 aa a3 3e
       0.99908334 0.24328457 -0.08227437 0.31965882
0001e0 dd 0e a8 bf 2e 89 2d 3e 63 a2 96 3e 4d 44 89 3e
       -1.3129536 0.16946861 0.29420766 0.26809922
0001f0 1b 3e 77 3d 0c e3 e2 3e 03 a1 b4 be cf e0 49 bf
       0.060361963 0.44313848 -0.35279092 -0.78858656
000200 ae 64 13 3f b5 62 28 be cd 5e 08 bf 08 50 bc 3e
       0.575755 -0.16443904 -0.53269655 0.3677981
000210 7b 4c bf be 90 58 74 be 15 49 87 3f 9d 67 ab 3d
       -0.37363037 -0.23861909 1.0569178 0.08369372
000220 ae 41 99 be 8e 9b 81 3e 44 d8 0a 3e cc 65 b0 be
       -0.29932922 0.2531399 0.13559061 -0.34452665
000230 b6 a7 cd 3c f4 c5 9d 3e ee bc bb bd a7 7a 97 bd
       0.025104385 0.3081509 -0.09166895 -0.07396441
000240 77 fb a9 3c 87 39 e8 be d0 48 4d 3a 19 6d a4 3c
       0.02074979 -0.4535639 0.00078309793 0.020071553
000250 0e 62 bb be ee 98 80 be 9e 6f 92 3e 7e a5 0c be
       -0.36598247 -0.25116676 0.28600782 -0.13735005
000260 e3 17 ed 3d 8f 27 1f bc de c7 d1 be 38 e5 36 3d
       0.11576822 -0.009714021 -0.409728 0.044652194
000270 c9 d0 5b 3d 7e 5d 3d be 63 38 2f be c9 b3 20 3e
       0.05366591 -0.18492696 -0.17111354 0.15693583
000280 50 16 7a be ca 6c a9 3c e8 c0 08 3e 4d 14 da 3e
       -0.24422574 0.020681757 0.13354838 0.42593613
000290 98 52 62 3e 86 38 99 bd c1 1b da bd 0d b3 d1 3d
       0.2210182 -0.07481484 -0.10649825 0.10239229
0002a0 12 35 8e be 73 e0 86 be 17 15 2b 3e 50 59 a9 3e
       -0.27774864 -0.26343116 0.16707264 0.33075953
0002b0 1d 05 3b 3e 1f c1 a3 3e 3d 21 6a be 00 aa fc 3c
       0.1826367 0.31983277 -0.22864242 0.030842781
0002c0 e5 f2 83 3e d8 07 e0 bc d8 1f 0f be fe a0 41 3e
       0.2577125 -0.02734749 -0.13976991 0.1890907
0002d0 0a 0e 85 3e 0c 79 47 3c 7e 0e 53 3e a8 82 68 bd
       0.25987273 0.012174856 0.20610997 -0.05676523
0002e0 8b 85 ef 3d 9d 05 d2 3e 98 c1 f5 be c4 e0 2a be
       0.11695393 0.41019908 -0.47999263 -0.16687304
0002f0 d7 5c 0a 3f 34 1e 16 bf 3d 9f 45 bd c5 42 81 bf
       0.5404791 -0.58639836 -0.048247565 -1.0098501
000300 23 71 26 bf a6 ab b6 3e a5 52 ad bf a3 7b 33 3f
       -0.6501638 0.35677832 -1.3540846 0.7011053
000310 eb 19 88 3e 59 ee e7 3d af 94 f9 bd 49 ad 62 3e
       0.26582274 0.11324758 -0.12186562 0.22136416
000320 28 34 62 bf 78 a8 e7 3e 7c 86 2c be ce 7d ec be
       -0.88360834 0.4524572 -0.16848177 -0.4618973
000330 68 de 5d 3d 27 22 4e 3f f4 9d 0c 3f d1 b9 9a 3d
       0.05416718 0.8052086 0.5492852 0.07554973
000340 3d 1e 54 3e 77 80 28 bf 90 60 82 3f b2 7a 11 be
       0.2071466 -0.6582102 1.0185719 -0.14206961
000350 d3 00 88 3d 9a 81 f6 3c 94 15 3d 3f c5 58 54 3f
       0.06640782 0.030091096 0.7386105 0.8294795
000360 d5 f4 05 3f 15 49 c4 be 9e 2d 59 bf 19 48 c9 be
       0.5232671 -0.38337007 -0.8483523 -0.3931282
000370 88 cf 16 bf 3b ce 55 bc 00 50 a0 be 56 28 d1 bc
       -0.5891042 -0.013049657 -0.31311035 -0.025531929
000380 55 1f 12 3f 29 1e 7c be 3e ca 7b bf a9 c8 00 bf
       0.5707906 -0.2462088 -0.9835547 -0.50306183
000390 56 33 f9 bc a5 ba 63 be ad e1 8b 3e e0 23 c0 3d
       -0.030419987 -0.22239168 0.27320614 0.093818426
0003a0 7a 74 c9 be ac 64 27 3f 15 8f bc 3f f3 c2 26 bf
       -0.39346677 0.6538799 1.4731165 -0.6514122
0003b0 30 a9 14 3e bf 78 42 3f 88 96 34 bf e4 69 e8 3d
       0.14517665 0.75965494 -0.7054219 0.11348322
0003c0 3d bd eb 3d 44 5b 86 bf 1d 4b 65 3f b5 f0 b9 3e
       0.11510704 -1.0496602 0.8956774 0.36316457
0003d0 e0 4e b2 3d 81 57 81 3f 0d 10 71 3f cc 6c 09 be
       0.087064505 1.0104829 0.94165117 -0.13420409
0003e0 3e e0 2d 3e 1d 6d 05 3f fe 65 89 be 53 87 6c 3e
       0.16980073 0.5211962 -0.26835626 0.23098497
0003f0 8d f9 85 3d 27 55 f6 bc ef 55 24 3f 09 b5 46 3f
       0.06541739 -0.0300699 0.64193624 0.7761999

fuse_attr_53 f4 [4, 1, 1, 16]
000000 5e 16 0e be 30 ec 3a be fa b4 68 bc 0b 19 84 3c
       -0.1387572 -0.18254161 -0.014203304 0.016125223
000010 29 4c 62 3d c9 37 26 bd 0c 6b 17 3c 56 f5 d7 ba
       0.055248413 -0.040580545 0.009241831 -0.0016476314
000020 fa 91 92 bc fe 03 ef 3c f7 db ba 3c 84 c4 9c 3b
       -0.017891873 0.029176708 0.022809966 0.0047841687
000030 3a 97 17 3e 4a 9d 1b 3e aa 8e 09 3e 36 c4 85 3c
       0.14803782 0.1519672 0.13433328 0.016328912
000040 58 25 b3 3b 56 88 00 3c 7f 1e 5e 3a b2 da 22 b9
       0.005467098 0.007845005 0.0008473172 -0.00015530994
000050 cf cd b0 ba e6 69 03 3b 71 30 0a b9 70 e1 d9 3a
       -0.001348907 0.0020052134 -0.00013178751 0.0016622972
000060 4e 74 ed 3a 8c a8 c1 b9 08 dc cc b9 34 8d aa b8
       0.0018116327 -0.00036937406 -0.00039073848 -8.132533e-05
000070 a0 3e 29 bb f0 3f 9a bb b7 e4 0a bb 44 1d d1 b9
       -0.002582468 -0.004707329 -0.0021193454 -0.0003988539
000080 85 c5 77 bd ef 8a 9d bd 0f 58 34 bb 12 64 dd 3b
       -0.060491104 -0.07692515 -0.0027518307 0.006756314
000090 3d f8 cb 3c 10 63 8d bc 65 0f 78 3b 72 e0 82 bb
       0.024898643 -0.01725915 0.0037850973 -0.003994041
0000a0 ed ec 70 bc 20 ef 31 3c 98 4b 1a 3c 77 a2 00 3b
       -0.014704925 0.0108602345 0.009417437 0.0019628087
0000b0 3e c0 6a 3d d0 35 a8 3d e3 41 3d 3d 70 32 e4 3b
       0.057312243 0.08213389 0.046205413 0.0069640204
0000c0 9e 0e 00 80 4d 04 00 00 0b 1c 00 80 37 0c 00 00
       -5.244e-42 1.543e-42 -1.006e-41 4.382e-42
0000d0 2b 0b 00 00 9b d0 02 9f d4 16 00 80 57 1f 00 00
       4.006e-42 -2.7701125e-20 -8.189e-42 1.1243e-41
0000e0 6a 18 00 80 5a 08 00 00 e9 20 00 80 77 10 00 00
       -8.758e-42 2.996e-42 -1.1806e-41 5.906e-42
0000f0 4a 03 00 00 2c 09 00 00 f7 fb 00 00 70 21 00 00
       1.18e-42 3.29e-42 9.0388e-41 1.1995e-41

bias.8 f4 [16]
000000 5b 3d 5d 3c 7f a0 aa bc f6 cb c9 bc 60 94 15 3c
       0.013503398 -0.020828484 -0.024633389 0.009129614
000010 cf f2 8e 3b 2c 4e 2a 3d c4 88 cf 3a 76 76 09 3d
       0.004362441 0.041578457 0.0015833606 0.03356024
000020 d2 de ea bb 0d e8 02 3c 09 06 8e 3c 2e d1 04 bd
       -0.0071676755 0.0079898955 0.017336862 -0.03242605
000030 fa 0c 82 bd 26 d0 19 bd 17 44 36 bd 9a 4d 85 3c
       -0.06350131 -0.03755202 -0.04449853 0.016272355

fuse_attr_5 f4 [16]
000000 4a 65 8b 3d 75 ba f4 3d 86 2d 31 3e be 4d c7 3d
       0.06806429 0.11949626 0.17302522 0.09731625
000010 e0 04 04 3e 8f e0 62 3d 31 d9 2a 3e 84 90 4f 3c
       0.12892485 0.055389937 0.16684414 0.012668733
000020 e2 a6 a7 3d 9f c3 a1 3d 67 ae 9d 3d 7e ff 2b 3e
       0.08186127 0.0789864 0.0769928 0.16796681
000030 1c c4 a7 3b ab a8 19 3e 04 d5 3a 3e f4 0f 16 3d
       0.0051198136 0.15005748 0.18245322 0.036636308

bias.1 f4 [3]
000000 66 b7 06 3f 7a cf 2c 3f 3c 17 b3 3f
       0.52623594 0.67504084 1.3991466

fuse_attr_56 f4 [72, 1, 1, 16]
000000 9f 64 35 37 be db 87 b4 58 f9 75 b5 15 28 d6 35
       1.0811868e-05 -2.5305593e-07 -9.1632455e-07 1.5955908e-06
000010 0a 35 c1 33 ca e4 07 b5 7a 06 b6 34 7b ff 5f b6
       8.9969106e-08 -5.062435e-07 3.3904854e-07 -3.3378299e-06
000020 7e 56 18 36 10 fe 5b b6 4c 5c 0d 36 db 03 08 b6
       2.270011e-06 -3.2781427e-06 2.106436e-06 -2.0267823e-06
000030 f4 31 ee 33 8a f4 22 36 12 0f 0b b5 4f af 61 35
       1.1091825e-07 2.4282222e-06 -5.1803465e-07 8.407414e-07
000040 66 0d 1a 3e f3 da 93 bc 89 21 7d 3c bd 45 bd bd
       0.15044174 -0.018048739 0.01544989 -0.09241817
000050 ae 77 85 3d e3 3c 9e 3d 71 25 0d 3d cc 5c 97 3c
       0.06516968 0.07726457 0.034459535 0.018476866
000060 36 ae 0b be be e1 3f bd 78 26 2e 3e 0e 8e e2 3c
       -0.13640675 -0.046846144 0.17006862 0.027655628
000070 ab 91 c1 bc 64 bf 0d 3d 1c 78 18 3d 25 48 b0 3c
       -0.02362903 0.034606352 0.03722392 0.021518776
000080 22 cc 30 bc 15 1b c7 ba ce b5 62 3d 9e 0a 8f 3c
       -0.010790857 -0.0015190566 0.055349164 0.017461117
000090 95 c4 8f 3d 2c 80 89 3d a3 7e c6 3d ef 81 49 3c
       0.07019917 0.067139 0.09692123 0.012299045
0000a0 a1 65 cd 3d 94 90 bf bb 8e e0 69 bd 8f 84 57 bd
       0.1002915 -0.0058460925 -0.057098918 -0.052616652
0000b0 b5 3c ec b9 17 fa 01 bd ae 63 67 3d ef 04 66 bd
       -0.00045058658 -0.031732645 0.056491546 -0.05615705
0000c0 73 b4 9a 3b 38 7a 36 3d 33 2c 6b 3d 6d 54 3e bd
       0.0047212183 0.04455015 0.0574152 -0.046467233
0000d0 63 31 1b bd 51 20 e6 bc f5 91 38 bd fc 08 64 bc
       -0.037888896 -0.028091582 -0.04506107 -0.013918158
0000e0 19 6f 23 3d f2 fc d4 3d e8 34 5e bd 78 d5 16 3c
       0.039900873 0.10399808 -0.054249674 0.009206168
0000f0 5f be 66 bd 37 40 ea bc ca 9a cf 3d 5a 73 cb bc
       -0.056333896 -0.028595073 0.101369455 -0.024835277
000100 79 01 89 3d 01 65 5f bd 4c 01 9b 3b 06 09 27 bd
       0.06689734 -0.054539684 0.004730379 -0.04078009
000110 64 d8 8e bd 04 17 b6 bb be d2 bd 3d cb 77 51 bd
       -0.06974867 -0.005556943 0.092687115 -0.051139634
000120 94 65 ac 3d d7 75 e4 3d ea 6b fb 3c bb 3f 5f bd
       0.08417812 0.11155289 0.030691106 -0.054504137
000130 fe 32 bf 3c e3 d0 58 3d 81 d0 bc bc 1c 1e 82 bc
       0.023339745 0.052933585 -0.023048641 -0.015883498
000140 8f 14 0f bd 63 d9 d9 3d 70 15 0d 3a 12 c4 37 3d
       -0.034931716 0.10637166 0.00053819176 0.04486472
000150 cd 8e cd 3c 4e 51 2b bd c3 b8 ef bd ba 97 ef 3d
       0.025092507 -0.041825585 -0.117051624 0.116988614
000160 c7 69 bd 3d d9 38 d1 bd 4e 52 11 be e5 04 b1 bd
       0.09248691 -0.10215921 -0.14191553 -0.08643512
000170 6b b8 79 3b 84 dd 76 bc 9d 67 65 3a 81 1c 88 3c
       0.0038104306 -0.015067462 0.00087510963 0.016615154
000180 0a 45 ac bb ab 16 00 3d bd 10 61 bd 57 0c c0 bd
       -0.0052572535 0.031271618 -0.054947603 -0.09377354
000190 f6 9c 97 3c f0 7c 95 bd 63 bf dd bd 36 97 ea 3c
       0.018507462 -0.072992206 -0.1082752 0.028636556
0001a0 67 8b 71 bd f5 a9 22 3e 91 2c f7 bc 63 f5 06 3d
       -0.058970835 0.15885146 -0.030172618 0.032948863
0001b0 fa 88 35 ba 11 f2 d3 3b 6b 04 04 3e d8 42 74 38
       -0.0006925013 0.0064680655 0.1289231 5.8236386e-05
0001c0 c5 6f a2 3c c0 b3 a8 3d 85 db 90 bd ce b8 5a bc
       0.019828686 0.082374096 -0.0707312 -0.013349725
0001d0 60 67 7c 3d 75 4d 94 bc 2e 3b 14 bd 2d 2b 59 3d
       0.061622024 -0.01810334 -0.03618925 0.05301969
0001e0 83 1b 62 3d 74 cb 17 3e 1b c1 31 bd 21 c0 ff bd
       0.05520202 0.14823705 -0.04339705 -0.124878176
0001f0 88 d5 51 bc 21 0c 2b 3d 1d 62 f8 3d 73 f4 10 bb
       -0.0128072575 0.041759614 0.121280886 -0.002211836
000200 19 3d 5d 3d 98 b9 23 bd cb 49 f8 bd ac 53 0e be
       0.054013345 -0.039971918 -0.1212345 -0.13899106
000210 32 38 4f 3d 5d 45 88 bd 4b 27 99 3d ef 96 d1 bc
       0.0505907 -0.06653855 0.07478198 -0.025584666
000220 a5 e1 2d bd 9c 18 ac 3d a7 74 c5 bd e4 94 28 3e
       -0.04245152 0.08403131 -0.0964139 0.16463047
000230 5e 4d d0 bc 14 ad 9b bd 4a 70 e9 bc 3a 36 c2 3d
       -0.025427517 -0.076013714 -0.028495926 0.09482999
000240 4c 60 68 bc 6e 98 f8 bd 93 78 78 3d b8 ee 06 3d
       -0.014183115 -0.12138449 0.060661864 0.032942504
000250 0c 12 1c be 1a 8b 01 3d 52 ea 8f 3d 2d 7d ad bc
       -0.1524126 0.0316268 0.07027115 -0.021177853
000260 7e e4 f2 bc e9 17 12 be c4 e9 e4 bc 6b 9e a5 3d
       -0.02964997 -0.14266934 -0.0279435 0.080868565
000270 66 fb f8 bc 76 d7 8b bd 83 76 51 bd d2 86 c5 3d
       -0.030393314 -0.06828205 -0.051138412 0.096448556
000280 8d d1 6f 37 29 ad ca 36 d6 c3 8a b6 40 37 a6 36
       1.42943e-05 6.0402276e-06 -4.135519e-06 4.9536175e-06
000290 10 ff 6b 35 b8 83 65 b6 1f 78 35 b7 61 f5 2b b8
       8.7915487e-07 -3.420033e-06 -1.0816409e-05 -4.0998104e-05
0002a0 3e 75 7e 38 be 4b 74 37 89 ae 3a b8 4f 50 e7 b6
       6.066751e-05 1.4561168e-05 -4.4508404e-05 -6.8936856e-06
0002b0 22 70 cf 35 51 ce 95 b7 eb 13 80 37 24 60 fb b5
       1.5455337e-06 -1.7858258e-05 1.5268064e-05 -1.8728938e-06
0002c0 4c 4f 65 3e 2f a0 0e 3e b6 40 a5 bd da 97 c7 3b
       0.2239353 0.13928293 -0.08068983 0.0060911
0002d0 7a c3 3b be e5 f3 22 3e a3 d8 56 3e d2 a2 17 3c
       -0.18336287 0.15913351 0.20981078 0.009255128
0002e0 63 a7 79 3d d2 38 aa bd 01 14 7a bc b4 d7 a9 3d
       0.060950648 -0.08311619 -0.015263558 0.08293095
0002f0 29 62 98 3d be b7 c2 3c b0 3e bd bd 3f f6 cc 3c
       0.074405976 0.023769256 -0.09240472 0.025019763
000300 48 9f 17 af 94 a5 18 ab ae 2d 04 2e 6c b9 b3 2c
       -1.3789958e-10 -5.4231034e-13 3.0053897e-11 5.108072e-12
000310 6a af d2 29 0f a7 2d 30 f2 10 5c 2f b5 57 05 af
       9.356303e-14 6.317444e-10 2.0014904e-10 -1.212744e-10
000320 75 14 af 2e 0a 3f 5e ae 5d 0a 11 af ef 77 cd af
       7.9617125e-11 -5.0532946e-11 -1.3191355e-10 -3.73745e-10
000330 35 04 2b ad 65 9b 0f ae 6d 75 04 2f 4b 81 54 ac
       -9.721159e-12 -3.2652454e-11 1.2047048e-10 -3.0198784e-12
000340 2e eb 0e bd 67 c3 70 bc 8a a7 e5 bd 6b fa f4 3c
       -0.034892254 -0.014695025 -0.11213596 0.029904565
000350 11 73 b3 bd c0 bb eb bd d0 94 37 bd 13 1e 37 3d
       -0.087621816 -0.1151042 -0.044819653 0.044706415
000360 7b fc 91 bd a9 ce 3a 3d e0 9f 40 3d a1 e4 9f bd
       -0.07128235 0.045607243 0.04702747 -0.078072794
000370 ad d0 cb 3c 9a 42 54 bd 07 2c 64 bd 77 78 a6 bc
       0.024879778 -0.05182133 -0.05570605 -0.020321114
000380 8d 61 39 3d 71 26 f4 3b b0 c2 a2 3c 81 06 1c bc
       0.045259047 0.0074508716 0.019868225 -0.009523035
000390 ba b2 96 bd 3e 19 10 bc 9d f4 2b bd 95 3c b1 39
       -0.07358308 -0.008795081 -0.04198133 0.00033805208
0003a0 99 1c 40 bd 54 cd ba 3c d5 82 d2 bb 4b 9f 9d 3b
       -0.046902273 0.022802986 -0.006424288 0.004810249
0003b0 39 a4 cf bb 3f a6 af bd ca 22 d4 3c 1e 37 d7 bc
       -0.0063367155 -0.08576631 0.025895495 -0.0262714
0003c0 77 de 82 3d fb dd e8 bb f4 44 86 3d 7e 02 9f 3c
       0.06390088 -0.0071065403 0.065561205 0.019410368
0003d0 1b c6 86 3b ec 67 c2 bc ff b9 58 bc 6a b0 da bc
       0.0041129715 -0.023731194 -0.013227939 -0.026695449
0003e0 35 7d 46 3c 52 f6 73 3c ab 02 9a 3d 5d 7a 90 bd
       0.012114813 0.01489027 0.0752004 -0.07054589
0003f0 0e e8 c9 3c 49 07 e9 3c a0 e3 3f bc b0 45 df bc
       0.024646785 0.028445857 -0.011711985 -0.02725491

fuse_attr_58 f4 [24, 1, 1, 72]
000000 aa d1 84 36 4b 72 ba bd 70 ea c2 3d ea 74 48 3e
       3.9583147e-06 -0.09103831 0.09517372 0.19575849
000010 ef 0a cb 3d fc fe a5 ba 3e 66 a7 be ea 8f 30 3e
       0.09914195 -0.0012664492 -0.32695192 0.17242399
000020 47 e1 4c be 36 a2 0d bd 97 58 4c 38 d8 a0 eb bd
       -0.20007811 -0.034578525 4.8719896e-05 -0.11505288
000030 2f 0d b5 af 88 6b bc bc 94 d5 84 bd 96 f5 95 3d
       -3.2933076e-10 -0.023000494 -0.06486049 0.073222324
000040 9d 0f 51 bd 91 63 7c be 8e b9 87 3e 71 78 85 3e
       -0.05104028 -0.24647357 0.26508754 0.26068452
000050 23 04 85 be a9 c5 1c 3e e4 6a d2 be 6b 74 d7 be
       -0.2597972 0.15309776 -0.41097176 -0.42081007
000060 d2 56 35 3d c0 11 72 be 26 10 27 bf f0 b9 8d 3e
       0.04427225 -0.23639584 -0.65259016 0.27680922
000070 20 a9 74 3e 6e 33 15 3f 26 dd 8e 3e 25 b3 ff bd
       0.23892641 0.582816 0.27903098 -0.12485341
000080 65 f6 14 be 46 8d f2 3a d8 48 40 3d 32 9e 40 bd
       -0.14547117 0.0018505238 0.04694447 -0.047025867
000090 6b f6 bd 3e f8 25 b4 29 a7 e1 a8 bd f3 d3 bb be
       0.37102064 8.000192e-14 -0.08246165 -0.36685142
0000a0 64 9e a9 3e da 31 fc be f9 20 8b be 80 b2 5e 3e
       0.33128655 -0.49256784 -0.27173594 0.2174778
0000b0 3b 5d ce 3e 1e 5f 34 be 80 d6 0f 3d d4 11 55 3e
       0.40305504 -0.1761441 0.035116673 0.20807582
0000c0 7e 73 09 ba b7 a7 22 3e f3 98 9d be fd c7 8c 3b
       -0.0005243345 0.1588429 -0.30780753 0.0042963014
0000d0 d3 b7 24 be 0f ad a4 bd 31 3a ac 3e 5d 5f e8 3d
       -0.16085748 -0.08040821 0.33638147 0.11346314
0000e0 91 e6 02 be 7f 0b bf 3d 44 a9 42 be 12 a8 11 3e
       -0.12783267 0.093283646 -0.19009882 0.1422427
0000f0 fc ee 53 bd ce 5d 57 2d ed a3 71 3b 40 7d d7 bc
       -0.051741585 1.2242164e-11 0.003687139 -0.026304841
000100 61 da 85 bd aa 29 a0 3e 8a 40 9d 3e e8 b8 08 3e
       -0.06535793 0.31281787 0.30713302 0.13351786
000110 b0 5f 53 2e 36 b1 7a be a8 40 62 3d ef 0e 77 be
       4.8060833e-11 -0.24481663 0.055237442 -0.2412679
000120 06 f4 6d b9 d6 40 aa 3d 7d f2 0e 3e fc f8 8b be
       -0.00022692987 0.08313148 0.1395969 -0.27338398
000130 6b db 29 3e dc eb 69 3f de e6 98 be 7f b9 2b 3f
       0.16587608 0.9137552 -0.29863638 0.6707992
000140 68 3f 8f 3c 4d ec a4 3e c6 9c 70 3a 71 31 be 3e
       0.01748629 0.32211533 0.00091786345 0.37147096
000150 85 c3 4c 33 90 d0 9a 3d de 3f ff 3d 7d aa 85 bd
       4.7675275e-08 0.075593114 0.124633536 -0.06526659
000160 d1 16 91 bd 38 cb 3b be 8f 51 71 3d 3e d9 9d 3e
       -0.0708443 -0.1833924 0.05891567 0.30829805
000170 46 22 dc bc 7f 45 54 be b6 4c 16 3f da 6a 0b be
       -0.026871812 -0.20729636 0.587108 -0.1361498
000180 19 51 46 3e fd 98 81 be 28 37 f6 3e 8d 58 ec 3e
       0.19366874 -0.25312033 0.48088956 0.4616131
000190 c5 4a fd 3d b1 4f 86 3d a8 16 29 bd 3d 03 8e 3d
       0.12367777 0.06558169 -0.041281372 0.069342114
0001a0 71 45 db 3d 64 56 6f be 03 e4 28 3e b0 f0 b0 3d
       0.10706604 -0.23372799 0.1649323 0.086396575
0001b0 3f b5 22 3e d4 e4 0a 27 b8 a3 15 3e b5 c2 82 ba
       0.15889452 1.9275395e-15 0.14613235 -0.000997624
0001c0 70 18 b0 3e 37 94 d4 3d c3 49 05 3e 3e 26 c3 3e
       0.34393644 0.10379832 0.13016419 0.38115114
0001d0 ff 11 77 3e 2b a8 60 be 38 60 d5 bd a3 3f 06 3f
       0.24127959 -0.21939151 -0.10418743 0.5244085
0001e0 87 ff 25 3e a8 e8 a4 3d 8a 37 ab be 9e 38 4b bd
       0.16210757 0.08052188 -0.3344081 -0.04961454
0001f0 ad bc f4 be 59 50 6d bc 2e 31 a4 bd 20 56 56 3e
       -0.47800198 -0.014484488 -0.08017193 0.20931292
000200 fd f8 35 bd dc c6 d1 3d 00 c1 49 3d 5f 71 b4 3e
       -0.044426907 0.102430075 0.049256325 0.35242745
000210 92 b0 06 3e 6c c9 aa ae 78 62 8c 3d b1 95 fe bd
       0.13153294 -7.766485e-11 0.06854719 -0.12430895
000220 b6 81 96 be 87 a7 b6 3e 45 52 f0 3e d9 27 58 bd
       -0.29395837 0.35674688 0.46937767 -0.052772377
000230 f0 7a 89 36 bf 59 b8 3e 07 a6 36 be d7 94 11 3d
       4.09723e-06 0.3600597 -0.17836772 0.035542335
000240 03 27 45 b8 d5 4f 3e 3e eb c4 09 3f 34 01 84 be
       -4.7004793e-05 0.18585141 0.538161 -0.25782168
000250 0d a8 d8 bc 34 59 d2 be 15 eb 19 3e 9f be 58 be
       -0.02644732 -0.41083682 0.15031083 -0.21166466
000260 0c 72 63 be cf a4 f8 bc 8a 88 1a 3b 1c 6b 94 be
       -0.22211474 -0.030352024 0.0023579919 -0.28987968
000270 5e bf cb b3 9f 3f a1 3e 3b 1d 4c 3d 02 47 05 3d
       -9.4877336e-08 0.31493852 0.049832564 0.03253842
000280 e3 71 bf be aa e1 cb 3e 2f af c7 bd 18 ef 0c bc
       -0.37391576 0.39820606 -0.097502105 -0.008601926
000290 a5 ec 9f 3e 93 3d 54 be 11 75 46 bd 37 05 8e bc
       0.31235233 -0.20726614 -0.048451487 -0.017336471
0002a0 1a 20 45 be 38 57 4a bd 11 3d 53 be f7 01 70 bd
       -0.19250527 -0.049399585 -0.20628764 -0.058595624
0002b0 99 a4 62 bd d7 a6 a8 3d ea 8f 18 be fa 38 64 bc
       -0.055332754 0.08234947 -0.14898649 -0.0139296
0002c0 dd 05 8f 3e c3 47 a9 3d 61 4e 32 3f 98 41 31 be
       0.2793416 0.082656406 0.69650847 -0.17310178
0002d0 86 e6 b4 bc ed e6 3a a8 65 05 af bd ed e0 c9 3d
       -0.022082578 -1.0375148e-14 -0.08545951 0.09857354
0002e0 9c 7d 3f 3e de c4 5a 3f 46 f4 6e 3d 45 26 21 3f
       0.1870026 0.85456645 0.058338426 0.6294902
0002f0 f7 a7 03 3f 07 38 88 bd cb e5 31 be 34 91 83 3e
       0.5142817 -0.06651311 -0.17372815 0.2569672
000300 39 a4 82 3e 4d 2f d5 be 59 1d e4 bd ac 75 87 bd
       0.25515917 -0.4163765 -0.1113841 -0.06614241
000310 a6 ca 9d be 30 01 19 3e 3b 18 64 be 49 5f 51 3d
       -0.3081867 0.14941859 -0.22274868 0.05111626
000320 f4 80 43 3e a1 6f 46 be 21 46 d2 3c 73 ee 21 3e
       0.1909216 -0.1937852 0.025668206 0.15813617
000330 f5 e1 2e 3e f3 f3 0a 2e 75 93 fd be da 82 68 3e
       0.17078383 3.1594238e-11 -0.49526563 0.22706166
000340 80 b3 97 3e 75 26 a6 bd c2 61 cc 3e 13 d8 f6 bd
       0.29629135 -0.08112804 0.39918333 -0.12052932
000350 9d b4 66 32 56 b6 d4 bc aa 54 80 3d 14 dd 60 bc
       1.3428829e-08 -0.02596585 0.062661484 -0.013724584
000360 27 48 9b b7 59 c6 0d 3e 9e 71 9c bd 0f 3d c2 bd
       -1.8511038e-05 0.13845195 -0.07638858 -0.09484302
000370 19 e1 d3 bd aa a1 6a be c4 14 51 be 5a ef 88 be
       -0.10345668 -0.22913232 -0.20418078 -0.2674511
000380 bd 1b 61 be 7d 57 73 3e 31 90 3f 3a 0c d8 73 be
       -0.21983238 0.23763843 0.0007307558 -0.23812884
000390 35 e4 1f b1 b5 99 a0 bc ce 48 2b 3e 0b d6 9b bc
       -2.3267266e-09 -0.019604543 0.16726992 -0.019022962
0003a0 f9 a9 91 be f3 8c 18 3e 91 0d da bd b9 7b d9 3e
       -0.2844999 0.14897518 -0.10647119 0.42477205
0003b0 e0 83 0c 3f d6 05 60 3e 8e 5c 49 3e e9 4f 34 bf
       0.54888725 0.21877226 0.19664213 -0.70434433
0003c0 82 a6 1b bc bf bb 09 bf 15 78 8c 3e 40 e2 dc 3c
       -0.009500148 -0.538021 0.27435365 0.026963353
0003d0 b1 8a 28 3d c8 a2 43 3d 32 3d 2a bf 00 5d e3 bd
       0.04114789 0.047762662 -0.66499627 -0.11101723
0003e0 61 ce 1c 3d 9d c4 fd be 5f 23 94 be 6b 83 02 3e
       0.038282756 -0.49564067 -0.28933236 0.12745444
0003f0 d2 e7 35 3e c0 8b 3f 2a 5c 5d 64 bd ce d6 7c 3e
       0.17764214 1.7012693e-13 -0.055753097 0.24691316

fuse_attr_59 f4 [88, 1, 1, 24]
000000 93 a6 8e 3c f9 21 36 be 8e 5c a6 3d 71 bc 7d bd
       0.017413413 -0.17786397 0.08123122 -0.06194729
000010 f1 d3 85 3c 8a 62 aa 3c f1 af 4c bb ad cc 23 3e
       0.016336413 0.02079894 -0.00312328 0.15996046
000020 01 37 e9 3c 08 dd 8d 3d e4 4a 0b bd 7b e8 05 be
       0.02846861 0.06926924 -0.03400697 -0.13076966
000030 1a 07 e3 bd ec 12 e8 3c 5b 82 62 3d 68 9b c8 3d
       -0.11085339 0.028329335 0.055300098 0.097952664
000040 a6 10 a2 3c b5 fa c8 3d 67 d4 ac 3d 6c dc c0 3d
       0.01978333 0.098134436 0.0843895 0.09417042
000050 5f e2 b8 bd 73 93 fc 3d ed ec 53 3c 3b e9 03 bd
       -0.09027552 0.12332811 0.0129349055 -0.032204848
000060 b5 ed ab bc 8e 17 19 bd 73 52 06 bd d4 c5 36 bd
       -0.020987371 -0.03737598 -0.032793473 -0.044622257
000070 63 7f bf bd cc c8 b8 bc bd 2a 82 bc 21 2f 0f bd
       -0.09350469 -0.022556685 -0.01588952 -0.034957055
000080 3d 87 ec bd 65 cf 5e 3d ae 72 c9 3d 84 1c 3f 3e
       -0.11549232 0.054397006 0.098363265 0.18663222
000090 95 b5 cb 3c 14 65 9c bd 6f d1 29 bc 93 57 1b be
       0.024866858 -0.076364666 -0.010364874 -0.15170126
0000a0 bf 9b 5b 3d ab c3 95 bd c7 31 a3 bb c4 8d ab 3c
       0.053615328 -0.07312711 -0.004980299 0.020941623
0000b0 8a bd c2 3d 2a 69 10 ba d9 3c f3 3d 6a b7 55 be
       0.09508808 -0.0005508835 0.1187684 -0.20870748
0000c0 78 7f 56 bd ee 69 94 bc 2a 5f b8 3d ad 26 cb 3c
       -0.052367657 -0.018116917 0.09002526 0.024798715
0000d0 98 90 d5 bc 68 dd cb bd 9d 68 88 3d ba 63 0e be
       -0.026069924 -0.09954339 0.066605784 -0.1390523
0000e0 77 9b c5 3d b9 36 95 3d 02 26 22 3d 0a c1 90 3d
       0.09648793 0.07285828 0.03958703 0.07068069
0000f0 b5 a0 54 bc b1 7b 96 bc 12 2e ab 3d bf 09 1a bc
       -0.012977769 -0.018369528 0.083583966 -0.009401738
000100 53 d7 ac 3d 68 af 86 bd e4 99 6a 3b d7 ab de bc
       0.08439507 -0.06576425 0.0035797292 -0.027181549
000110 95 de aa 3c bf e7 41 bd a4 7e 3c 3d 94 bf 0a bc
       0.020858089 -0.04734015 0.04601921 -0.008468527
000120 07 00 00 00 ca 00 00 80 00 00 00 80 16 00 00 00
       1e-44 -2.83e-43 -0.0 3.1e-44
000130 00 00 00 80 00 00 00 80 57 00 00 80 00 00 00 80
       -0.0 -0.0 -1.22e-43 -0.0
000140 02 00 00 80 07 00 00 80 f7 00 00 80 00 00 00 00
       -3e-45 -1e-44 -3.46e-43 0.0
000150 00 00 00 00 2b 00 00 00 c4 00 00 00 01 00 00 00
       0.0 6e-44 2.75e-43 1e-45
000160 01 00 00 00 00 00 00 80 4a 01 00 00 03 6c 00 00
       1e-45 -0.0 4.62e-43 3.8747e-41
000170 9f 02 00 00 00 00 00 00 78 19 00 00 00 00 00 00
       9.4e-43 0.0 9.136e-42 0.0
000180 bf cf 3e 3d 5f 40 84 bd f0 5b 08 3d cb b4 d1 bc
       0.04658484 -0.0645759 0.033290803 -0.025598904
000190 29 34 9a 3d ff 12 13 bc ba 00 bf 3c 9d d1 d3 3c
       0.0752948 -0.008976697 0.023315776 0.025856787
0001a0 20 c2 01 bd 57 cf 4b bd 84 72 01 bd 85 d9 e8 bc
       -0.031679273 -0.04975828 -0.03160335 -0.028424034
0001b0 4a f3 b3 bd 22 87 9e 3c f4 32 a0 3b d3 62 0c 3d
       -0.08786638 0.019351546 0.0048888866 0.034273934
0001c0 8c 5b 45 bd bc 99 df bc f1 db 2b bd 20 13 5b bd
       -0.04818301 -0.027294986 -0.0419578 -0.053485036
0001d0 37 fe 0c 3e d8 9d ce 3c 09 3c 5d 3c b9 eb 04 be
       0.1376885 0.02522175 0.013503083 -0.12980546
0001e0 f7 c8 b3 bb 13 d4 de bc 2f 10 a5 bd 82 fc 13 3d
       -0.0054866034 -0.027200734 -0.080597274 0.036129482
0001f0 a7 f9 53 3c 68 07 2a 3e 3e 2c 5e bd 6c 6f 7f bc
       0.01293794 0.16604388 -0.05424141 -0.01559053
000200 8d 41 20 bd 11 ae f6 bc c2 99 1a 3d 7e ae d2 bd
       -0.039125014 -0.030112298 0.03774429 -0.10287188
000210 3f 25 a8 bd 63 02 e1 bd bb 35 94 3a 45 60 46 3b
       -0.08210229 -0.10986783 0.0011307517 0.0030269783
000220 cd 52 10 3c 57 66 8b 3d 17 ed c5 3c df d2 0f bb
       0.008808804 0.06806629 0.024160905 -0.0021945757
000230 c8 09 d9 3b 5e 47 2f 3c e6 0c 38 bc 84 31 29 bd
       0.0066234805 0.010698168 -0.011233544 -0.041306987
000240 fe 5b bf 3a 91 ce b2 3a a3 ca a0 b9 d5 a5 f0 b9
       0.0014599559 0.0013641884 -0.00030668554 -0.00045899922
000250 5a 60 ae b9 49 32 ee 38 6f db 4b ba 66 2a 8e b8
       -0.00033259654 0.00011358091 -0.00077765336 -6.778985e-05
000260 da 15 52 3a 97 b5 ec b8 e7 93 51 bb 39 f9 9e b8
       0.00080141204 -0.00011287181 -0.0031979026 -7.5804484e-05
000270 f4 ec cc 39 52 13 dc 39 2c bf 13 ba ec e6 0a 3a
       0.00039086456 0.00041976065 -0.0005636092 0.0005298692
000280 c1 ac cc b7 68 3b 38 39 f2 d0 3e 39 29 16 28 37
       -2.439914e-05 0.00017569738 0.0001819765 1.001874e-05
000290 ff 66 67 ba 91 fe 3a 38 17 1d c3 b9 22 62 b0 39
       -0.00088272983 4.458294e-05 -0.00037214972 0.0003364245
0002a0 ad 78 60 be 76 28 2b 3e 14 67 54 3c 79 07 53 bd
       -0.21921034 0.16714653 0.012964029 -0.0515208
0002b0 95 a5 41 bc f9 d6 35 3d 6d db db 3d 2a 13 6c bc
       -0.011819263 0.044394467 0.107352115 -0.014408866
0002c0 8d 3d 31 be af 45 b0 3d de 4c 95 bd 7b d0 61 bd
       -0.17308636 0.08607041 -0.07290052 -0.055130463
0002d0 09 80 0f be a1 bf ef 3d 87 74 96 3c ba 44 62 bd
       -0.14013685 0.11706472 0.018366111 -0.055241324
0002e0 f6 7a 9e bc f8 ab 8d 3d af 5c 27 3d 7d a8 86 3c
       -0.019345742 0.06917566 0.040859874 0.016437763
0002f0 6c 2f 49 bd 2a 9e 8a bd 34 b8 6f bc 70 9a 96 bd
       -0.04911749 -0.06768449 -0.01463132 -0.07353675
000300 df 99 30 bd 1b bd 6b 3d 8f c2 d0 3c 9f c7 6f ba
       -0.043115493 0.057553392 0.025483398 -0.00091468723
000310 4f 8a 4d bd 50 36 15 bc 53 6e e7 bc 02 18 14 3d
       -0.05018073 -0.009107187 -0.028250849 0.036155708
000320 a1 2d 18 bd 14 45 67 3d 0b da ee 3c 23 7b 97 bb
       -0.03715289 0.056462362 0.029156705 -0.0046228333
000330 f0 b9 b3 bc ba f7 8f 3d 77 41 a9 3c e5 13 aa bd
       -0.021939248 0.07029672 0.020661099 -0.08304576
000340 3f bf a5 bc 31 18 4f bd d6 f2 87 bc b1 d5 88 bb
       -0.020232795 -0.05056018 -0.016595285 -0.0041758646
000350 aa 92 87 bd be 42 b6 bd e3 15 53 3d 1c a4 81 3c
       -0.06619771 -0.08899449 0.051534545 0.015825324
000360 a9 b4 72 3d f1 99 18 3e 75 cf 7d bc 3f b2 a3 bc
       0.059254322 0.14902474 -0.015491356 -0.019982455
000370 54 0e 64 3d 82 e5 17 3d c0 e5 41 3d df 60 ea 3d
       0.055677727 0.03708411 0.047338247 0.11444258
000380 70 0a 90 bd a9 e5 8b bd 30 07 a3 bb 94 16 b9 3d
       -0.07033241 -0.068309136 -0.004975222 0.090375096
000390 41 13 ef 3c 36 78 e0 3d cb 75 1f bc 25 ae 04 3e
       0.029183986 0.109604284 -0.009732674 0.12957056
0003a0 22 5b 98 3d 41 dd ca bb 2a c5 04 3d ba 65 65 bd
       0.07439257 -0.0061909263 0.032414593 -0.056005217
0003b0 73 c4 07 3d 05 80 b4 bd 7e 65 5d bd 14 07 cb 3b
       0.033146333 -0.0881348 -0.05405187 0.006195912
0003c0 a1 7f b2 3d ba 45 c0 3d 4c ba cb 3c 3d 06 26 be
       0.087157495 0.09388299 0.024869107 -0.16213317
0003d0 21 d1 49 3d aa d7 f7 3d 03 86 9d 3c d0 26 a1 bd
       0.049271706 0.121016815 0.01922894 -0.07868731
0003e0 66 b9 9c 3d 51 69 6a bb c8 af 98 3c ae 56 39 bd
       0.076525494 -0.003576834 0.018638507 -0.04524868
0003f0 92 90 b2 bd bd 85 8f 3d 5b f5 28 3d 5e 59 0a 3d
       -0.08718981 0.070079304 0.041249614 0.033776633

fuse_attr_19 f4 [88]
000000 c9 9d b3 bc 98 f2 c9 bc 3c 7a a1 bd e8 74 f6 93
       -0.021925824 -0.02465181 -0.078846425 -6.221441e-27
000010 e2 64 e1 bd e0 ed f3 bb f4 9f f1 bb 03 f7 3c bd
       -0.1100557 -0.0074441284 -0.007373804 -0.046134006
000020 f8 d5 5c bb c1 d7 10 be 9c 43 08 bc 4b fa 25 3e
       -0.0033696871 -0.14144804 -0.008316901 0.1620876
000030 34 94 56 3d 53 b4 5b 3e 1c ab 4b bc d8 71 fb ba
       0.05238743 0.21455507 -0.012430932 -0.0019183708
000040 1c 18 3f bd 40 43 65 3e 0e 1b c2 bd 46 a6 8a 3d
       -0.046653852 0.22388935 -0.094778165 0.067699954
000050 68 09 4e bc 9f 13 3b 3e 1b 7b a0 3e 64 63 e4 3b
       -0.012575485 0.18269204 0.31343922 0.006969856
000060 c0 c3 5e 9c 6c 21 ab be f3 2d 31 b3 48 17 8f 3d
       -7.370664e-22 -0.33423936 -4.1252814e-08 0.069868624
000070 8b e4 f6 33 55 50 e1 3a f6 fc 12 be 89 13 87 bc
       1.14968394e-07 0.0017190079 -0.1435431 -0.016488807
000080 21 f0 17 3b 88 be 69 3d 98 fd 22 3d 52 16 26 3b
       0.00231839 0.05706647 0.039792627 0.0025342894
000090 6d 25 ec 3d e7 57 17 38 69 31 76 bd f2 d8 8f 3c
       0.11530576 3.608307e-05 -0.060105715 0.017559502
0000a0 0c 67 3b be 84 87 7f 3d 2a bd 21 3d f8 43 f4 bd
       -0.18301028 0.062385097 0.03948704 -0.119270265
0000b0 05 f0 89 bd 0b 5b e3 ba 8c 9c 82 bd 7b 2f 31 be
       -0.06735233 -0.0017345859 -0.06377515 -0.17303269
0000c0 50 46 90 3b a8 44 aa b8 b9 5e da 35 c6 da 1d 3e
       0.004402913 -8.11902e-05 1.6269834e-06 0.15415487
0000d0 07 84 c4 3a 7b e5 05 35 73 86 0a bd fa 4d 1f b4
       0.001499296 4.98803e-07 -0.033819627 -1.4836397e-07
0000e0 88 bc 6f 3d 73 f3 c4 bd 66 09 73 bb 8e 6b 63 3d
       0.058529407 -0.09616747 -0.003708446 0.055522494
0000f0 f8 11 12 32 13 eb cb bd d1 27 08 ad 1e 8c c6 8d
       8.502404e-09 -0.09956946 -7.739546e-12 -1.2236424e-30
000100 3f ee 3c bd b0 ca 27 38 8e 0e 38 3c 2a 35 e0 2f
       -0.046125647 4.000467e-05 0.011233939 4.0783138e-10
000110 4b b8 26 37 0b e0 2d 3b c6 82 06 3d e3 f7 fa 3b
       9.93728e-06 0.0026531245 0.03283956 0.007658945
000120 ad b0 07 3a ee 04 16 34 c0 17 a9 be 50 50 f0 a0
       0.0005176168 1.3971632e-07 -0.33025932 -4.0710728e-19
000130 b1 77 a4 39 cf 96 0a bd 0f 13 17 ad 1e df 2a 3d
       0.00031369695 -0.03383523 -8.587588e-12 0.041716687
000140 aa 1f f4 bd 0b 53 f1 39 c3 8d 42 32 89 54 57 b6
       -0.11920102 0.00046028974 1.1324519e-08 -3.2086703e-06
000150 b3 80 1a be f2 de 74 37 4b 37 f7 33 ed 1d 80 39
       -0.15088157 1.4595442e-05 1.15118915e-07 0.0002443636

fuse_attr_13 f4 [72]
000000 06 06 71 3a 56 31 90 3e 8c d4 87 3d 40 4d f1 bd
       0.0009194318 0.2816264 0.06632337 -0.117823124
000010 e4 79 16 3e c0 13 66 3a 03 46 f3 3c 84 67 fd be
       0.14694935 0.00087767467 0.02969647 -0.4949304
000020 23 cf cf 3d 14 ac 5f 3e fd bd 8f 3a a8 9c a8 3e
       0.1014693 0.21842986 0.0010966655 0.3293202
000030 42 19 ff 38 2e fd 0c 3e a7 6f 23 3e 5b b0 70 3d
       0.00012164052 0.13768455 0.1596056 0.058761936
000040 ae cf 7e 3e 4b c2 b7 be 02 3c 84 bd f0 fc 85 3d
       0.24883911 -0.3589042 -0.06456758 0.065423846
000050 98 bf 5a be b0 4e fe bd 26 65 9e be 0c b0 a4 be
       -0.2136215 -0.12417352 -0.30936545 -0.32165563
000060 69 50 cd 3d 40 6e e2 bd 2b 4f a4 bd 4c 97 3d be
       0.10025103 -0.11056185 -0.080229126 -0.18514746
000070 4d 55 be 3c b0 54 dd bc e4 03 11 be d0 18 11 ba
       0.023234034 -0.027017921 -0.1416164 -0.00055350084
000080 6b 83 23 be 0d 73 9d bd d1 56 92 be 00 0d 3b 3e
       -0.159681 -0.0768796 -0.2858186 0.18266678
000090 66 59 d6 bd f8 12 fe 32 c6 af 81 be 38 cf 7b 3c
       -0.1046627 2.9578118e-08 -0.25329417 0.015369229
0000a0 34 52 3c be 6b b6 4f be fe e1 a0 3c a7 99 5d be
       -0.18390733 -0.2028443 0.019639011 -0.21640645
0000b0 c2 cf b8 3d cd 63 4d 3e 16 e5 fb 3d 3a c1 33 3c
       0.09024002 0.20057602 0.12299554 0.010971362
0000c0 04 f2 87 bd 88 02 de 3c ae d9 38 be ee 20 88 3d
       -0.06637958 0.027100816 -0.18051788 0.06646906
0000d0 93 6b 8b 3e 08 10 43 3d 54 7e b3 bd ec db 65 3c
       0.2723051 0.04762271 -0.087643296 0.014029484
0000e0 9c aa 16 3e 04 8a ad bc 9a 0f 83 bd 9d 46 99 bc
       0.1471352 -0.021183975 -0.0639946 -0.018710429
0000f0 a0 ee d1 bd ab a6 75 37 bb 01 62 be 29 0f 4a bd
       -0.10250592 1.4641943e-05 -0.22070973 -0.049330864
000100 05 f8 45 3e f5 ad 6c be 6f 93 ba 3c 64 27 83 3e
       0.19332893 -0.23113234 0.02277538 0.2561599
000110 84 d8 53 ba e9 69 d8 3c ce 9f 01 3e ae f5 f9 bd
       -0.00080812746 0.02641769 0.12658617 -0.12205063

fuse_attr_21 f4 [24]
000000 42 58 3e 3d 24 05 91 3e 72 55 d9 bd 7b e1 06 3d
       0.046470888 0.28324234 -0.106120005 0.03292988
000010 45 fb 16 3d b9 32 85 be bd da 9d 3e f4 3d dc bc
       0.036860723 -0.2601526 0.30830947 -0.02688501
000020 03 1e 06 bf 17 3e d4 bc 15 2a ee 3a a0 64 3c 3d
       -0.52389544 -0.025908513 0.00181705 0.0459944
000030 b6 02 81 be 72 86 27 3c 95 15 86 3d 33 f5 db bd
       -0.2519738 0.010224925 0.06547085 -0.107401274
000040 5f 27 93 bd c0 f2 92 bd b7 39 8e 3d ff 66 4b 3e
       -0.07185244 -0.07175207 0.06944602 0.19863509
000050 77 ea 1c be b2 b5 01 3c 49 e8 b8 b5 cf 8c a3 be
       -0.15323816 0.007916855 -1.3776672e-06 -0.31943366
