model_zoo/pfld_meter.tflite (tflite, 240504 bytes, 44 tensors)

model/model_parser/tf_base_conv2d/sequential/conv2d/Conv2D i1 [32, 3, 3, 3]
00000000: 29d6 57ec 543a 66c0 2454 e26c a405 6e45
00000010: 28ec f8e0 05ee 4681 a809 0f4e de51 00f8
00000020: 0c01 6620 fc4f 8eb8 0604 f3bf e812 81fd
00000030: 0e90 ef06 1ce1 2337 fc3c c925 d2a8 bf81
00000040: 21a2 24bc 23e6 d0a5 ebb9 6244 490f 486e
00000050: 62e8 ad1f 499c b304 cc26 f930 e9e5 cfb5
00000060: f581 9904 2f97 d903 34ec 47f3 46ae 5719
00000070: 3bb4 27ff 0cf9 7175 fc9d ad81 49d2 333c
00000080: 651a 028b c290 1466 ce31 51c8 819c 462c
00000090: 26f1 4d2d df26 b46b 9341 391a b7e9 4592
000000a0: c9cc 149f c374 583d dc31 64b0 e8b6 78a4
000000b0: 2de2 057f 99ed ff60 f79d 7a18 547b fb23
000000c0: e0e8 5703 a36a 0620 7f5a 00cc 2941 2cb4
000000d0: 5be0 de5c 0518 875d dbdf 08b0 44a0 851b
000000e0: 5594 11c8 cac6 a761 7251 3923 677f 9de7
000000f0: 4b59 31e4 bde8 27cf 1a61 cc08 8810 9456
41 -42 87 -20 84 58 102 -64
36 84 -30 108 -92 5 110 69
40 -20 -8 -32 5 -18 70 -127
-88 9 15 78 -34 81 0 -8
12 1 102 32 -4 79 -114 -72
6 4 -13 -65 -24 18 -127 -3
14 -112 -17 6 28 -31 35 55
-4 60 -55 37 -46 -88 -65 -127
33 -94 36 -68 35 -26 -48 -91
-21 -71 98 68 73 15 72 110
98 -24 -83 31 73 -100 -77 4
-52 38 -7 48 -23 -27 -49 -75
-11 -127 -103 4 47 -105 -39 3
52 -20 71 -13 70 -82 87 25
59 -76 39 -1 12 -7 113 117
-4 -99 -83 -127 73 -46 51 60
101 26 2 -117 -62 -112 20 102
-50 49 81 -56 -127 -100 70 44
38 -15 77 45 -33 38 -76 107
-109 65 57 26 -73 -23 69 -110
-55 -52 20 -97 -61 116 88 61
-36 49 100 -80 -24 -74 120 -92
45 -30 5 127 -103 -19 -1 96
-9 -99 122 24 84 123 -5 35
-32 -24 87 3 -93 106 6 32
127 90 0 -52 41 65 44 -76
91 -32 -34 92 5 24 -121 93
-37 -33 8 -80 68 -96 -123 27
85 -108 17 -56 -54 -58 -89 97
114 81 57 35 103 127 -99 -25
75 89 49 -28 -67 -24 39 -49
26 97 -52 8 -120 16 -108 86

model/model_parser/tfbn_1/batch_normalization_1/FusedBatchNormV3;model/model_parser/tf_base_conv2d_1/depthwise_conv2d/depthwise;model/model_parser/tf_base_conv2d_42/sequential_4/conv2d_28/Conv2D i1 [1, 3, 3, 32]
00000000: 83f1 1f96 a09d 2851 620c c141 efd8 dcda
00000010: ef7f 65e7 f344 57d3 671c c413 1ac9 c2ec
00000020: 3a66 6652 8181 d416 a635 e8fe fb7b db56
00000030: 7fef 1616 bb44 9d8f 17ec aa13 0ba7 c4c7
00000040: 9d0e ed7f c4a5 557f d0fe 8161 3181 dc4b
00000050: 5456 4e3b 06b5 fa74 b050 e129 750e 51ef
00000060: 0b4d a9ce 9500 67de c381 fdc3 0697 6f7f
00000070: e02a 25c7 1f0b 817f 0e81 c491 ea49 30a5
00000080: fa21 93aa b445 0931 406f c881 5a52 0d91
00000090: d7ad 815e ad32 2eac 553e fe81 911f 463f
000000a0: d97f ac93 1348 d9c6 357b 8569 4b86 7fa0
000000b0: e1b4 b0cc 3581 9eb7 0fab 8c00 814c 1baf
000000c0: ced3 8123 4c9f fddc 8127 c9b0 f8f0 6943
000000d0: 14c9 3b5f c033 40f5 8130 e720 0f21 9154
000000e0: 7f17 d695 ed8b bec2 b2f9 3008 7622 6e9e
000000f0: 890b ffd2 fc3a 9cb6 e256 81a1 6c7f 7f7f
-125 -15 31 -106 -96 -99 40 81
98 12 -63 65 -17 -40 -36 -38
-17 127 101 -25 -13 68 87 -45
103 28 -60 19 26 -55 -62 -20
58 102 102 82 -127 -127 -44 22
-90 53 -24 -2 -5 123 -37 86
127 -17 22 22 -69 68 -99 -113
23 -20 -86 19 11 -89 -60 -57
-99 14 -19 127 -60 -91 85 127
-48 -2 -127 97 49 -127 -36 75
84 86 78 59 6 -75 -6 116
-80 80 -31 41 117 14 81 -17
11 77 -87 -50 -107 0 103 -34
-61 -127 -3 -61 6 -105 111 127
-32 42 37 -57 31 11 -127 127
14 -127 -60 -111 -22 73 48 -91
-6 33 -109 -86 -76 69 9 49
64 111 -56 -127 90 82 13 -111
-41 -83 -127 94 -83 50 46 -84
85 62 -2 -127 -111 31 70 63
-39 127 -84 -109 19 72 -39 -58
53 123 -123 105 75 -122 127 -96
-31 -76 -80 -52 53 -127 -98 -73
15 -85 -116 0 -127 76 27 -81
-50 -45 -127 35 76 -97 -3 -36
-127 39 -55 -80 -8 -16 105 67
20 -55 59 95 -64 51 64 -11
-127 48 -25 32 15 33 -111 84
127 23 -42 -107 -19 -117 -66 -62
-78 -7 48 8 118 34 110 -98
-119 11 -1 -46 -4 58 -100 -74
-30 86 -127 -95 108 127 127 127

model/model_parser/tf_base_conv2d_2/conv2d_1/Conv2D i1 [64, 1, 1, 32]
00000000: 64b7 ca67 09cc dd1b 08e0 ea5c 7fdf d1ee
00000010: 29cd 92b2 391e 1256 391d ad7f b3c2 9b6a
00000020: f2fb cc07 81ae 08c6 023f 08c9 4a15 ebf5
00000030: f100 f60f da32 fcdc 1613 c8b3 10e2 d40e
00000040: f743 6a49 e460 41c8 225f d50d fa26 d30f
00000050: 0eaa 1e1a fcba acd2 dde2 1b5b 32c8 7fdc
00000060: 1a2b c327 81ff d923 5dc1 32ca f8ce b306
00000070: 5ed3 3108 b1ff a530 1275 d3ad 5217 556c
00000080: eeb2 2394 f1b1 d6e9 f9a4 dc7f 2628 1a00
00000090: 5629 1cb3 d9f6 0845 b71d 54d4 13df 03bf
000000a0: aa47 17dc 2bdb 4f03 0905 ce20 8d56 08cc
000000b0: cde6 d25b 7f11 75d9 a92d 49de d65c f81f
000000c0: c27f a42b ba04 bd0b d51e 3630 181e bc18
000000d0: bd9f 1df1 e83c 3407 2fbe 44fe 6be6 479b
000000e0: adb1 2ed3 20a6 1f4a 7fa7 43b6 4eed f43b
000000f0: 57cc 31ec c1e0 3bcc ef06 3945 57fd e938
100 -73 -54 103 9 -52 -35 27
8 -32 -22 92 127 -33 -47 -18
41 -51 -110 -78 57 30 18 86
57 29 -83 127 -77 -62 -101 106
-14 -5 -52 7 -127 -82 8 -58
2 63 8 -55 74 21 -21 -11
-15 0 -10 15 -38 50 -4 -36
22 19 -56 -77 16 -30 -44 14
-9 67 106 73 -28 96 65 -56
34 95 -43 13 -6 38 -45 15
14 -86 30 26 -4 -70 -84 -46
-35 -30 27 91 50 -56 127 -36
26 43 -61 39 -127 -1 -39 35
93 -63 50 -54 -8 -50 -77 6
94 -45 49 8 -79 -1 -91 48
18 117 -45 -83 82 23 85 108
-18 -78 35 -108 -15 -79 -42 -23
-7 -92 -36 127 38 40 26 0
86 41 28 -77 -39 -10 8 69
-73 29 84 -44 19 -33 3 -65
-86 71 23 -36 43 -37 79 3
9 5 -50 32 -115 86 8 -52
-51 -26 -46 91 127 17 117 -39
-87 45 73 -34 -42 92 -8 31
-62 127 -92 43 -70 4 -67 11
-43 30 54 48 24 30 -68 24
-67 -97 29 -15 -24 60 52 7
47 -66 68 -2 107 -26 71 -101
-83 -79 46 -45 32 -90 31 74
127 -89 67 -74 78 -19 -12 59
87 -52 49 -20 -63 -32 59 -52
-17 6 57 69 87 -3 -23 56

model/model_parser/tfbn_3/batch_normalization_3/FusedBatchNormV3;model/model_parser/tf_base_conv2d_3/sequential_1/depthwise_conv2d_1/depthwise;model/model_parser/tf_base_conv2d_39/depthwise_conv2d_13/depthwise i1 [1, 3, 3, 64]
00000000: c34d dc1c d6d1 e913 cdb5 a839 81f7 c2a3
00000010: d715 9ec4 62af bcbc a9e2 d813 316f 5860
00000020: 4798 3ea2 3bbc 609d a77f d177 c457 1af0
00000030: 061e e5d5 90fa 0d6e 9f8c 7ffa 493b e0f6
00000040: fd7f 5b73 b27f f99b 4f45 bbed 96c2 7030
00000050: 5f97 0bc0 04b3 b081 de81 d8be 0d77 3574
00000060: 4094 c781 7083 e6f2 b9bf e7a2 f870 3cad
00000070: 12c9 b467 5146 3efc 7f21 6227 2c81 32f2
00000080: 7f3f cc19 fb21 00d8 b357 04e3 b281 bfe2
00000090: 79c7 b581 ee05 e2a4 3148 3d16 7cd2 2b4d
000000a0: dad0 9b49 afa0 815c 3d58 9b2e 3ecc f09a
000000b0: 6581 3099 662d 1d2a 4830 5900 37da 53ec
000000c0: 3c15 4669 7f64 c622 07a4 9355 98ee 973e
000000d0: 7ffd 8ac9 7f8e 9cd4 8109 7062 676d 7f47
000000e0: 5a7f e132 bad8 3bde 951c bba9 159d 7f91
000000f0: d58a 279d 4e17 f11e 0b6e 6b53 0554 8181
-61 77 -36 28 -42 -47 -23 19
-51 -75 -88 57 -127 -9 -62 -93
-41 21 -98 -60 98 -81 -68 -68
-87 -30 -40 19 49 111 88 96
71 -104 62 -94 59 -68 96 -99
-89 127 -47 119 -60 87 26 -16
6 30 -27 -43 -112 -6 13 110
-97 -116 127 -6 73 59 -32 -10
-3 127 91 115 -78 127 -7 -101
79 69 -69 -19 -106 -62 112 48
95 -105 11 -64 4 -77 -80 -127
-34 -127 -40 -66 13 119 53 116
64 -108 -57 -127 112 -125 -26 -14
-71 -65 -25 -94 -8 112 60 -83
18 -55 -76 103 81 70 62 -4
127 33 98 39 44 -127 50 -14
127 63 -52 25 -5 33 0 -40
-77 87 4 -29 -78 -127 -65 -30
121 -57 -75 -127 -18 5 -30 -92
49 72 61 22 124 -46 43 77
-38 -48 -101 73 -81 -96 -127 92
61 88 -101 46 62 -52 -16 -102
101 -127 48 -103 102 45 29 42
72 48 89 0 55 -38 83 -20
60 21 70 105 127 100 -58 34
7 -92 -109 85 -104 -18 -105 62
127 -3 -118 -55 127 -114 -100 -44
-127 9 112 98 103 109 127 71
90 127 -31 50 -70 -40 59 -34
-107 28 -69 -87 21 -99 127 -111
-43 -118 39 -99 78 23 -15 30
11 110 107 83 5 84 -127 -127

model/model_parser/tf_base_conv2d_4/conv2d_2/Conv2D i1 [16, 1, 1, 64]
00000000: d9dc fea7 c138 dd3b f100 7fbe 2b04 c7d2
00000010: 3a5a 340b c9a2 dee9 dde6 fc25 32d2 c161
00000020: ec06 cfdd e0df 09fc 22ee f924 db40 2d4f
00000030: 30cc 36ff 271c 0b28 f2d8 6aeb b5fc 05e8
00000040: e840 17c0 1e33 2418 17bf 5700 059e efb3
00000050: e000 7fd7 c0ca c013 14e9 dad3 dd0e 534b
00000060: 3cd1 fb33 eadc d1e6 f584 459e ca34 12c4
00000070: ef97 bda1 f50a f62e fad0 1806 3c18 cd5b
00000080: 2c8f 7738 37eb f94c df01 06ba 4b06 43d8
00000090: b13e cffb a3e7 660d d21d f221 18f2 2463
000000a0: d824 af5c f4a2 1809 d1ef e62b e149 8163
000000b0: fa0d e4a9 4556 fd35 a106 eb25 389b 2620
000000c0: 2e3c 0943 0881 a3a8 20f2 eae2 a533 3fd1
000000d0: 49cc b921 43fa 3309 e7f6 7147 13d4 b8fc
000000e0: 4b4d afca eb06 f125 3946 a226 282f 44e5
000000f0: 2e5d b8ba b530 3c16 4ce9 2bcf 0542 42b1
-39 -36 -2 -89 -63 56 -35 59
-15 0 127 -66 43 4 -57 -46
58 90 52 11 -55 -94 -34 -23
-35 -26 -4 37 50 -46 -63 97
-20 6 -49 -35 -32 -33 9 -4
34 -18 -7 36 -37 64 45 79
48 -52 54 -1 39 28 11 40
-14 -40 106 -21 -75 -4 5 -24
-24 64 23 -64 30 51 36 24
23 -65 87 0 5 -98 -17 -77
-32 0 127 -41 -64 -54 -64 19
20 -23 -38 -45 -35 14 83 75
60 -47 -5 51 -22 -36 -47 -26
-11 -124 69 -98 -54 52 18 -60
-17 -105 -67 -95 -11 10 -10 46
-6 -48 24 6 60 24 -51 91
44 -113 119 56 55 -21 -7 76
-33 1 6 -70 75 6 67 -40
-79 62 -49 -5 -93 -25 102 13
-46 29 -14 33 24 -14 36 99
-40 36 -81 92 -12 -94 24 9
-47 -17 -26 43 -31 73 -127 99
-6 13 -28 -87 69 86 -3 53
-95 6 -21 37 56 -101 38 32
46 60 9 67 8 -127 -93 -88
32 -14 -22 -30 -91 51 63 -47
73 -52 -71 33 67 -6 51 9
-25 -10 113 71 19 -44 -72 -4
75 77 -81 -54 -21 6 -15 37
57 70 -94 38 40 47 68 -27
46 93 -72 -70 -75 48 60 22
76 -23 43 -49 5 66 66 -79

model/model_parser/tf_base_conv2d_5/conv2d_3/Conv2D i1 [32, 1, 1, 16]
00000000: 19c3 4791 2ce1 81e5 c8d0 cf2a f902 9d3e
00000010: fb16 3981 1db1 c7a7 cab4 24d3 084e 21dd
00000020: c950 36b7 52a6 21cf 373b 6bce 42c4 1581
00000030: 58f4 a789 ae34 c0b8 31cb e3f2 fea0 4581
00000040: 89b1 104d 7d97 fc6a 0fc9 67fc d97f 255c
00000050: 264f 56ca cc55 8154 918c 528f df0d c184
00000060: 9c4e beb0 cfe2 cd89 e0d2 1081 69b9 bef1
00000070: 085d 2ed0 062e f1b3 1bf2 1e6e 0df9 811b
00000080: 923a d6dd bf13 de81 39e9 57f9 e7bf 0bb1
00000090: d3da 07b8 208d a87f df71 e803 cfe0 cf21
000000a0: 2d00 53d4 d85b 393f 6e9b 2876 523c 8108
000000b0: e163 3ca8 33ed 6525 ba16 e0e4 a0f0 813a
000000c0: 5529 bf5d 1240 c605 81c8 51fc 925c e461
000000d0: 81b5 02e2 32a0 23f5 ae53 cd1a caef dca8
000000e0: b254 d550 07dd fb13 4eb1 7f41 f225 353b
000000f0: e020 f6f8 2e5a 3bb0 203d 1b7f b040 2449
25 -61 71 -111 44 -31 -127 -27
-56 -48 -49 42 -7 2 -99 62
-5 22 57 -127 29 -79 -57 -89
-54 -76 36 -45 8 78 33 -35
-55 80 54 -73 82 -90 33 -49
55 59 107 -50 66 -60 21 -127
88 -12 -89 -119 -82 52 -64 -72
49 -53 -29 -14 -2 -96 69 -127
-119 -79 16 77 125 -105 -4 106
15 -55 103 -4 -39 127 37 92
38 79 86 -54 -52 85 -127 84
-111 -116 82 -113 -33 13 -63 -124
-100 78 -66 -80 -49 -30 -51 -119
-32 -46 16 -127 105 -71 -66 -15
8 93 46 -48 6 46 -15 -77
27 -14 30 110 13 -7 -127 27
-110 58 -42 -35 -65 19 -34 -127
57 -23 87 -7 -25 -65 11 -79
-45 -38 7 -72 32 -115 -88 127
-33 113 -24 3 -49 -32 -49 33
45 0 83 -44 -40 91 57 63
110 -101 40 118 82 60 -127 8
-31 99 60 -88 51 -19 101 37
-70 22 -32 -28 -96 -16 -127 58
85 41 -65 93 18 64 -58 5
-127 -56 81 -4 -110 92 -28 97
-127 -75 2 -30 50 -96 35 -11
-82 83 -51 26 -54 -17 -36 -88
-78 84 -43 80 7 -35 -5 19
78 -79 127 65 -14 37 53 59
-32 32 -10 -8 46 90 59 -80
32 61 27 127 -80 64 36 73

model/model_parser/tfbn_6/batch_normalization_6/FusedBatchNormV3;model/model_parser/tf_base_conv2d_6/depthwise_conv2d_2/depthwise;model/model_parser/tf_base_conv2d_42/sequential_4/conv2d_28/Conv2D i1 [1, 3, 3, 32]
00000000: 8db0 d2fa 97b4 9b2f fb4e 7ff4 d3e0 2781
00000010: 72b8 d567 7f3c 96be c47f 051b 00a7 9b41
00000020: dcc5 f744 a65a 8121 23a8 d6d2 a591 e330
00000030: 7350 df7a 56e4 7d3a cb79 446e a297 92aa
00000040: 469f 81ee 71ab 1d7f f581 efae b20a dc00
00000050: 6d7f 5d19 58a2 7fce 271f 5b2f 0bf7 c441
00000060: f1d5 a47f 2514 f206 39d4 d9dd cfa1 8257
00000070: e986 6d87 35bc fa65 4b55 5188 76f8 9ff8
00000080: 737f 32fc 707f 88ea 4b6c 39b9 ccb5 7f86
00000090: 47b8 4072 a881 6649 7bac d105 6e02 9f81
000000a0: c235 87de 7f38 7b27 8159 de12 cec3 ea0e
000000b0: e7d2 1c45 3d8b c1af 7fb0 f54d 7350 cc14
000000c0: 7f0f dfef b7b7 7de5 8b77 2bff ac97 8549
000000d0: 7fd8 6281 55d8 30fb e971 5621 c22a 7f85
000000e0: 313a 358d 82ca 5de0 5c4b ec7f 3ca7 6dc7
000000f0: 98ac 7fa6 1f71 569e bfff 7f7f 817f e6b3
-115 -80 -46 -6 -105 -76 -101 47
-5 78 127 -12 -45 -32 39 -127
114 -72 -43 103 127 60 -106 -66
-60 127 5 27 0 -89 -101 65
-36 -59 -9 68 -90 90 -127 33
35 -88 -42 -46 -91 -111 -29 48
115 80 -33 122 86 -28 125 58
-53 121 68 110 -94 -105 -110 -86
70 -97 -127 -18 113 -85 29 127
-11 -127 -17 -82 -78 10 -36 0
109 127 93 25 88 -94 127 -50
39 31 91 47 11 -9 -60 65
-15 -43 -92 127 37 20 -14 6
57 -44 -39 -35 -49 -95 -126 87
-23 -122 109 -121 53 -68 -6 101
75 85 81 -120 118 -8 -97 -8
115 127 50 -4 112 127 -120 -22
75 108 57 -71 -52 -75 127 -122
71 -72 64 114 -88 -127 102 73
123 -84 -47 5 110 2 -97 -127
-62 53 -121 -34 127 56 123 39
-127 89 -34 18 -50 -61 -22 14
-25 -46 28 69 61 -117 -63 -81
127 -80 -11 77 115 80 -52 20
127 15 -33 -17 -73 -73 125 -27
-117 119 43 -1 -84 -105 -123 73
127 -40 98 -127 85 -40 48 -5
-23 113 86 33 -62 42 127 -123
49 58 53 -115 -126 -54 93 -32
92 75 -20 127 60 -89 109 -57
-104 -84 127 -90 31 113 86 -98
-65 -1 127 127 -127 127 -26 -77

model/model_parser/tf_base_conv2d_7/conv2d_4/Conv2D i1 [16, 1, 1, 32]
00000000: 249a fbe0 db4e bd52 ee34 016a 263a 091f
00000010: 814c 52ca d1f7 ab1d fc12 eeab 3a3b 1cca
00000020: 341a 6f37 0437 d781 de0c 50ed 8815 20f1
00000030: 1aca 23c9 dc19 fb3a b92f 49d4 38ef cff0
00000040: da9b bcc2 fdb7 0ddc 25f2 031b d408 0efc
00000050: 0837 234a 81dd dceb 3949 9708 2fbe 3dcf
00000060: 1813 ce05 ec37 867f a9e1 c827 d3dc f9f5
00000070: 06d1 9286 57c1 816a f832 836f 12a8 399e
00000080: 3157 eed8 bba4 63f0 e7e9 d0e1 572f 3648
00000090: b487 f6d9 4de1 165f eccc 3d41 7f00 c3bd
000000a0: 2a94 5db8 849b cc0e 6845 1d07 5323 060d
000000b0: f9ef 11a2 db2e 3853 8153 060b eb86 74d1
000000c0: e1f2 bdb0 d396 f581 fbe9 5056 2c5b 1a1f
000000d0: 8b28 4df1 0af4 f8bb 169d f1e1 6689 2207
000000e0: c181 5330 29b2 4404 7455 e4a7 d3c9 e1e8
000000f0: 66c0 4fb1 51cf 8a63 d298 44d2 9db6 5107
36 -102 -5 -32 -37 78 -67 82
-18 52 1 106 38 58 9 31
-127 76 82 -54 -47 -9 -85 29
-4 18 -18 -85 58 59 28 -54
52 26 111 55 4 55 -41 -127
-34 12 80 -19 -120 21 32 -15
26 -54 35 -55 -36 25 -5 58
-71 47 73 -44 56 -17 -49 -16
-38 -101 -68 -62 -3 -73 13 -36
37 -14 3 27 -44 8 14 -4
8 55 35 74 -127 -35 -36 -21
57 73 -105 8 47 -66 61 -49
24 19 -50 5 -20 55 -122 127
-87 -31 -56 39 -45 -36 -7 -11
6 -47 -110 -122 87 -63 -127 106
-8 50 -125 111 18 -88 57 -98
49 87 -18 -40 -69 -92 99 -16
-25 -23 -48 -31 87 47 54 72
-76 -121 -10 -39 77 -31 22 95
-20 -52 61 65 127 0 -61 -67
42 -108 93 -72 -124 -101 -52 14
104 69 29 7 83 35 6 13
-7 -17 17 -94 -37 46 56 83
-127 83 6 11 -21 -122 116 -47
-31 -14 -67 -80 -45 -106 -11 -127
-5 -23 80 86 44 91 26 31
-117 40 77 -15 10 -12 -8 -69
22 -99 -15 -31 102 -119 34 7
-63 -127 83 48 41 -78 68 4
116 85 -28 -89 -45 -55 -31 -24
102 -64 79 -79 81 -49 -118 99
-46 -104 68 -46 -99 -74 81 7

model/model_parser/tf_base_conv2d_8/conv2d_5/Conv2D i1 [32, 1, 1, 16]
00000000: 81c8 e0fa d4e4 9f5f 4df4 ee89 7f9e 07ba
00000010: 16fd eb19 a31b 7d9b 09e1 4a07 4381 7bc4
00000020: 1bae c581 655d fb01 5aeb 3532 e1cd 94a6
00000030: c053 295e 2cff 4754 7ff4 1546 0099 f70e
00000040: a838 5f72 d663 5059 504b a781 074e 393b
00000050: 81d8 e031 0faa bb04 f73a 595d 05ac ab1b
00000060: 7f7c 50b1 7e08 c3cb 65bc 0239 feab 91e2
00000070: b7c1 817f 242e 4f2d 0410 4bdc e416 5993
00000080: 2352 28b4 1f06 557f f9cb 37c7 c4d5 1abe
00000090: 00aa 2de7 5492 31e1 5621 a394 7fda c303
000000a0: 76e9 2e29 d3d7 3aea 8ab9 813f b0d2 48f0
000000b0: 879c 3981 35df 181f 733e 3530 e418 bdb0
000000c0: 38be f137 81ed be89 d34c ee31 9cf4 0365
000000d0: 9355 4867 7faf 0688 89c2 51cd 1227 89ae
000000e0: f755 930f 079f b37f d1f1 e345 03dd a94d
000000f0: a239 3940 1a6e 5d6a 3b83 3f04 8161 9c82
-127 -56 -32 -6 -44 -28 -97 95
77 -12 -18 -119 127 -98 7 -70
22 -3 -21 25 -93 27 125 -101
9 -31 74 7 67 -127 123 -60
27 -82 -59 -127 101 93 -5 1
90 -21 53 50 -31 -51 -108 -90
-64 83 41 94 44 -1 71 84
127 -12 21 70 0 -103 -9 14
-88 56 95 114 -42 99 80 89
80 75 -89 -127 7 78 57 59
-127 -40 -32 49 15 -86 -69 4
-9 58 89 93 5 -84 -85 27
127 124 80 -79 126 8 -61 -53
101 -68 2 57 -2 -85 -111 -30
-73 -63 -127 127 36 46 79 45
4 16 75 -36 -28 22 89 -109
35 82 40 -76 31 6 85 127
-7 -53 55 -57 -60 -43 26 -66
0 -86 45 -25 84 -110 49 -31
86 33 -93 -108 127 -38 -61 3
118 -23 46 41 -45 -41 58 -22
-118 -71 -127 63 -80 -46 72 -16
-121 -100 57 -127 53 -33 24 31
115 62 53 48 -28 24 -67 -80
56 -66 -15 55 -127 -19 -66 -119
-45 76 -18 49 -100 -12 3 101
-109 85 72 103 127 -81 6 -120
-119 -62 81 -51 18 39 -119 -82
-9 85 -109 15 7 -97 -77 127
-47 -15 -29 69 3 -35 -87 77
-94 57 57 64 26 110 93 106
59 -125 63 4 -127 97 -100 -126

model/model_parser/tfbn_9/batch_normalization_9/FusedBatchNormV3;model/model_parser/tf_base_conv2d_9/depthwise_conv2d_3/depthwise;model/model_parser/tf_base_conv2d_42/sequential_4/conv2d_28/Conv2D i1 [1, 3, 3, 32]
00000000: 926c c1f8 d681 7081 cbc6 6fed 7cc3 a478
00000010: 32c7 8122 e896 2b35 5bb8 bf68 c47f e96e
00000020: ca58 b702 0ca8 41ae 258a 4f98 c7dd ac6d
00000030: ce23 ed7f fbd4 d77f 2902 c046 7fdf 7fd1
00000040: b981 0454 ba09 b535 33be 6074 323f abe7
00000050: 0662 2239 2350 e529 f87d 3c06 5438 b683
00000060: 856e 36ad cde3 b39d 5e48 f4a0 b04c 7f14
00000070: 814b 2ca5 b481 6649 afd4 c05a a53c e07f
00000080: 0571 558b dce6 91ed d468 4181 8c7b 83ef
00000090: 54e9 7054 7f86 e452 ae81 7f69 fdaa 583f
000000a0: bca6 3181 b9c1 022b 7f81 7869 e662 707f
000000b0: 7d5e 53d3 0205 7f26 f22b a066 24b3 e7da
000000c0: 2d06 f64a 7fa8 0cac 8b6c ccad 7f34 9687
000000d0: c6cc 026e 7c2b a715 7fe7 c2e0 421c f031
000000e0: 816a 23ca 51f9 81ff f7f3 c432 0c9a ddd8
000000f0: 1a81 6d1c 0b5d bd17 e5c7 c602 b412 fc93
-110 108 -63 -8 -42 -127 112 -127
-53 -58 111 -19 124 -61 -92 120
50 -57 -127 34 -24 -106 43 53
91 -72 -65 104 -60 127 -23 110
-54 88 -73 2 12 -88 65 -82
37 -118 79 -104 -57 -35 -84 109
-50 35 -19 127 -5 -44 -41 127
41 2 -64 70 127 -33 127 -47
-71 -127 4 84 -70 9 -75 53
51 -66 96 116 50 63 -85 -25
6 98 34 57 35 80 -27 41
-8 125 60 6 84 56 -74 -125
-123 110 54 -83 -51 -29 -77 -99
94 72 -12 -96 -80 76 127 20
-127 75 44 -91 -76 -127 102 73
-81 -44 -64 90 -91 60 -32 127
5 113 85 -117 -36 -26 -111 -19
-44 104 65 -127 -116 123 -125 -17
84 -23 112 84 127 -122 -28 82
-82 -127 127 105 -3 -86 88 63
-68 -90 49 -127 -71 -63 2 43
127 -127 120 105 -26 98 112 127
125 94 83 -45 2 5 127 38
-14 43 -96 102 36 -77 -25 -38
45 6 -10 74 127 -88 12 -84
-117 108 -52 -83 127 52 -106 -121
-58 -52 2 110 124 43 -89 21
127 -25 -62 -32 66 28 -16 49
-127 106 35 -54 81 -7 -127 -1
-9 -13 -60 50 12 -102 -35 -40
26 -127 109 28 11 93 -67 23
-27 -57 -58 2 -76 18 -4 -109

model/model_parser/tf_base_conv2d_10/conv2d_6/Conv2D i1 [16, 1, 1, 32]
00000000: 14f5 151c 120c fd58 264e abe1 3037 ed85
00000010: 04e3 557f eb25 3ea6 0521 c858 0efe a737
00000020: 3331 b89f f64c d35e e52a 2326 1d7f 0a24
00000030: e732 1d65 ebe1 c75e fd21 18f6 1268 c521
00000040: 6a6c 260e 0638 9466 4ac9 197f 41c8 cc14
00000050: 4dc0 fd06 0eaf 67e5 b59d 67d4 5233 630e
00000060: 8b1a ac21 1481 71bc 8ee1 9ccd 082f def4
00000070: bed2 b0e3 36cb 5851 e535 bf29 4b19 23d7
00000080: 5139 a527 f874 f695 12d0 0479 810d a45a
00000090: d24d d793 bc00 19d9 d0af 2b52 c6b3 40f6
000000a0: 1edf f2f5 56db 0409 983f 1406 5481 de98
000000b0: 09b2 44cb b7f3 1227 0abb 1bba 53e7 5e4e
000000c0: 019c 4e22 d62a 53fe 13d0 32cb fbf7 b11e
000000d0: c97f 202c 16e8 dc1c 24fe cd01 03f1 cecb
000000e0: a742 27f7 d91d 098d 2eea 1b01 1d52 2939
000000f0: f79a 71f6 c4a2 242e 1c1f 4881 ddc9 e120
20 -11 21 28 18 12 -3 88
38 78 -85 -31 48 55 -19 -123
4 -29 85 127 -21 37 62 -90
5 33 -56 88 14 -2 -89 55
51 49 -72 -97 -10 76 -45 94
-27 42 35 38 29 127 10 36
-25 50 29 101 -21 -31 -57 94
-3 33 24 -10 18 104 -59 33
106 108 38 14 6 56 -108 102
74 -55 25 127 65 -56 -52 20
77 -64 -3 6 14 -81 103 -27
-75 -99 103 -44 82 51 99 14
-117 26 -84 33 20 -127 113 -68
-114 -31 -100 -51 8 47 -34 -12
-66 -46 -80 -29 54 -53 88 81
-27 53 -65 41 75 25 35 -41
81 57 -91 39 -8 116 -10 -107
18 -48 4 121 -127 13 -92 90
-46 77 -41 -109 -68 0 25 -39
-48 -81 43 82 -58 -77 64 -10
30 -33 -14 -11 86 -37 4 9
-104 63 20 6 84 -127 -34 -104
9 -78 68 -53 -73 -13 18 39
10 -69 27 -70 83 -25 94 78
1 -100 78 34 -42 42 83 -2
19 -48 50 -53 -5 -9 -79 30
-55 127 32 44 22 -24 -36 28
36 -2 -51 1 3 -15 -50 -53
-89 66 39 -9 -39 29 9 -115
46 -22 27 1 29 82 41 57
-9 -102 113 -10 -60 -94 36 46
28 31 72 -127 -35 -55 -31 32

model/model_parser/tf_base_conv2d_11/conv2d_7/Conv2D i1 [32, 1, 1, 16]
00000000: 81cf e8f0 41d4 2f18 0934 0730 1259 a00f
00000010: 2af4 0056 ab04 81de db41 6450 aa59 e954
00000020: 2bac a0c8 3533 f9f2 f281 43ad 1200 1ae0
00000030: ea4f a07f 001b 2534 cd76 ff95 fdbb d110
00000040: eca5 13ba d3cb ec81 2fea 31d3 5b93 0df3
00000050: aea3 8197 fa6a 1d13 efc9 d3d0 9761 fcbb
00000060: 5e47 e227 8156 c0ba 57b5 bc53 fb27 8c2b
00000070: 957f 99e5 df86 3d18 f333 9cda f508 175c
00000080: 7fd1 6490 aa39 27c9 dd29 ab4d af74 ea9c
00000090: d1bd f54d e2d8 2a47 81ca d036 5891 dd1c
000000a0: aad8 c499 15f7 3966 c3df 19de 361c ca81
000000b0: f893 e936 7f54 03a4 b104 099c a0c7 3d02
000000c0: a179 e612 16ba dbaf 2281 dcdc c177 46ed
000000d0: a40a 55b3 bcd6 5307 8113 e205 6324 569e
000000e0: a25b d2bc 822b 0600 40b2 7f93 e8ec a0a2
000000f0: 9f0f f523 5443 12fc 7fe8 0257 9d2f bb20
-127 -49 -24 -16 65 -44 47 24
9 52 7 48 18 89 -96 15
42 -12 0 86 -85 4 -127 -34
-37 65 100 80 -86 89 -23 84
43 -84 -96 -56 53 51 -7 -14
-14 -127 67 -83 18 0 26 -32
-22 79 -96 127 0 27 37 52
-51 118 -1 -107 -3 -69 -47 16
-20 -91 19 -70 -45 -53 -20 -127
47 -22 49 -45 91 -109 13 -13
-82 -93 -127 -105 -6 106 29 19
-17 -55 -45 -48 -105 97 -4 -69
94 71 -30 39 -127 86 -64 -70
87 -75 -68 83 -5 39 -116 43
-107 127 -103 -27 -33 -122 61 24
-13 51 -100 -38 -11 8 23 92
127 -47 100 -112 -86 57 39 -55
-35 41 -85 77 -81 116 -22 -100
-47 -67 -11 77 -30 -40 42 71
-127 -54 -48 54 88 -111 -35 28
-86 -40 -60 -103 21 -9 57 102
-61 -33 25 -34 54 28 -54 -127
-8 -109 -23 54 127 84 3 -92
-79 4 9 -100 -96 -57 61 2
-95 121 -26 18 22 -70 -37 -81
34 -127 -36 -36 -63 119 70 -19
-92 10 85 -77 -68 -42 83 7
-127 19 -30 5 99 36 86 -98
-94 91 -46 -68 -126 43 6 0
64 -78 127 -109 -24 -20 -96 -94
-97 15 -11 35 84 67 18 -4
127 -24 2 87 -99 47 -69 32

model/model_parser/tfbn_12/batch_normalization_12/FusedBatchNormV3;model/model_parser/tf_base_conv2d_12/depthwise_conv2d_4/depthwise;model/model_parser/tf_base_conv2d_42/sequential_4/conv2d_28/Conv2D i1 [1, 3, 3, 32]
00000000: 14c3 4f2c 7ff6 8136 a47f 747f f467 7f18
00000010: 81c9 8ca3 fe81 627f 1d28 e1a1 81bd 1599
00000020: 26c8 3b0e 1ba3 9572 a3f6 dc8c 7f7d 6b7f
00000030: b865 7484 ab10 ac29 be6f a776 8f3b 2993
00000040: 283d 6d15 b6d7 0165 bb83 8171 25b7 2f00
00000050: 4a6e 7a7d d6c4 81de fa3a 9586 bfac 8191
00000060: c353 bcbc 952e 9c4f 3905 622c 8f19 c296
00000070: 42d5 da9c b627 573a 587f 7792 563b b7b6
00000080: 007f d890 45ef 7381 9b98 aa65 a576 86e9
00000090: d1f0 e8a3 0ff0 ce0d 4eb7 2d56 29d6 6bd7
000000a0: 4713 9bbf dd19 53a5 2f1d bf1b 9331 2455
000000b0: b881 a31d 1fa4 ab27 edee 81fb 4573 df5b
000000c0: b87a 7fe4 747f 11c8 8194 68f9 ec8f d296
000000d0: a2ab 81d6 81a5 c01a a6b0 6b06 b082 b27f
000000e0: 1f7e 2681 3311 43b1 33ab d430 401e 4606
000000f0: 2763 d681 1bd8 780f f50a 17c9 0681 af48
20 -61 79 44 127 -10 -127 54
-92 127 116 127 -12 103 127 24
-127 -55 -116 -93 -2 -127 98 127
29 40 -31 -95 -127 -67 21 -103
38 -56 59 14 27 -93 -107 114
-93 -10 -36 -116 127 125 107 127
-72 101 116 -124 -85 16 -84 41
-66 111 -89 118 -113 59 41 -109
40 61 109 21 -74 -41 1 101
-69 -125 -127 113 37 -73 47 0
74 110 122 125 -42 -60 -127 -34
-6 58 -107 -122 -65 -84 -127 -111
-61 83 -68 -68 -107 46 -100 79
57 5 98 44 -113 25 -62 -106
66 -43 -38 -100 -74 39 87 58
88 127 119 -110 86 59 -73 -74
0 127 -40 -112 69 -17 115 -127
-101 -104 -86 101 -91 118 -122 -23
-47 -16 -24 -93 15 -16 -50 13
78 -73 45 86 41 -42 107 -41
71 19 -101 -65 -35 25 83 -91
47 29 -65 27 -109 49 36 85
-72 -127 -93 29 31 -92 -85 39
-19 -18 -127 -5 69 115 -33 91
-72 122 127 -28 116 127 17 -56
-127 -108 104 -7 -20 -113 -46 -106
-94 -85 -127 -42 -127 -91 -64 26
-90 -80 107 6 -80 -126 -78 127
31 126 38 -127 51 17 67 -79
51 -85 -44 48 64 30 70 6
39 99 -42 -127 27 -40 120 15
-11 10 23 -55 6 -127 -81 72

model/model_parser/tf_base_conv2d_13/conv2d_8/Conv2D i1 [16, 1, 1, 32]
00000000: bf35 fa25 0ab8 2508 1010 f848 e481 b0aa
00000010: 5eac 31eb 2aae 38de 932c a038 714e b3e5
00000020: 1644 bc50 1e2e 3ff1 d565 3a04 3b81 120c
00000030: b9fd 0fe6 e7d4 35d4 adee 1fbe d0c9 0b30
00000040: 4464 bdd3 d7f0 170b eb98 8111 a0c2 5cee
00000050: 86ea 4617 e4dd dd6a 41eb 2a60 a7ee 2547
00000060: 3643 7fb3 3507 9dd5 21b0 013d 1d3c c9bb
00000070: effc 24e4 33e8 09f3 f636 052c a90f ec4b
00000080: dd86 0416 ff9c 87c9 46fc 16c0 ddf3 c559
00000090: 1a32 34aa c107 e881 e731 e0ca abd1 dd37
000000a0: 20f9 04bc 55ba 93ed 4dfc 7f0e 9808 b2c7
000000b0: e6b9 9522 1e52 f2c2 f9cc e039 a831 d506
000000c0: 7f0e fde6 dfbe e752 460e 3b11 f9d7 df55
000000d0: 22ce c3c0 d6c6 128e 4621 3fa1 0ae9 e809
000000e0: 731a 1ffd 04db d475 38dd 99f5 5ce4 9404
000000f0: 704d 1a06 cc7a 4c6e f77f ebd9 62c0 422b
-65 53 -6 37 10 -72 37 8
16 16 -8 72 -28 -127 -80 -86
94 -84 49 -21 42 -82 56 -34
-109 44 -96 56 113 78 -77 -27
22 68 -68 80 30 46 63 -15
-43 101 58 4 59 -127 18 12
-71 -3 15 -26 -25 -44 53 -44
-83 -18 31 -66 -48 -55 11 48
68 100 -67 -45 -41 -16 23 11
-21 -104 -127 17 -96 -62 92 -18
-122 -22 70 23 -28 -35 -35 106
65 -21 42 96 -89 -18 37 71
54 67 127 -77 53 7 -99 -43
33 -80 1 61 29 60 -55 -69
-17 -4 36 -28 51 -24 9 -13
-10 54 5 44 -87 15 -20 75
-35 -122 4 22 -1 -100 -121 -55
70 -4 22 -64 -35 -13 -59 89
26 50 52 -86 -63 7 -24 -127
-25 49 -32 -54 -85 -47 -35 55
32 -7 4 -68 85 -70 -109 -19
77 -4 127 14 -104 8 -78 -57
-26 -71 -107 34 30 82 -14 -62
-7 -52 -32 57 -88 49 -43 6
127 14 -3 -26 -33 -66 -25 82
70 14 59 17 -7 -41 -33 85
34 -50 -61 -64 -42 -58 18 -114
70 33 63 -95 10 -23 -24 9
115 26 31 -3 4 -37 -44 117
56 -35 -103 -11 92 -28 -108 4
112 77 26 6 -52 122 76 110
-9 127 -21 -39 98 -64 66 43

model/model_parser/tf_base_conv2d_14/conv2d_9/Conv2D i1 [32, 1, 1, 16]
00000000: df81 d058 124f 4c5c 44a8 0630 d0af 0834
00000010: f769 b71c bf1e 0327 d1f6 dc81 0ce9 232b
00000020: ab54 0737 32bd d2c4 e681 31b3 9f1d 9eea
00000030: 2ae8 b78e 185c 0ff9 52c7 ca7a 5c29 7f81
00000040: d662 e6bb 0ff3 816b 559d 12d5 cb09 15bd
00000050: 1084 5e57 3413 eb3f 1fd4 f594 7e7f a9ab
00000060: 542f 32ff 81f5 cdc7 a818 4557 07eb b318
00000070: c1cf 595f 81b2 6ddd ce40 0989 afcb 41fc
00000080: dabd c331 b724 af04 105d 67f4 c981 0104
00000090: 3e1b ab18 5422 53ce 0bdb e881 ac36 b8df
000000a0: d9a0 6ab8 6e10 7ffc 58db 47e4 9410 9d56
000000b0: c657 ff99 47e7 16b7 6307 814e 860b 27f0
000000c0: 4903 d78e 2669 1232 799d c381 17ae ecc5
000000d0: e197 0c08 f739 66cb 2081 29fa 9ab5 19a4
000000e0: fd5d a61a 4dfe 5162 2a0b 81f5 292f 7d47
000000f0: b7b6 25ba 64ad 69f4 3e2e b4f8 989b 7fb3
-33 -127 -48 88 18 79 76 92
68 -88 6 48 -48 -81 8 52
-9 105 -73 28 -65 30 3 39
-47 -10 -36 -127 12 -23 35 43
-85 84 7 55 50 -67 -46 -60
-26 -127 49 -77 -97 29 -98 -22
42 -24 -73 -114 24 92 15 -7
82 -57 -54 122 92 41 127 -127
-42 98 -26 -69 15 -13 -127 107
85 -99 18 -43 -53 9 21 -67
16 -124 94 87 52 19 -21 63
31 -44 -11 -108 126 127 -87 -85
84 47 50 -1 -127 -11 -51 -57
-88 24 69 87 7 -21 -77 24
-63 -49 89 95 -127 -78 109 -35
-50 64 9 -119 -81 -53 65 -4
-38 -67 -61 49 -73 36 -81 4
16 93 103 -12 -55 -127 1 4
62 27 -85 24 84 34 83 -50
11 -37 -24 -127 -84 54 -72 -33
-39 -96 106 -72 110 16 127 -4
88 -37 71 -28 -108 16 -99 86
-58 87 -1 -103 71 -25 22 -73
99 7 -127 78 -122 11 39 -16
73 3 -41 -114 38 105 18 50
121 -99 -61 -127 23 -82 -20 -59
-31 -105 12 8 -9 57 102 -53
32 -127 41 -6 -102 -75 25 -92
-3 93 -90 26 77 -2 81 98
42 11 -127 -11 41 47 125 71
-73 -74 37 -70 100 -83 105 -12
62 46 -76 -8 -104 -101 127 -77

model/model_parser/tfbn_15/batch_normalization_15/FusedBatchNormV3;model/model_parser/tf_base_conv2d_15/depthwise_conv2d_5/depthwise;model/model_parser/tf_base_conv2d_42/sequential_4/conv2d_28/Conv2D i1 [1, 3, 3, 32]
00000000: d189 13fd 329c f0b5 7f7f 7faf 00d4 41d6
00000010: 5f28 7bf9 fee4 2fbc 558b 6c81 7691 3210
00000020: 2ef2 e596 40d4 97cc db1a dee7 2525 81dc
00000030: 127f 5a85 7ca6 8cae 3b77 b525 a3fe a665
00000040: 471a b21a a4c0 b7b3 8959 69a0 812e c922
00000050: 11b4 c37f d4b3 a579 a9fa c03d a77a 1008
00000060: ad85 9881 b08b b713 a70a c681 527f 9818
00000070: 5490 2292 5286 187f dff9 2ec4 37c7 0df5
00000080: a83a 7f10 7f18 7fcd d9ec 202e 3094 605d
00000090: c164 d73d 1656 e16e 3edc 4a3d 8181 0edf
000000a0: 1365 2199 6dcc f147 ec0e fc32 4434 7404
000000b0: 19f4 1534 fa9a 9ecf 112f 7ff5 5b59 817f
000000c0: 7f0b f240 247f b5d1 f05e d443 e2b3 6d7f
000000d0: 979f b51f f33b b119 4bf0 e74d 0ae1 e9ab
000000e0: d6b7 155e d639 3240 2bba 5abf 211e 5ef7
000000f0: 21a6 81dc 1603 08b2 077f ea45 f953 5dba
-47 -119 19 -3 50 -100 -16 -75
127 127 127 -81 0 -44 65 -42
95 40 123 -7 -2 -28 47 -68
85 -117 108 -127 118 -111 50 16
46 -14 -27 -106 64 -44 -105 -52
-37 26 -34 -25 37 37 -127 -36
18 127 90 -123 124 -90 -116 -82
59 119 -75 37 -93 -2 -90 101
71 26 -78 26 -92 -64 -73 -77
-119 89 105 -96 -127 46 -55 34
17 -76 -61 127 -44 -77 -91 121
-87 -6 -64 61 -89 122 16 8
-83 -123 -104 -127 -80 -117 -73 19
-89 10 -58 -127 82 127 -104 24
84 -112 34 -110 82 -122 24 127
-33 -7 46 -60 55 -57 13 -11
-88 58 127 16 127 24 127 -51
-39 -20 32 46 48 -108 96 93
-63 100 -41 61 22 86 -31 110
62 -36 74 61 -127 -127 14 -33
19 101 33 -103 109 -52 -15 71
-20 14 -4 50 68 52 116 4
25 -12 21 52 -6 -102 -98 -49
17 47 127 -11 91 89 -127 127
127 11 -14 64 36 127 -75 -47
-16 94 -44 67 -30 -77 109 127
-105 -97 -75 31 -13 59 -79 25
75 -16 -25 77 10 -31 -23 -85
-42 -73 21 94 -42 57 50 64
43 -70 90 -65 33 30 94 -9
33 -90 -127 -36 22 3 8 -78
7 127 -22 69 -7 83 93 -70

model/model_parser/tf_base_conv2d_16/conv2d_10/Conv2D i1 [16, 1, 1, 32]
00000000: 23b0 2e42 0ded dd05 d73e b363 eab9 71d2
00000010: f1a2 5b24 40dd 1228 81fd cbda c011 15f6
00000020: 9f27 19c8 d4c8 bfe3 607d 04be 53f5 2df0
00000030: e0e5 00e4 4ddb 4957 c681 efe7 25e9 3833
00000040: 504e cc27 ff0e 87f5 97bd adab 9616 f1d6
00000050: bd00 c2f6 0ee7 2cc1 e72b 816d 0018 49ff
00000060: 3ae3 c834 fbe9 5503 0321 3664 3ae8 7f11
00000070: e8a4 0396 5bc7 d243 08d0 280f 551f b1c7
00000080: ea5e ffd9 b4c5 7fdd 0303 01fe 25be 0103
00000090: 4a01 1e26 ca00 ce17 1006 d1d2 44c1 54f2
000000a0: c27f 3acb 3063 3fb2 516d 3ac6 980b 471e
000000b0: 503b f321 3c18 7500 6c6d a951 69b7 c9f6
000000c0: 7196 4b49 0f18 cce1 2d7f 2ef0 0c60 b3ff
000000d0: d506 39d9 911f e5bb e5b4 535e 01e0 cdcc
000000e0: 43f2 3945 2581 442a e9ff 3a05 d110 ac17
000000f0: 64fd b782 b03f d6f8 ab93 5bbb d204 8a53
35 -80 46 66 13 -19 -35 5
-41 62 -77 99 -22 -71 113 -46
-15 -94 91 36 64 -35 18 40
-127 -3 -53 -38 -64 17 21 -10
-97 39 25 -56 -44 -56 -65 -29
96 125 4 -66 83 -11 45 -16
-32 -27 0 -28 77 -37 73 87
-58 -127 -17 -25 37 -23 56 51
80 78 -52 39 -1 14 -121 -11
-105 -67 -83 -85 -106 22 -15 -42
-67 0 -62 -10 14 -25 44 -63
-25 43 -127 109 0 24 73 -1
58 -29 -56 52 -5 -23 85 3
3 33 54 100 58 -24 127 17
-24 -92 3 -106 91 -57 -46 67
8 -48 40 15 85 31 -79 -57
-22 94 -1 -39 -76 -59 127 -35
3 3 1 -2 37 -66 1 3
74 1 30 38 -54 0 -50 23
16 6 -47 -46 68 -63 84 -14
-62 127 58 -53 48 99 63 -78
81 109 58 -58 -104 11 71 30
80 59 -13 33 60 24 117 0
108 109 -87 81 105 -73 -55 -10
113 -106 75 73 15 24 -52 -31
45 127 46 -16 12 96 -77 -1
-43 6 57 -39 -111 31 -27 -69
-27 -76 83 94 1 -32 -51 -52
67 -14 57 69 37 -127 68 42
-23 -1 58 5 -47 16 -84 23
100 -3 -73 -126 -80 63 -42 -8
-85 -109 91 -69 -46 4 -118 83

model/model_parser/tf_base_conv2d_17/conv2d_11/Conv2D i1 [32, 1, 1, 16]
00000000: c6f7 eefd e48b 81ea d0cd ee6e ccf7 896e
00000010: b865 1bab 5f6c c511 7f5b 67c3 2960 f520
00000020: cee8 b27f 05d1 184a 3cf9 9bd8 66de 5edc
00000030: fe35 1198 0a4a 98e9 31d8 3613 1692 8150
00000040: 3b35 b998 1354 8193 0116 3197 5321 ee1b
00000050: 7648 bdaf ed3b c3de d18a 0e1c 4967 8128
00000060: f4ab 6127 3f39 be55 2169 8128 aa28 b057
00000070: e73f e07a 36d4 14c1 eac1 7f0c ee15 e5b6
00000080: 9dff 1996 247f ad85 3037 4924 b407 40bf
00000090: 91bc 2fef 7f5a abaa 2a49 1250 b2c5 d32f
000000a0: 45e3 9468 b01d da7f 75f0 8440 897c 7df1
000000b0: 8155 1996 2333 30f1 c9e0 976c de4f 3b25
000000c0: bfec c964 45e3 31fc 81c9 35b8 5803 653f
000000d0: 30ce b9e5 6f7f c745 41a0 d8ce 00d5 59d2
000000e0: a9e9 4174 eb47 06f8 14ca 5a7a e03b e17f
000000f0: d10f ded9 7fe0 49d4 eb8e f294 4783 e05f
-58 -9 -18 -3 -28 -117 -127 -22
-48 -51 -18 110 -52 -9 -119 110
-72 101 27 -85 95 108 -59 17
127 91 103 -61 41 96 -11 32
-50 -24 -78 127 5 -47 24 74
60 -7 -101 -40 102 -34 94 -36
-2 53 17 -104 10 74 -104 -23
49 -40 54 19 22 -110 -127 80
59 53 -71 -104 19 84 -127 -109
1 22 49 -105 83 33 -18 27
118 72 -67 -81 -19 59 -61 -34
-47 -118 14 28 73 103 -127 40
-12 -85 97 39 63 57 -66 85
33 105 -127 40 -86 40 -80 87
-25 63 -32 122 54 -44 20 -63
-22 -63 127 12 -18 21 -27 -74
-99 -1 25 -106 36 127 -83 -123
48 55 73 36 -76 7 64 -65
-111 -68 47 -17 127 90 -85 -86
42 73 18 80 -78 -59 -45 47
69 -29 -108 104 -80 29 -38 127
117 -16 -124 64 -119 124 125 -15
-127 85 25 -106 35 51 48 -15
-55 -32 -105 108 -34 79 59 37
-65 -20 -55 100 69 -29 49 -4
-127 -55 53 -72 88 3 101 63
48 -50 -71 -27 111 127 -57 69
65 -96 -40 -50 0 -43 89 -46
-87 -23 65 116 -21 71 6 -8
20 -54 90 122 -32 59 -31 127
-47 15 -34 -39 127 -32 73 -44
-21 -114 -14 -108 71 -125 -32 95

model/model_parser/tfbn_18/batch_normalization_18/FusedBatchNormV3;model/model_parser/tf_base_conv2d_18/sequential_2/depthwise_conv2d_6/depthwise;model/model_parser/tf_base_conv2d_42/sequential_4/conv2d_28/Conv2D i1 [1, 3, 3, 32]
00000000: 16bc 27f0 bf4c 7512 bd57 8122 c981 c8b5
00000010: cd8f 5d0b 7f67 5ab8 dcc5 f5ca ea50 0912
00000020: fbab b68b 2a60 e4a8 ab77 ce7f da8e 8113
00000030: dd48 3cf9 5f63 7f8c 2ca4 9676 5d7f 81c6
00000040: da45 45e4 51f6 fccd 7fe5 3175 88a2 6aca
00000050: 23a0 7f69 c358 cb34 a56e 87e0 9335 d181
00000060: 4881 2dec b9a8 75b1 f842 bf88 41b8 9181
00000070: 0734 6642 73fe b481 9aa3 fd1b b049 49c2
00000080: 94da 7f8a 1e68 1af0 fb7f 1690 abfa 9cd5
00000090: 4809 227f 6e33 6aa8 a684 347f 9017 7606
000000a0: 8749 6b81 787f 508b 0b74 bd7b 811f 3907
000000b0: 79bd 0b0f 2d81 5ea0 c5aa a2b6 db5a c092
000000c0: 8160 0e72 7f3c 8181 cb13 4234 050e 86a0
000000d0: 66df 2935 36e3 ae5a 0084 7f0b 81e3 c9af
000000e0: 8888 76ce 4dc2 fb0f d45c f6c1 c202 aece
000000f0: 7f1b 02e4 7099 5ca9 8147 a542 c145 93b8
22 -68 39 -16 -65 76 117 18
-67 87 -127 34 -55 -127 -56 -75
-51 -113 93 11 127 103 90 -72
-36 -59 -11 -54 -22 80 9 18
-5 -85 -74 -117 42 96 -28 -88
-85 119 -50 127 -38 -114 -127 19
-35 72 60 -7 95 99 127 -116
44 -92 -106 118 93 127 -127 -58
-38 69 69 -28 81 -10 -4 -51
127 -27 49 117 -120 -94 106 -54
35 -96 127 105 -61 88 -53 52
-91 110 -121 -32 -109 53 -47 -127
72 -127 45 -20 -71 -88 117 -79
-8 66 -65 -120 65 -72 -111 -127
7 52 102 66 115 -2 -76 -127
-102 -93 -3 27 -80 73 73 -62
-108 -38 127 -118 30 104 26 -16
-5 127 22 -112 -85 -6 -100 -43
72 9 34 127 110 51 106 -88
-90 -124 52 127 -112 23 118 6
-121 73 107 -127 120 127 80 -117
11 116 -67 123 -127 31 57 7
121 -67 11 15 45 -127 94 -96
-59 -86 -94 -74 -37 90 -64 -110
-127 96 14 114 127 60 -127 -127
-53 19 66 52 5 14 -122 -96
102 -33 41 53 54 -29 -82 90
0 -124 127 11 -127 -29 -55 -81
-120 -120 118 -50 77 -62 -5 15
-44 92 -10 -63 -62 2 -82 -50
127 27 2 -28 112 -103 92 -87
-127 71 -91 66 -63 69 -109 -72

model/model_parser/tf_base_conv2d_19/conv2d_12/Conv2D i1 [32, 1, 1, 32]
00000000: be2c f3de abd0 1230 d57f 03c8 1cfc 0011
00000010: a135 efea f9fa 1949 e1eb 32b0 175f e2e8
00000020: 460b b92f 2841 c219 d9ba 130b 2ab2 3ce2
00000030: 14fa 30d4 04f5 bb16 da18 ee7f 4809 21f6
00000040: 4e60 b78f bd02 d951 39b3 c21b 0f1e 32bd
00000050: d7aa 9e1e b410 25c4 6a1f c6de aea7 037f
00000060: e40a 04fb f24b f3f3 0f98 0ad2 2351 ce7f
00000070: db21 e5f7 e5db e3ed eb3d e8b9 33c3 4be2
00000080: e3f0 ba2c 44fa 88dc f27f d815 538a 7615
00000090: 2d22 744f 3ed5 f202 71dd bd2b e748 e7a7
000000a0: 4430 e70e b7fc 073e c5ca e001 3281 eef2
000000b0: e615 0b36 15dd 24d1 5b2c 016f 13a7 be5f
000000c0: c427 bec4 17f0 75c1 ef49 22d8 337e d537
000000d0: 78d0 3cfd c02f fe30 5507 23dc 025f 5081
000000e0: 6cb0 7f6f cb95 b10f a1b4 08cd 1a95 f506
000000f0: cfa9 5251 0b28 10b2 1044 e6f3 17ea fa61
-66 44 -13 -34 -85 -48 18 48
-43 127 3 -56 28 -4 0 17
-95 53 -17 -22 -7 -6 25 73
-31 -21 50 -80 23 95 -30 -24
70 11 -71 47 40 65 -62 25
-39 -70 19 11 42 -78 60 -30
20 -6 48 -44 4 -11 -69 22
-38 24 -18 127 72 9 33 -10
78 96 -73 -113 -67 2 -39 81
57 -77 -62 27 15 30 50 -67
-41 -86 -98 30 -76 16 37 -60
106 31 -58 -34 -82 -89 3 127
-28 10 4 -5 -14 75 -13 -13
15 -104 10 -46 35 81 -50 127
-37 33 -27 -9 -27 -37 -29 -19
-21 61 -24 -71 51 -61 75 -30
-29 -16 -70 44 68 -6 -120 -36
-14 127 -40 21 83 -118 118 21
45 34 116 79 62 -43 -14 2
113 -35 -67 43 -25 72 -25 -89
68 48 -25 14 -73 -4 7 62
-59 -54 -32 1 50 -127 -18 -14
-26 21 11 54 21 -35 36 -47
91 44 1 111 19 -89 -66 95
-60 39 -66 -60 23 -16 117 -63
-17 73 34 -40 51 126 -43 55
120 -48 60 -3 -64 47 -2 48
85 7 35 -36 2 95 80 -127
108 -80 127 111 -53 -107 -79 15
-95 -76 8 -51 26 -107 -11 6
-49 -87 82 81 11 40 16 -78
16 68 -26 -13 23 -22 -6 97

model/model_parser/tf_base_conv2d_20/conv2d_13/Conv2D i1 [128, 1, 1, 32]
00000000: 4f65 0e1d a8fc 5c4f 9743 beae ae7f a0df
00000010: 2490 4d7c c2fc fdb5 29b7 1e1c 47bc c2fc
00000020: 064a bdbc f693 629f 944f 0de3 0a7b f824
00000030: f77f 090e cbad e1d9 e73b 506a 0940 cefe
00000040: 579f 47a4 1b9b ce50 0b05 e147 088c 11a9
00000050: 081c 402a 50d8 3d8f 5eba e29f 7248 dc81
00000060: 4281 e862 4547 4823 ca51 6c46 ba43 6b7b
00000070: c136 b501 82ad 9529 1637 a81c 22ec 175a
00000080: a2de 3ce8 32a5 3ddb 333b 6e4c 5d99 082d
00000090: 243e d9d5 81ed 52bd b9fc a411 045a 1460
000000a0: 3b13 a54c 30da f2a6 211f f855 f3bc f581
000000b0: 8d61 3f10 2c22 c9ca e4bb e01b ef48 aca0
000000c0: d1ea 9634 0914 290d 2890 2fc0 d116 db20
000000d0: 1dd0 a4bd d6ce 425d e3e7 a4fd a27f a324
000000e0: f1a1 89a0 5ee8 1c1a c3b1 0281 dff8 b05e
000000f0: b42b 1bff a1ab f7bd 67e2 cb01 dab6 dd63
79 101 14 29 -88 -4 92 79
-105 67 -66 -82 -82 127 -96 -33
36 -112 77 124 -62 -4 -3 -75
41 -73 30 28 71 -68 -62 -4
6 74 -67 -68 -10 -109 98 -97
-108 79 13 -29 10 123 -8 36
-9 127 9 14 -53 -83 -31 -39
-25 59 80 106 9 64 -50 -2
87 -97 71 -92 27 -101 -50 80
11 5 -31 71 8 -116 17 -87
8 28 64 42 80 -40 61 -113
94 -70 -30 -97 114 72 -36 -127
66 -127 -24 98 69 71 72 35
-54 81 108 70 -70 67 107 123
-63 54 -75 1 -126 -83 -107 41
22 55 -88 28 34 -20 23 90
-94 -34 60 -24 50 -91 61 -37
51 59 110 76 93 -103 8 45
36 62 -39 -43 -127 -19 82 -67
-71 -4 -92 17 4 90 20 96
59 19 -91 76 48 -38 -14 -90
33 31 -8 85 -13 -68 -11 -127
-115 97 63 16 44 34 -55 -54
-28 -69 -32 27 -17 72 -84 -96
-47 -22 -106 52 9 20 41 13
40 -112 47 -64 -47 22 -37 32
29 -48 -92 -67 -42 -50 66 93
-29 -25 -92 -3 -94 127 -93 36
-15 -95 -119 -96 94 -24 28 26
-61 -79 2 -127 -33 -8 -80 94
-76 43 27 -1 -95 -85 -9 -67
103 -30 -53 1 -38 -74 -35 99

model/model_parser/tfbn_21/batch_normalization_21/FusedBatchNormV3;model/model_parser/tf_base_conv2d_21/depthwise_conv2d_7/depthwise;model/model_parser/tf_base_conv2d_36/depthwise_conv2d_12/depthwise i1 [1, 3, 3, 128]
00000000: 468c af05 fc9a 9155 946d 7fd7 4ec1 df5e
00000010: 466a 8e7f 7f58 221a 0c11 1e14 816c 345b
00000020: a537 4959 75be 3c7f 7878 81b2 fd85 f1d4
00000030: a521 e08f 0808 5936 c59d e84e 405d 0a0f
00000040: cced 3f38 d751 9481 8183 94e2 9d09 ebe7
00000050: 8137 b2c2 f6a5 c6d0 a97f 957f 7fe3 0981
00000060: a9b8 9ac7 6b7e 3cd9 74e0 f8f3 855b 1e49
00000070: 3028 7fec 9b29 a9b1 f2a2 8b81 e970 9a7f
00000080: 2373 29cf 5ec4 aabb 81ea 1a7d 7ca4 7900
00000090: 1cfd 6f88 4c44 5b4a 4981 c54c 05cd 4d0b
000000a0: 7f9a 3c00 50f4 e7b4 b881 97af e92c 6234
000000b0: e9b8 e90a b7c3 c596 a258 12fd 1628 4e2b
000000c0: 575a 8101 0e8b 9ca5 15d3 b13d 5c45 4b56
000000d0: f301 9d91 0bad 4d7a 7f3c 3e77 c681 a678
000000e0: 9dbc cdbb b439 fd1f eb7f 5525 7f38 5345
000000f0: 812b 1f7f e409 d10c 0b34 90fb 085d b1b2
70 -116 -81 5 -4 -102 -111 85
-108 109 127 -41 78 -63 -33 94
70 106 -114 127 127 88 34 26
12 17 30 20 -127 108 52 91
-91 55 73 89 117 -66 60 127
120 120 -127 -78 -3 -123 -15 -44
-91 33 -32 -113 8 8 89 54
-59 -99 -24 78 64 93 10 15
-52 -19 63 56 -41 81 -108 -127
-127 -125 -108 -30 -99 9 -21 -25
-127 55 -78 -62 -10 -91 -58 -48
-87 127 -107 127 127 -29 9 -127
-87 -72 -102 -57 107 126 60 -39
116 -32 -8 -13 -123 91 30 73
48 40 127 -20 -101 41 -87 -79
-14 -94 -117 -127 -23 112 -102 127
35 115 41 -49 94 -60 -86 -69
-127 -22 26 125 124 -92 121 0
28 -3 111 -120 76 68 91 74
73 -127 -59 76 5 -51 77 11
127 -102 60 0 80 -12 -25 -76
-72 -127 -105 -81 -23 44 98 52
-23 -72 -23 10 -73 -61 -59 -106
-94 88 18 -3 22 40 78 43
87 90 -127 1 14 -117 -100 -91
21 -45 -79 61 92 69 75 86
-13 1 -99 -111 11 -83 77 122
127 60 62 119 -58 -127 -90 120
-99 -68 -51 -69 -76 57 -3 31
-21 127 85 37 127 56 83 69
-127 43 31 127 -28 9 -47 12
11 52 -112 -5 8 93 -79 -78

model/model_parser/tf_base_conv2d_22/conv2d_14/Conv2D i1 [32, 1, 1, 128]
00000000: 17c6 1930 a12a 124a 1a1d 06f7 1cc7 3521
00000010: f71f f91d 9314 e728 54cd 2700 c906 d7eb
00000020: e218 4922 0afc fa69 0d47 d6b9 4ee4 2a16
00000030: 4a1a 5ccf ffed 5294 6816 e8d5 d7dc 0f16
00000040: 3f85 1488 81cd dd7d 1904 2f5c 1031 36ab
00000050: b4fe b418 b745 10bf b147 4851 1bda bc0c
00000060: d3e4 f7e5 ede0 fef1 f2e9 c655 e0e0 19c2
00000070: ba51 dcea f6c8 eb24 e6f9 1545 0832 dfd9
00000080: f3dc 992b e67f b6be cfe0 ecf3 173f bddb
00000090: d6f8 198a 4ae3 a807 e33d 67c3 c4d9 07c6
000000a0: 0029 65cf fcdd 02a3 2a4a 221d afca f328
000000b0: 1bcb 6513 ecd8 2d3c e49b f30c fda2 a1a7
000000c0: 1c0c 3118 5398 d20d da0d 0cdc aba6 3fee
000000d0: c3ed e2b4 8fa0 26ab 0820 defc 6abc 5938
000000e0: 12d8 bb5c 2fe3 99bc 0db2 5109 4350 4063
000000f0: f61c 6c0e d8d4 eefa 081f 2205 0c4c e531
23 -58 25 48 -95 42 18 74
26 29 6 -9 28 -57 53 33
-9 31 -7 29 -109 20 -25 40
84 -51 39 0 -55 6 -41 -21
-30 24 73 34 10 -4 -6 105
13 71 -42 -71 78 -28 42 22
74 26 92 -49 -1 -19 82 -108
104 22 -24 -43 -41 -36 15 22
63 -123 20 -120 -127 -51 -35 125
25 4 47 92 16 49 54 -85
-76 -2 -76 24 -73 69 16 -65
-79 71 72 81 27 -38 -68 12
-45 -28 -9 -27 -19 -32 -2 -15
-14 -23 -58 85 -32 -32 25 -62
-70 81 -36 -22 -10 -56 -21 36
-26 -7 21 69 8 50 -33 -39
-13 -36 -103 43 -26 127 -74 -66
-49 -32 -20 -13 23 63 -67 -37
-42 -8 25 -118 74 -29 -88 7
-29 61 103 -61 -60 -39 7 -58
0 41 101 -49 -4 -35 2 -93
42 74 34 29 -81 -54 -13 40
27 -53 101 19 -20 -40 45 60
-28 -101 -13 12 -3 -94 -95 -89
28 12 49 24 83 -104 -46 13
-38 13 12 -36 -85 -90 63 -18
-61 -19 -30 -76 -113 -96 38 -85
8 32 -34 -4 106 -68 89 56
18 -40 -69 92 47 -29 -103 -68
13 -78 81 9 67 80 64 99
-10 28 108 14 -40 -44 -18 -6
8 31 34 5 12 76 -27 49

model/model_parser/tf_base_conv2d_23/conv2d_15/Conv2D i1 [128, 1, 1, 32]
00000000: 0e5d c803 105a 174e 9655 cf7f 24f5 cc05
00000010: 770e 99ed 9fe1 fad6 3005 dc0e e94e 4dac
00000020: a47d 14ea 4989 274f e6d3 de45 407f 8f22
00000030: 6645 c12a a02c 7660 f98b 95d5 5406 5f58
00000040: aeb1 33f3 7fb5 41be 73f8 0a0d 3dea 0419
00000050: eccc cb7d 093e bb3c c1b9 6205 ca0a 07df
00000060: 1040 0fc7 60ac 19c8 2dfd fc8f c419 3b96
00000070: 7148 c581 3b1d a3f8 5451 d0c2 fa00 3141
00000080: 7930 ab05 040a dd0a 04ae 1a42 813e f71c
00000090: cca5 34ba f7e4 2e03 adda 57d7 fce7 7d5c
000000a0: 03b1 0dab 7387 bee3 9bc3 3b86 1156 6021
000000b0: 5f20 cab0 70ee da1f c3ab e4b1 33e7 b27f
000000c0: c0ca f065 b376 356e 81dc 42c6 c42e 718b
000000d0: c5e3 5759 9014 d22d b1bc 0139 0cc7 9e9e
000000e0: b234 4eb4 a94b e658 e59a 1e66 e36c ce6c
000000f0: 1b8a 0e97 a666 a190 30d2 2069 da81 0a03
14 93 -56 3 16 90 23 78
-106 85 -49 127 36 -11 -52 5
119 14 -103 -19 -97 -31 -6 -42
48 5 -36 14 -23 78 77 -84
-92 125 20 -22 73 -119 39 79
-26 -45 -34 69 64 127 -113 34
102 69 -63 42 -96 44 118 96
-7 -117 -107 -43 84 6 95 88
-82 -79 51 -13 127 -75 65 -66
115 -8 10 13 61 -22 4 25
-20 -52 -53 125 9 62 -69 60
-63 -71 98 5 -54 10 7 -33
16 64 15 -57 96 -84 25 -56
45 -3 -4 -113 -60 25 59 -106
113 72 -59 -127 59 29 -93 -8
84 81 -48 -62 -6 0 49 65
121 48 -85 5 4 10 -35 10
4 -82 26 66 -127 62 -9 28
-52 -91 52 -70 -9 -28 46 3
-83 -38 87 -41 -4 -25 125 92
3 -79 13 -85 115 -121 -66 -29
-101 -61 59 -122 17 86 96 33
95 32 -54 -80 112 -18 -38 31
-61 -85 -28 -79 51 -25 -78 127
-64 -54 -16 101 -77 118 53 110
-127 -36 66 -58 -60 46 113 -117
-59 -29 87 89 -112 20 -46 45
-79 -68 1 57 12 -57 -98 -98
-78 52 78 -76 -87 75 -26 88
-27 -102 30 102 -29 108 -50 108
27 -118 14 -105 -90 102 -95 -112
48 -46 32 105 -38 -127 10 3

model/model_parser/tfbn_24/batch_normalization_24/FusedBatchNormV3;model/model_parser/tf_base_conv2d_24/depthwise_conv2d_8/depthwise;model/model_parser/tf_base_conv2d_36/depthwise_conv2d_12/depthwise i1 [1, 3, 3, 128]
00000000: 7ffc e985 407f 507f 8de6 f918 63cc 5927
00000010: 3749 f318 7f7f 0cad 55d7 0a18 777f a212
00000020: e195 4d1f e713 a16f 69db 7f22 9ae1 df1b
00000030: 5d9a 21f8 8189 119c 99c5 90e6 7fe9 8166
00000040: 5ad2 aee7 ebf2 4f7f 810f 3b1d f41c 3aed
00000050: 281c 9469 9ee9 7fbf 9a9d f2d6 4d53 438e
00000060: 549b 3336 4a20 7f44 442f 5249 6657 7fcd
00000070: b5ca cb70 fc81 816a b18c 6d7f 507f 307f
00000080: e37f e1bd d4e3 66f6 5bbf c278 3909 41e9
00000090: 812f 4e67 4e5f 42d3 bc66 7f24 ccf8 7fac
000000a0: abfe 9d4c 7f9e aa67 b1a5 a981 1fc3 13bd
000000b0: fa81 e1f8 1e7f 6460 5301 2b92 f30f 4474
000000c0: 85af 7ccb 895a a5fb 509a 42e0 4b18 71e2
000000d0: ab38 7fe0 047e ea56 f103 9c00 8181 22a0
000000e0: 021c 7a64 6444 d3e2 17b2 d10f 233a 7821
000000f0: 43ee c7e3 af4a 4830 7f24 26a0 1cd3 25c3
127 -4 -23 -123 64 127 80 127
-115 -26 -7 24 99 -52 89 39
55 73 -13 24 127 127 12 -83
85 -41 10 24 119 127 -94 18
-31 -107 77 31 -25 19 -95 111
105 -37 127 34 -102 -31 -33 27
93 -102 33 -8 -127 -119 17 -100
-103 -59 -112 -26 127 -23 -127 102
90 -46 -82 -25 -21 -14 79 127
-127 15 59 29 -12 28 58 -19
40 28 -108 105 -98 -23 127 -65
-102 -99 -14 -42 77 83 67 -114
84 -101 51 54 74 32 127 68
68 47 82 73 102 87 127 -51
-75 -54 -53 112 -4 -127 -127 106
-79 -116 109 127 80 127 48 127
-29 127 -31 -67 -44 -29 102 -10
91 -65 -62 120 57 9 65 -23
-127 47 78 103 78 95 66 -45
-68 102 127 36 -52 -8 127 -84
-85 -2 -99 76 127 -98 -86 103
-79 -91 -87 -127 31 -61 19 -67
-6 -127 -31 -8 30 127 100 96
83 1 43 -110 -13 15 68 116
-123 -81 124 -53 -119 90 -91 -5
80 -102 66 -32 75 24 113 -30
-85 56 127 -32 4 126 -22 86
-15 3 -100 0 -127 -127 34 -96
2 28 122 100 100 68 -45 -30
23 -78 -47 15 35 58 120 33
67 -18 -57 -29 -81 74 72 48
127 36 38 -96 28 -45 37 -61

model/model_parser/tf_base_conv2d_25/conv2d_16/Conv2D i1 [32, 1, 1, 128]
00000000: 5834 0bf6 2cd4 d2b8 26a3 2f7b d4cb 2606
00000010: f61c 4dd1 567f bdf4 421b 1cc5 4d23 d747
00000020: be23 0b38 0561 dd07 cb10 f1ce 182b 0bed
00000030: bbf6 2215 651f 93e6 d337 3bbc 22ea 01d6
00000040: 16bc e73b 3224 f51d 1fc5 f05c baeb d717
00000050: 4a00 3ce9 32ed ecba 2eef 1639 19e8 fb37
00000060: 6126 f58f d130 3de8 22be 38e9 0e01 2034
00000070: 1cf5 d7e1 42a9 2f31 e3d6 0411 e7f0 1d91
00000080: a109 1ebc d925 03f1 f8dc 0fe0 acd7 fa13
00000090: 81b8 2853 a210 05e1 2911 0bb1 29cd 0421
000000a0: 4505 4f00 1514 2109 f0f9 fbd2 b8d2 3ab2
000000b0: 0711 dbe5 c4f1 d10b d0cc ee5c cc3e 1831
000000c0: 30de 46d6 dc03 f5e0 d8c2 cb01 2be8 fc12
000000d0: 4254 c147 d734 c63f dcc8 e3ff ec01 f1c8
000000e0: 313b 1ad6 0419 3f34 fccf 04f7 2a26 c01e
000000f0: dff6 2e39 1f2a ff0a f919 e026 3d38 61d9
88 52 11 -10 44 -44 -46 -72
38 -93 47 123 -44 -53 38 6
-10 28 77 -47 86 127 -67 -12
66 27 28 -59 77 35 -41 71
-66 35 11 56 5 97 -35 7
-53 16 -15 -50 24 43 11 -19
-69 -10 34 21 101 31 -109 -26
-45 55 59 -68 34 -22 1 -42
22 -68 -25 59 50 36 -11 29
31 -59 -16 92 -70 -21 -41 23
74 0 60 -23 50 -19 -20 -70
46 -17 22 57 25 -24 -5 55
97 38 -11 -113 -47 48 61 -24
34 -66 56 -23 14 1 32 52
28 -11 -41 -31 66 -87 47 49
-29 -42 4 17 -25 -16 29 -111
-95 9 30 -68 -39 37 3 -15
-8 -36 15 -32 -84 -41 -6 19
-127 -72 40 83 -94 16 5 -31
41 17 11 -79 41 -51 4 33
69 5 79 0 21 20 33 9
-16 -7 -5 -46 -72 -46 58 -78
7 17 -37 -27 -60 -15 -47 11
-48 -52 -18 92 -52 62 24 49
48 -34 70 -42 -36 3 -11 -32
-40 -62 -53 1 43 -24 -4 18
66 84 -63 71 -41 52 -58 63
-36 -56 -29 -1 -20 1 -15 -56
49 59 26 -42 4 25 63 52
-4 -49 4 -9 42 38 -64 30
-33 -10 46 57 31 42 -1 10
-7 25 -32 38 61 56 97 -39

model/model_parser/tf_base_conv2d_26/conv2d_17/Conv2D i1 [128, 1, 1, 32]
00000000: 2ac1 8108 593f 4b2b 9b4c 66fb 14fe 2945
00000010: cfec 4500 e85b abcd c929 eab7 dfb0 c6e3
00000020: 818f ddbc 0142 fb49 4b99 edd9 7c7c ccaa
00000030: b63d 12cc 761a 2752 60fc ddbc 3572 2e61
00000040: 106a cfbb ff99 eeb5 e429 8e7f e986 f758
00000050: ad07 b4b5 0b15 f207 dbbd 46e8 dbeb 1fc2
00000060: 36ae 9dc3 4b42 c6e5 1cd9 4f52 8136 248c
00000070: b1e3 c269 5c8f e909 cb33 cef7 3f6f 810c
00000080: b0e6 b398 843f 1b6d 7f1c de93 21e2 e840
00000090: 479e 1b9a dd2f 8f81 e0dd 61dd f019 6519
000000a0: 34c9 c988 da26 d44f 73fd 120c 314e 0efe
000000b0: 7a99 314c 7432 48bf 9c32 8126 eb57 c076
000000c0: 020b 8f3f ec44 d2be c81b b0b4 33cc e6f0
000000d0: 19c4 f04e 7f02 eef3 d70a c2be 4201 b40e
000000e0: 38aa 0a90 0734 b5ce ed2d 444d 5919 7f5e
000000f0: 2f2c 49f1 b5d9 cf35 1e5f 6071 08c7 1494
42 -63 -127 8 89 63 75 43
-101 76 102 -5 20 -2 41 69
-49 -20 69 0 -24 91 -85 -51
-55 41 -22 -73 -33 -80 -58 -29
-127 -113 -35 -68 1 66 -5 73
75 -103 -19 -39 124 124 -52 -86
-74 61 18 -52 118 26 39 82
96 -4 -35 -68 53 114 46 97
16 106 -49 -69 -1 -103 -18 -75
-28 41 -114 127 -23 -122 -9 88
-83 7 -76 -75 11 21 -14 7
-37 -67 70 -24 -37 -21 31 -62
54 -82 -99 -61 75 66 -58 -27
28 -39 79 82 -127 54 36 -116
-79 -29 -62 105 92 -113 -23 9
-53 51 -50 -9 63 111 -127 12
-80 -26 -77 -104 -124 63 27 109
127 28 -34 -109 33 -30 -24 64
71 -98 27 -102 -35 47 -113 -127
-32 -35 97 -35 -16 25 101 25
52 -55 -55 -120 -38 38 -44 79
115 -3 18 12 49 78 14 -2
122 -103 49 76 116 50 72 -65
-100 50 -127 38 -21 87 -64 118
2 11 -113 63 -20 68 -46 -66
-56 27 -80 -76 51 -52 -26 -16
25 -60 -16 78 127 2 -18 -13
-41 10 -62 -66 66 1 -76 14
56 -86 10 -112 7 52 -75 -50
-19 45 68 77 89 25 127 94
47 44 73 -15 -75 -39 -49 53
30 95 96 113 8 -57 20 -108

model/model_parser/tfbn_27/batch_normalization_27/FusedBatchNormV3;model/model_parser/tf_base_conv2d_27/depthwise_conv2d_9/depthwise;model/model_parser/tf_base_conv2d_36/depthwise_conv2d_12/depthwise i1 [1, 3, 3, 128]
00000000: 0b7f 1a81 c005 81a4 63b5 79c5 2ae5 b0f1
00000010: e552 7fcb ad34 647f 7911 c6bc b694 755e
00000020: 65cf 85ac 69bd e163 6265 e954 7fba 81e5
00000030: be0c 9d72 70ad 7fe9 6938 8168 f59b 52c2
00000040: 5d7f 0f7f 7bdf 8c7f ab90 7f81 20c2 e27f
00000050: 5abc c3f9 ce07 82d3 6c7d 8656 f0ed e9f2
00000060: 4c90 7f46 5a69 539b 97cd 8c3d 50f0 c9f3
00000070: 2837 7f0f b8b4 d8ae e9e7 48a5 bb4c b955
00000080: f33e 89ae ef48 b547 5b7f a9aa 7fc6 6708
00000090: bd7f 653f e97f 0e1d 4649 aade fe8f 1482
000000a0: 1519 fe7f 427f 344e 95cc f262 f1ba d27f
000000b0: e0fa 50b5 05ed 6b8f 81bf 4502 357f ffd5
000000c0: 59a9 10b1 c976 97d1 b939 5787 2150 5526
000000d0: 4b92 7fa9 2632 f3f9 667f e9c6 a081 3fbc
000000e0: 2eb9 ef62 07d4 2e66 0ecd d9e3 3397 5851
000000f0: 3981 ef94 38f4 c1a9 ac29 45db e087 1f02
11 127 26 -127 -64 5 -127 -92
99 -75 121 -59 42 -27 -80 -15
-27 82 127 -53 -83 52 100 127
121 17 -58 -68 -74 -108 117 94
101 -49 -123 -84 105 -67 -31 99
98 101 -23 84 127 -70 -127 -27
-66 12 -99 114 112 -83 127 -23
105 56 -127 104 -11 -101 82 -62
93 127 15 127 123 -33 -116 127
-85 -112 127 -127 32 -62 -30 127
90 -68 -61 -7 -50 7 -126 -45
108 125 -122 86 -16 -19 -23 -14
76 -112 127 70 90 105 83 -101
-105 -51 -116 61 80 -16 -55 -13
40 55 127 15 -72 -76 -40 -82
-23 -25 72 -91 -69 76 -71 85
-13 62 -119 -82 -17 72 -75 71
91 127 -87 -86 127 -58 103 8
-67 127 101 63 -23 127 14 29
70 73 -86 -34 -2 -113 20 -126
21 25 -2 127 66 127 52 78
-107 -52 -14 98 -15 -70 -46 127
-32 -6 80 -75 5 -19 107 -113
-127 -65 69 2 53 127 -1 -43
89 -87 16 -79 -55 118 -105 -47
-71 57 87 -121 33 80 85 38
75 -110 127 -87 38 50 -13 -7
102 127 -23 -58 -96 -127 63 -68
46 -71 -17 98 7 -44 46 102
14 -51 -39 -29 51 -105 88 81
57 -127 -17 -108 56 -12 -63 -87
-84 41 69 -37 -32 -121 31 2

model/model_parser/tf_base_conv2d_28/conv2d_18/Conv2D i1 [32, 1, 1, 128]
00000000: 27c5 a472 b517 ccf7 edc4 4f0f f849 f34b
00000010: f471 de16 2a15 eeca f223 ce03 6928 602d
00000020: fc47 2d55 1e44 f9fa b1a3 d218 f7d6 2ac0
00000030: 5a13 7f20 fd46 1130 44d3 36c1 3b38 3aaa
00000040: 00a9 c7fc b0e1 3d54 c252 46e9 f60d 1640
00000050: 0bde a4b9 38e7 e314 2ee7 cb0b d33c f25d
00000060: cef8 ddf5 2648 c2cd d60b 46cc 0357 c6f9
00000070: 1ced 0902 252a ee6f 50e8 086f f7c9 67c7
00000080: b204 f705 e421 34f5 0c06 d4af 172d 142f
00000090: 54e0 3622 10f7 00e5 e4ca 46ee 230f da11
000000a0: ca16 1cf7 c1ed e619 2dc2 f21a 030a cd1f
000000b0: e239 0123 33eb fef4 c833 fe2d 132a e0f8
000000c0: 07f2 f718 c3f0 cd0a 32f1 e744 e2d3 e0c3
000000d0: ab3d cd20 f1f2 e6f6 ffec 29de 5291 450b
000000e0: 141e bd0b e11e 44c8 dfd1 cecd e82e 04ef
000000f0: 58ed 2403 4d95 02e8 94c7 1bf2 06b6 d681
39 -59 -92 114 -75 23 -52 -9
-19 -60 79 15 -8 73 -13 75
-12 113 -34 22 42 21 -18 -54
-14 35 -50 3 105 40 96 45
-4 71 45 85 30 68 -7 -6
-79 -93 -46 24 -9 -42 42 -64
90 19 127 32 -3 70 17 48
68 -45 54 -63 59 56 58 -86
0 -87 -57 -4 -80 -31 61 84
-62 82 70 -23 -10 13 22 64
11 -34 -92 -71 56 -25 -29 20
46 -25 -53 11 -45 60 -14 93
-50 -8 -35 -11 38 72 -62 -51
-42 11 70 -52 3 87 -58 -7
28 -19 9 2 37 42 -18 111
80 -24 8 111 -9 -55 103 -57
-78 4 -9 5 -28 33 52 -11
12 6 -44 -81 23 45 20 47
84 -32 54 34 16 -9 0 -27
-28 -54 70 -18 35 15 -38 17
-54 22 28 -9 -63 -19 -26 25
45 -62 -14 26 3 10 -51 31
-30 57 1 35 51 -21 -2 -12
-56 51 -2 45 19 42 -32 -8
7 -14 -9 24 -61 -16 -51 10
50 -15 -25 68 -30 -45 -32 -61
-85 61 -51 32 -15 -14 -26 -10
-1 -20 41 -34 82 -111 69 11
20 30 -67 11 -31 30 68 -56
-33 -47 -50 -51 -24 46 4 -17
88 -19 36 3 77 -107 2 -24
-108 -57 27 -14 6 -74 -42 -127
