model_zoo/yolov5_tiny_face.tflite (tflite, 267024 bytes, 69 tensors)

fuse_attr_62 i1 [12, 3, 3, 12]
-25 -61 16 -14 -14 -22 -9 -66
44 -59 41 76 -13 33 26 -27
-35 -24 -12 -73 14 35 71 47
23 18 47 -55 -8 6 -33 61
-40 45 -30 -57 17 -29 -54 -28
-22 -55 32 -22 -24 75 -25 75
47 66 -69 -101 -70 -51 0 -48
-82 72 -18 127 33 35 -4 -67
-54 24 -53 26 -85 39 -88 -2
7 -8 25 -8 -2 -24 51 -30
-13 41 11 40 21 39 17 -16
23 -16 2 -47 42 -46 68 12
20 -1 -30 15 38 -22 32 -39
17 -4 53 -11 -17 -41 71 5
-18 -43 -35 -76 -1 13 23 5
-44 -52 43 -6 12 -25 -27 -39
7 30 33 28 23 -6 7 28
23 -17 -9 -47 27 23 6 -37
-3 -21 66 -5 -3 30 55 76
15 18 -5 18 -30 -69 82 -7
49 -8 57 84 48 43 8 8
-2 -52 -3 1 14 6 47 53
18 -13 -10 -45 -28 -35 -3 13
-92 31 -62 -44 30 -43 -74 -29
-46 -21 -74 -11 -86 -46 -96 -128
-95 -9 -54 -15 -35 -11 14 -34
-86 25 -59 -37 -88 23 -56 -7
-19 -37 71 2 2 41 -19 63
12 19 46 30 -42 1 36 -11
-30 -2 34 12 55 -45 62 92
-40 -15 0 -30 -29 14 -18 27
2 -12 30 38 -16 -20 -1 -41
00000000: e7c3 10f2 f2ea f7be 2cc5 294c f321 1ae5
00000010: dde8 f4b7 0e23 472f 1712 2fc9 f806 df3d
00000020: d82d e2c7 11e3 cae4 eac9 20ea e84b e74b
00000030: 2f42 bb9b bacd 00d0 ae48 ee7f 2123 fcbd
00000040: ca18 cb1a ab27 a8fe 07f8 19f8 fee8 33e2
00000050: f329 0b28 1527 11f0 17f0 02d1 2ad2 440c
00000060: 14ff e20f 26ea 20d9 11fc 35f5 efd7 4705
00000070: eed5 ddb4 ff0d 1705 d4cc 2bfa 0ce7 e5d9
00000080: 071e 211c 17fa 071c 17ef f7d1 1b17 06db
00000090: fdeb 42fb fd1e 374c 0f12 fb12 e2bb 52f9
000000a0: 31f8 3954 302b 0808 fecc fd01 0e06 2f35
000000b0: 12f3 f6d3 e4dd fd0d a41f c2d4 1ed5 b6e3
000000c0: d2eb b6f5 aad2 a080 a1f7 caf1 ddf5 0ede
000000d0: aa19 c5db a817 c8f9 eddb 4702 0229 ed3f
000000e0: 0c13 2e1e d601 24f5 e2fe 220c 37d3 3e5c
000000f0: d8f1 00e2 e30e ee1b 02f4 1e26 f0ec ffd7

fuse_attr_50 i1 [24, 3, 3, 24]
-51 9 13 -4 4 21 9 12
-14 -16 12 -30 -28 18 -61 -14
1 -2 -66 -10 -34 -45 -26 13
0 -43 60 -52 87 3 10 -32
-76 -25 4 -53 -49 40 -57 29
24 -13 7 2 31 -6 -12 -7
42 15 -3 -48 88 19 1 -34
-12 -32 -7 4 4 45 -2 30
-4 -32 -17 10 -33 -4 30 -9
-29 44 -11 75 -60 35 7 39
47 -48 -27 -21 28 35 -9 9
-16 -27 -23 -16 12 -46 46 36
-24 -17 1 5 -15 -13 94 23
-6 -38 45 -113 -81 38 -85 64
-54 3 -19 16 51 14 57 2
66 20 68 -61 -30 -67 40 -6
-29 7 -16 -10 -28 39 -6 40
-47 63 -33 74 -6 -10 56 -16
-6 -51 12 37 -19 -9 33 -47
9 -100 -27 9 19 -10 7 31
-4 -51 -17 -41 -11 6 21 4
-52 -33 23 16 -16 55 43 23
-23 -57 3 -109 -54 13 -41 127
-68 17 -27 41 39 50 -50 19
-2 -9 27 -42 -97 -14 -26 2
4 75 -5 19 -41 17 20 105
-19 68 -35 32 18 -35 -7 -52
3 8 -83 37 -32 7 -55 -10
24 14 7 -1 62 -25 50 2
-37 -30 -22 -52 31 -44 66 -8
-13 127 -50 56 29 24 -7 82
63 58 7 -70 -37 -5 -63 29
00000000: cd09 0dfc 0415 090c f2f0 0ce2 e412 c3f2
00000010: 01fe bef6 ded3 e60d 00d5 3ccc 5703 0ae0
00000020: b4e7 04cb cf28 c71d 18f3 0702 1ffa f4f9
00000030: 2a0f fdd0 5813 01de f4e0 f904 042d fe1e
00000040: fce0 ef0a dffc 1ef7 e32c f54b c423 0727
00000050: 2fd0 e5eb 1c23 f709 f0e5 e9f0 0cd2 2e24
00000060: e8ef 0105 f1f3 5e17 fada 2d8f af26 ab40
00000070: ca03 ed10 330e 3902 4214 44c3 e2bd 28fa
00000080: e307 f0f6 e427 fa28 d13f df4a faf6 38f0
00000090: facd 0c25 edf7 21d1 099c e509 13f6 071f
000000a0: fccd efd7 f506 1504 ccdf 1710 f037 2b17
000000b0: e9c7 0393 ca0d d77f bc11 e529 2732 ce13
000000c0: fef7 1bd6 9ff2 e602 044b fb13 d711 1469
000000d0: ed44 dd20 12dd f9cc 0308 ad25 e007 c9f6
000000e0: 180e 07ff 3ee7 3202 dbe2 eacc 1fd4 42f8
000000f0: f37f ce38 1d18 f952 3f3a 07ba dbfb c11d

fuse_attr_75 i1 [8, 1, 1, 8]
22 27 19 127 -22 5 9 14
37 -119 74 -14 -127 -126 127 57
71 89 17 -12 -26 -18 -110 127
127 -98 -67 11 22 -24 -68 68
-65 -57 -67 -59 12 127 52 76
127 6 84 54 6 5 52 -113
9 -47 127 22 -70 23 -118 37
-43 -7 -51 -54 -12 -84 59 127
00000000: 161b 137f ea05 090e 2589 4af2 8182 7f39
00000010: 4759 11f4 e6ee 927f 7f9e bd0b 16e8 bc44
00000020: bfc7 bdc5 0c7f 344c 7f06 5436 0605 348f
00000030: 09d1 7f16 ba17 8a25 d5f9 cdca f4ac 3b7f

fuse_attr_88 i1 [24, 3, 3, 24]
-3 -1 17 15 17 12 -37 6
-12 -12 -30 -11 -1 11 13 9
4 11 -20 -13 7 -10 -4 -25
34 -2 19 -26 -3 12 -42 -15
-9 -29 -7 -14 1 2 3 7
5 17 1 14 -4 -1 -1 -10
54 14 21 -43 -6 13 -25 -8
5 -37 4 -10 -36 9 12 9
12 23 45 23 -1 2 11 -14
43 -15 27 -49 9 -7 -22 -25
7 -23 -10 5 0 -9 -22 -3
-2 14 1 21 -14 -20 15 -3
110 15 -8 -100 15 3 -3 -25
58 -47 17 -11 -52 -12 -34 6
-7 14 13 37 1 -15 45 33
127 18 2 -101 -16 -3 10 -26
65 -65 19 -11 -46 13 -32 -9
-9 17 28 8 -1 -18 53 14
37 2 11 -27 7 14 -22 -5
14 -5 -19 3 8 17 -27 25
-7 12 6 16 12 4 12 -1
51 19 2 -85 16 7 -19 -9
61 -11 5 -6 -22 26 -29 61
0 27 5 18 7 -12 46 -44
70 37 18 -88 -2 8 -41 0
64 -6 18 10 -37 43 -21 17
-9 13 -9 -8 -13 6 11 -58
15 -6 12 -1 -4 -5 -4 -7
1 11 4 10 0 6 19 23
5 -6 11 -5 4 11 13 -12
2 1 -10 -22 -25 -4 10 15
1 -34 -4 -9 19 9 9 12
00000000: fdff 110f 110c db06 f4f4 e2f5 ff0b 0d09
00000010: 040b ecf3 07f6 fce7 22fe 13e6 fd0c d6f1
00000020: f7e3 f9f2 0102 0307 0511 010e fcff fff6
00000030: 360e 15d5 fa0d e7f8 05db 04f6 dc09 0c09
00000040: 0c17 2d17 ff02 0bf2 2bf1 1bcf 09f9 eae7
00000050: 07e9 f605 00f7 eafd fe0e 0115 f2ec 0ffd
00000060: 6e0f f89c 0f03 fde7 3ad1 11f5 ccf4 de06
00000070: f90e 0d25 01f1 2d21 7f12 029b f0fd 0ae6
00000080: 41bf 13f5 d20d e0f7 f711 1c08 ffee 350e
00000090: 2502 0be5 070e eafb 0efb ed03 0811 e519
000000a0: f90c 0610 0c04 0cff 3313 02ab 1007 edf7
000000b0: 3df5 05fa ea1a e33d 001b 0512 07f4 2ed4
000000c0: 4625 12a8 fe08 d700 40fa 120a db2b eb11
000000d0: f70d f7f8 f306 0bc6 0ffa 0cff fcfb fcf9
000000e0: 010b 040a 0006 1317 05fa 0bfb 040b 0df4
000000f0: 0201 f6ea e7fc 0a0f 01de fcf7 1309 090c

fuse_attr_87 i1 [24, 1, 1, 24]
-37 38 -37 48 -39 -15 -13 35
-6 18 10 91 71 15 127 -95
-10 -26 68 -25 52 -88 -63 30
34 7 -10 -15 -51 -15 -14 10
39 -17 34 -22 -128 3 19 88
-97 16 -38 -62 10 -56 69 22
-13 -18 -18 -3 1 -10 -13 -41
-5 -13 -29 5 -12 -38 5 -128
-57 -65 2 4 9 98 -71 85
-6 -3 10 -13 -8 -4 5 5
25 -2 5 -1 28 -4 -128 5
42 -31 -58 -25 -29 -6 -50 -45
-19 77 -90 -19 45 55 127 -3
-62 -32 -44 -68 14 -3 31 1
-55 35 7 35 -2 -33 -19 -22
-45 0 -23 -3 70 38 -22 103
-50 -52 -35 -128 -60 -17 -18 -19
80 -42 18 -31 -62 57 69 -51
-42 -36 -55 -44 17 -72 -42 1
-5 -51 5 127 89 -105 -27 -108
-104 -75 -26 85 -48 -74 -110 -71
7 -3 -30 32 16 22 -9 9
-18 -1 -13 12 -27 1 -7 4
-40 -4 127 2 -18 -22 15 47
-49 -78 4 -52 27 104 -56 -79
-84 35 -58 9 -1 -10 64 -128
36 -70 -25 -61 42 -65 -56 -4
-38 -29 -33 71 -28 -2 -14 -38
-12 127 -39 -93 -27 117 -23 -105
77 -78 -13 98 32 5 -84 -40
-8 -7 -6 -21 27 -14 -18 27
-34 -92 29 -104 -49 41 -11 -29
00000000: db26 db30 d9f1 f323 fa12 0a5b 470f 7fa1
00000010: f6e6 44e7 34a8 c11e 2207 f6f1 cdf1 f20a
00000020: 27ef 22ea 8003 1358 9f10 dac2 0ac8 4516
00000030: f3ee eefd 01f6 f3d7 fbf3 e305 f4da 0580
00000040: c7bf 0204 0962 b955 fafd 0af3 f8fc 0505
00000050: 19fe 05ff 1cfc 8005 2ae1 c6e7 e3fa ced3
00000060: ed4d a6ed 2d37 7ffd c2e0 d4bc 0efd 1f01
00000070: c923 0723 fedf edea d300 e9fd 4626 ea67
00000080: cecc dd80 c4ef eeed 50d6 12e1 c239 45cd
00000090: d6dc c9d4 11b8 d601 fbcd 057f 5997 e594
000000a0: 98b5 e655 d0b6 92b9 07fd e220 1016 f709
000000b0: eeff f30c e501 f904 d8fc 7f02 eeea 0f2f
000000c0: cfb2 04cc 1b68 c8b1 ac23 c609 fff6 4080
000000d0: 24ba e7c3 2abf c8fc dae3 df47 e4fe f2da
000000e0: f47f d9a3 e575 e997 4db2 f362 2005 acd8
000000f0: f8f9 faeb 1bf2 ee1b dea4 1d98 cf29 f5e3

fuse_attr_73 i1 [8, 1, 1, 8]
-25 57 106 107 127 -124 -44 48
127 -32 -110 61 20 -87 63 57
-128 29 -83 17 43 -56 -119 -66
-20 86 -30 -50 32 -3 127 10
-28 1 -65 127 -29 -13 -3 -49
21 -9 -68 48 127 72 15 41
127 -18 -50 -110 -11 -76 -36 49
-95 19 -46 -54 -8 -128 -33 83
00000000: e739 6a6b 7f84 d430 7fe0 923d 14a9 3f39
00000010: 801d ad11 2bc8 89be ec56 e2ce 20fd 7f0a
00000020: e401 bf7f e3f3 fdcf 15f7 bc30 7f48 0f29
00000030: 7fee ce92 f5b4 dc31 a113 d2ca f880 df53

fuse_attr_48 i1 [24, 3, 3, 16]
-12 -41 26 37 -21 -16 -3 -24
-26 -19 56 -16 -11 -23 -15 -24
-27 -14 42 52 -28 -68 18 30
-4 1 101 12 21 3 -52 -3
10 19 22 35 5 -77 -33 41
22 8 66 29 0 -8 9 -5
1 6 28 74 4 27 35 13
-7 -19 74 4 -35 -37 -30 12
-24 40 97 119 -27 -21 47 67
-14 -9 127 6 -28 -22 -48 49
-8 53 93 64 -17 -72 2 58
-25 38 99 38 -6 -28 -11 40
-33 12 -19 34 -6 18 15 27
-10 -34 25 -28 -6 3 -30 33
-54 53 20 72 -22 16 13 52
-34 -51 77 -29 8 19 -28 32
-22 64 34 39 -23 -28 -4 42
-15 -13 74 -29 9 23 6 29
101 -2 -15 -26 -38 -31 -13 -51
6 -5 -31 -33 -11 -50 95 -55
118 -126 1 -14 45 -75 -5 -79
27 -25 -55 -18 -53 -32 37 -7
28 -68 47 47 57 -59 40 37
19 13 27 1 -53 29 -28 49
106 44 -7 -39 -9 -66 -18 29
28 17 -9 35 28 -28 127 -77
91 -88 -85 -27 67 -62 -29 -40
66 -47 -48 10 1 -15 75 -100
46 -68 34 7 51 -47 -5 18
44 -26 4 21 -68 24 -29 27
7 9 -15 -52 -20 -45 -46 -41
-19 -13 27 40 26 38 71 -65
00000000: f4d7 1a25 ebf0 fde8 e6ed 38f0 f5e9 f1e8
00000010: e5f2 2a34 e4bc 121e fc01 650c 1503 ccfd
00000020: 0a13 1623 05b3 df29 1608 421d 00f8 09fb
00000030: 0106 1c4a 041b 230d f9ed 4a04 dddb e20c
00000040: e828 6177 e5eb 2f43 f2f7 7f06 e4ea d031
00000050: f835 5d40 efb8 023a e726 6326 fae4 f528
00000060: df0c ed22 fa12 0f1b f6de 19e4 fa03 e221
00000070: ca35 1448 ea10 0d34 decd 4de3 0813 e420
00000080: ea40 2227 e9e4 fc2a f1f3 4ae3 0917 061d
00000090: 65fe f1e6 dae1 f3cd 06fb e1df f5ce 5fc9
000000a0: 7682 01f2 2db5 fbb1 1be7 c9ee cbe0 25f9
000000b0: 1cbc 2f2f 39c5 2825 130d 1b01 cb1d e431
000000c0: 6a2c f9d9 f7be ee1d 1c11 f723 1ce4 7fb3
000000d0: 5ba8 abe5 43c2 e3d8 42d1 d00a 01f1 4b9c
000000e0: 2ebc 2207 33d1 fb12 2ce6 0415 bc18 e31b
000000f0: 0709 f1cc ecd3 d2d7 edf3 1b28 1a26 47bf

fuse_attr_93 i1 [28, 1, 1, 28]
-91 -59 -75 52 -48 14 105 63
-15 37 -67 69 63 -127 -22 65
-49 62 -76 11 24 44 -22 -109
-64 6 3 -103 0 2 67 25
1 -15 126 -128 -3 -119 101 -4
-23 -9 -81 9 -56 -28 -6 1
81 -15 -51 92 -45 70 26 -24
-36 1 -84 -1 -50 67 -71 -2
5 127 107 -62 55 70 26 21
29 26 9 -69 -105 -123 -30 45
58 68 -17 -90 127 5 81 -2
30 18 8 -34 33 18 119 71
-74 92 44 -75 25 72 47 -15
39 27 66 -63 7 1 -23 -63
-52 96 6 115 -63 -32 -96 -63
-21 -29 23 -59 62 16 -39 72
76 -97 36 127 33 -48 -67 -45
-69 5 49 -105 61 -1 -16 106
-12 98 78 13 -22 -89 -48 65
13 17 -20 -41 127 -100 56 -64
44 88 -102 57 -55 -37 87 -54
-42 -5 -41 127 50 -34 54 56
32 26 -55 -46 -25 -85 62 -51
-66 40 -42 39 49 0 48 -10
23 -5 -45 -42 -26 -70 -63 66
46 -104 0 -30 -33 89 9 -42
22 -76 16 99 -55 -17 77 127
69 33 4 -69 38 2 -76 -43
-1 69 -72 -22 -38 69 -30 35
-60 -93 3 -103 -42 -34 92 -65
100 127 37 23 -51 5 -6 49
-95 -71 -9 67 -56 -9 -42 -68
00000000: a5c5 b534 d00e 693f f125 bd45 3f81 ea41
00000010: cf3e b40b 182c ea93 c006 0399 0002 4319
00000020: 01f1 7e80 fd89 65fc e9f7 af09 c8e4 fa01
00000030: 51f1 cd5c d346 1ae8 dc01 acff ce43 b9fe
00000040: 057f 6bc2 3746 1a15 1d1a 09bb 9785 e22d
00000050: 3a44 efa6 7f05 51fe 1e12 08de 2112 7747
00000060: b65c 2cb5 1948 2ff1 271b 42c1 0701 e9c1
00000070: cc60 0673 c1e0 a0c1 ebe3 17c5 3e10 d948
00000080: 4c9f 247f 21d0 bdd3 bb05 3197 3dff f06a
00000090: f462 4e0d eaa7 d041 0d11 ecd7 7f9c 38c0
000000a0: 2c58 9a39 c9db 57ca d6fb d77f 32de 3638
000000b0: 201a c9d2 e7ab 3ecd be28 d627 3100 30f6
000000c0: 17fb d3d6 e6ba c142 2e98 00e2 df59 09d6
000000d0: 16b4 1063 c9ef 4d7f 4521 04bb 2602 b4d5
000000e0: ff45 b8ea da45 e223 c4a3 0399 d6de 5cbf
000000f0: 647f 2517 cd05 fa31 a1b9 f743 c8f7 d6bc

fuse_attr_74 i1 [8, 3, 3, 8]
-9 -15 3 -19 79 -39 -43 3
-42 127 -51 -14 -8 12 18 46
-7 58 -40 -17 -12 -34 45 -24
-13 -26 14 -21 29 -50 -49 -2
-20 22 -14 -40 -35 15 -14 4
-12 -19 -27 -33 -19 -39 42 -20
9 5 16 -20 11 -40 -10 -27
-8 10 4 16 -3 41 -23 -5
-22 36 9 -30 -25 45 18 -31
18 27 41 86 46 -9 -49 -13
11 67 -46 97 -3 120 -41 37
0 101 -11 80 -19 -4 0 47
-6 -128 46 18 71 -44 -19 -53
-97 -120 35 55 55 44 -78 -21
-23 24 23 102 -19 66 -79 34
-1 -87 6 -31 -34 -60 3 4
-80 -52 -69 -29 5 -41 17 1
8 21 27 51 34 65 11 15
-41 -38 -1 -10 40 19 0 -20
-111 -112 73 12 38 -54 -37 -15
-24 -64 42 21 -17 -19 -50 -3
0 33 12 24 68 3 12 20
37 127 -66 42 38 20 31 20
48 27 -11 9 -12 -19 24 -10
-3 -27 -5 4 37 -41 9 8
-13 -21 4 52 0 32 -48 37
25 -26 8 40 -20 2 -17 -17
27 -8 7 9 -24 -17 25 34
-10 -25 94 -20 16 -59 -2 127
14 13 -22 -23 -5 -65 -2 36
38 -62 21 -15 -24 -71 2 -11
50 51 1 56 13 -59 32 118
00000000: f7f1 03ed 4fd9 d503 d67f cdf2 f80c 122e
00000010: f93a d8ef f4de 2de8 f3e6 0eeb 1dce cffe
00000020: ec16 f2d8 dd0f f204 f4ed e5df edd9 2aec
00000030: 0905 10ec 0bd8 f6e5 f80a 0410 fd29 e9fb
00000040: ea24 09e2 e72d 12e1 121b 2956 2ef7 cff3
00000050: 0b43 d261 fd78 d725 0065 f550 edfc 002f
00000060: fa80 2e12 47d4 edcb 9f88 2337 372c b2eb
00000070: e918 1766 ed42 b122 ffa9 06e1 dec4 0304
00000080: b0cc bbe3 05d7 1101 0815 1b33 2241 0b0f
00000090: d7da fff6 2813 00ec 9190 490c 26ca dbf1
000000a0: e8c0 2a15 efed cefd 0021 0c18 4403 0c14
000000b0: 257f be2a 2614 1f14 301b f509 f4ed 18f6
000000c0: fde5 fb04 25d7 0908 f3eb 0434 0020 d025
000000d0: 19e6 0828 ec02 efef 1bf8 0709 e8ef 1922
000000e0: f6e7 5eec 10c5 fe7f 0e0d eae9 fbbf fe24
000000f0: 26c2 15f1 e8b9 02f5 3233 0138 0dc5 2076

fuse_attr_85 i1 [12, 1, 1, 12]
-48 73 -53 -32 -10 -128 -37 -11
60 50 10 -2 127 22 27 -5
101 82 83 21 98 -20 52 59
10 25 15 -37 -13 -26 -27 127
-67 -23 -17 -7 -47 127 -55 -18
-51 -51 77 37 -60 22 -56 -32
-6 97 -2 4 87 -68 19 -2
-85 -36 127 58 -46 -70 41 -64
31 89 127 -10 -79 -63 -10 -70
11 96 26 -127 -28 116 -79 -91
90 -25 -17 -73 88 -98 -27 95
127 -1 70 -19 -114 89 -6 -32
-128 8 -71 73 -34 -54 -26 -13
94 8 -81 -49 1 -25 2 -20
7 -16 7 127 37 66 46 25
28 95 -3 127 -6 45 -66 0
105 -7 -27 -38 -1 15 24 78
-39 55 -76 -64 -56 127 -2 -2
00000000: d049 cbe0 f680 dbf5 3c32 0afe 7f16 1bfb
00000010: 6552 5315 62ec 343b 0a19 0fdb f3e6 e57f
00000020: bde9 eff9 d17f c9ee cdcd 4d25 c416 c8e0
00000030: fa61 fe04 57bc 13fe abdc 7f3a d2ba 29c0
00000040: 1f59 7ff6 b1c1 f6ba 0b60 1a81 e474 b1a5
00000050: 5ae7 efb7 589e e55f 7fff 46ed 8e59 fae0
00000060: 8008 b949 deca e6f3 5e08 afcf 01e7 02ec
00000070: 07f0 077f 2542 2e19 1c5f fd7f fa2d be00
00000080: 69f9 e5da ff0f 184e d937 b4c0 c87f fefe

fuse_attr_47 i1 [16, 3, 3, 16]
-18 -25 -24 83 -19 18 -65 -14
-61 30 26 -5 61 -2 26 30
24 -45 12 -40 -13 -61 74 15
-28 -11 48 46 45 8 -7 46
8 82 25 -61 -5 11 71 -15
6 -50 -39 -26 18 -2 -11 -34
-35 -81 -40 104 -13 22 -30 48
-26 49 14 -39 40 -31 6 1
0 -32 33 24 -25 -67 117 60
52 -4 78 30 25 -8 -7 22
30 3 6 -74 -18 45 101 -5
4 -52 -14 -14 22 14 26 -10
-23 -19 -75 127 -6 -27 -57 -33
-45 16 -41 -53 16 15 -33 -30
6 -5 64 -15 27 -35 82 58
-12 12 57 -5 -8 -6 -4 18
42 -11 59 -29 4 19 83 19
25 -49 -52 -47 22 -5 -4 5
66 38 -28 3 11 2 23 -16
2 -18 -41 -46 43 45 -10 -28
74 1 59 59 0 17 10 -14
28 4 -69 11 3 92 -22 -21
4 -1 37 41 11 24 30 15
64 -17 -70 52 19 43 -15 -14
33 25 -27 -20 -6 -56 -22 -9
-24 -6 33 -32 10 -7 -20 0
29 46 127 37 3 -31 -9 -9
8 13 2 -12 -15 32 -47 0
14 74 62 40 15 -24 15 -17
5 -6 -18 -1 -53 5 -60 -1
-14 23 -44 29 -3 -4 1 14
-9 -16 -22 -9 2 3 -20 21
00000000: eee7 e853 ed12 bff2 c31e 1afb 3dfe 1a1e
00000010: 18d3 0cd8 f3c3 4a0f e4f5 302e 2d08 f92e
00000020: 0852 19c3 fb0b 47f1 06ce d9e6 12fe f5de
00000030: ddaf d868 f316 e230 e631 0ed9 28e1 0601
00000040: 00e0 2118 e7bd 753c 34fc 4e1e 19f8 f916
00000050: 1e03 06b6 ee2d 65fb 04cc f2f2 160e 1af6
00000060: e9ed b57f fae5 c7df d310 d7cb 100f dfe2
00000070: 06fb 40f1 1bdd 523a f40c 39fb f8fa fc12
00000080: 2af5 3be3 0413 5313 19cf ccd1 16fb fc05
00000090: 4226 e403 0b02 17f0 02ee d7d2 2b2d f6e4
000000a0: 4a01 3b3b 0011 0af2 1c04 bb0b 035c eaeb
000000b0: 04ff 2529 0b18 1e0f 40ef ba34 132b f1f2
000000c0: 2119 e5ec fac8 eaf7 e8fa 21e0 0af9 ec00
000000d0: 1d2e 7f25 03e1 f7f7 080d 02f4 f120 d100
000000e0: 0e4a 3e28 0fe8 0fef 05fa eeff cb05 c4ff
000000f0: f217 d41d fdfc 010e f7f0 eaf7 0203 ec15

1145 i1 [1, 3, 576, 2] scale=0.2597541 zero_point=-128
9.870655 12.987704 9.870655 12.987704 9.870655 12.987704 9.870655 12.987704
9.870655 12.987704 9.870655 12.987704 9.870655 12.987704 9.870655 12.987704
9.870655 12.987704 9.870655 12.987704 9.870655 12.987704 9.870655 12.987704
9.870655 12.987704 9.870655 12.987704 9.870655 12.987704 9.870655 12.987704
9.870655 12.987704 9.870655 12.987704 9.870655 12.987704 9.870655 12.987704
9.870655 12.987704 9.870655 12.987704 9.870655 12.987704 9.870655 12.987704
9.870655 12.987704 9.870655 12.987704 9.870655 12.987704 9.870655 12.987704
9.870655 12.987704 9.870655 12.987704 9.870655 12.987704 9.870655 12.987704
9.870655 12.987704 9.870655 12.987704 9.870655 12.987704 9.870655 12.987704
9.870655 12.987704 9.870655 12.987704 9.870655 12.987704 9.870655 12.987704
9.870655 12.987704 9.870655 12.987704 9.870655 12.987704 9.870655 12.987704
9.870655 12.987704 9.870655 12.987704 9.870655 12.987704 9.870655 12.987704
9.870655 12.987704 9.870655 12.987704 9.870655 12.987704 9.870655 12.987704
9.870655 12.987704 9.870655 12.987704 9.870655 12.987704 9.870655 12.987704
9.870655 12.987704 9.870655 12.987704 9.870655 12.987704 9.870655 12.987704
9.870655 12.987704 9.870655 12.987704 9.870655 12.987704 9.870655 12.987704
9.870655 12.987704 9.870655 12.987704 9.870655 12.987704 9.870655 12.987704
9.870655 12.987704 9.870655 12.987704 9.870655 12.987704 9.870655 12.987704
9.870655 12.987704 9.870655 12.987704 9.870655 12.987704 9.870655 12.987704
9.870655 12.987704 9.870655 12.987704 9.870655 12.987704 9.870655 12.987704
9.870655 12.987704 9.870655 12.987704 9.870655 12.987704 9.870655 12.987704
9.870655 12.987704 9.870655 12.987704 9.870655 12.987704 9.870655 12.987704
9.870655 12.987704 9.870655 12.987704 9.870655 12.987704 9.870655 12.987704
9.870655 12.987704 9.870655 12.987704 9.870655 12.987704 9.870655 12.987704
9.870655 12.987704 9.870655 12.987704 9.870655 12.987704 9.870655 12.987704
9.870655 12.987704 9.870655 12.987704 9.870655 12.987704 9.870655 12.987704
9.870655 12.987704 9.870655 12.987704 9.870655 12.987704 9.870655 12.987704
9.870655 12.987704 9.870655 12.987704 9.870655 12.987704 9.870655 12.987704
9.870655 12.987704 9.870655 12.987704 9.870655 12.987704 9.870655 12.987704
9.870655 12.987704 9.870655 12.987704 9.870655 12.987704 9.870655 12.987704
9.870655 12.987704 9.870655 12.987704 9.870655 12.987704 9.870655 12.987704
9.870655 12.987704 9.870655 12.987704 9.870655 12.987704 9.870655 12.987704
00000000: a6b2 a6b2 a6b2 a6b2 a6b2 a6b2 a6b2 a6b2
00000010: a6b2 a6b2 a6b2 a6b2 a6b2 a6b2 a6b2 a6b2
00000020: a6b2 a6b2 a6b2 a6b2 a6b2 a6b2 a6b2 a6b2
00000030: a6b2 a6b2 a6b2 a6b2 a6b2 a6b2 a6b2 a6b2
00000040: a6b2 a6b2 a6b2 a6b2 a6b2 a6b2 a6b2 a6b2
00000050: a6b2 a6b2 a6b2 a6b2 a6b2 a6b2 a6b2 a6b2
00000060: a6b2 a6b2 a6b2 a6b2 a6b2 a6b2 a6b2 a6b2
00000070: a6b2 a6b2 a6b2 a6b2 a6b2 a6b2 a6b2 a6b2
00000080: a6b2 a6b2 a6b2 a6b2 a6b2 a6b2 a6b2 a6b2
00000090: a6b2 a6b2 a6b2 a6b2 a6b2 a6b2 a6b2 a6b2
000000a0: a6b2 a6b2 a6b2 a6b2 a6b2 a6b2 a6b2 a6b2
000000b0: a6b2 a6b2 a6b2 a6b2 a6b2 a6b2 a6b2 a6b2
000000c0: a6b2 a6b2 a6b2 a6b2 a6b2 a6b2 a6b2 a6b2
000000d0: a6b2 a6b2 a6b2 a6b2 a6b2 a6b2 a6b2 a6b2
000000e0: a6b2 a6b2 a6b2 a6b2 a6b2 a6b2 a6b2 a6b2
000000f0: a6b2 a6b2 a6b2 a6b2 a6b2 a6b2 a6b2 a6b2

fuse_attr_89 i1 [28, 1, 1, 48]
2 73 127 -25 -25 65 -65 -38
51 5 5 19 -3 -61 55 -17
123 -61 31 -35 -59 26 -113 -108
1 11 -12 8 -13 9 0 -12
1 7 1 -17 15 32 -5 27
7 -8 -8 2 7 -6 8 -21
-92 -37 -75 75 -19 73 127 98
-54 26 -3 49 -13 -48 14 -13
-38 -12 -23 -13 -37 40 50 -42
8 10 -10 1 9 -6 -1 0
-2 5 2 -6 -15 2 -10 -2
5 8 -16 -5 -1 -2 -10 11
27 -1 -21 -78 3 82 -29 76
46 -14 23 -24 49 -122 27 97
-58 25 -32 -30 -128 -4 -42 38
-20 10 6 -7 -12 6 -4 -3
5 0 -1 -14 0 21 7 12
33 5 32 -4 10 -19 13 -15
1 -31 3 48 16 93 25 47
74 7 -18 46 10 91 49 -42
1 -30 69 -104 127 -7 43 34
17 -24 6 4 2 -2 -29 2
-25 -7 -30 3 17 16 -3 -31
-2 -7 -4 1 2 6 8 -1
18 20 71 62 36 63 14 18
87 13 -15 -61 -12 62 34 -15
127 16 -62 -7 41 6 99 47
-8 -2 23 -5 -5 -17 -8 -4
-8 19 -5 -4 -13 14 -12 -6
20 -4 -1 -9 -9 -4 -26 3
33 -98 127 47 -25 11 -52 -59
41 53 0 -32 -2 43 -3 -9
00000000: 0249 7fe7 e741 bfda 3305 0513 fdc3 37ef
00000010: 7bc3 1fdd c51a 8f94 010b f408 f309 00f4
00000020: 0107 01ef 0f20 fb1b 07f8 f802 07fa 08eb
00000030: a4db b54b ed49 7f62 ca1a fd31 f3d0 0ef3
00000040: daf4 e9f3 db28 32d6 080a f601 09fa ff00
00000050: fe05 02fa f102 f6fe 0508 f0fb fffe f60b
00000060: 1bff ebb2 0352 e34c 2ef2 17e8 3186 1b61
00000070: c619 e0e2 80fc d626 ec0a 06f9 f406 fcfd
00000080: 0500 fff2 0015 070c 2105 20fc 0aed 0df1
00000090: 01e1 0330 105d 192f 4a07 ee2e 0a5b 31d6
000000a0: 01e2 4598 7ff9 2b22 11e8 0604 02fe e302
000000b0: e7f9 e203 1110 fde1 fef9 fc01 0206 08ff
000000c0: 1214 473e 243f 0e12 570d f1c3 f43e 22f1
000000d0: 7f10 c2f9 2906 632f f8fe 17fb fbef f8fc
000000e0: f813 fbfc f30e f4fa 14fc fff7 f7fc e603
000000f0: 219e 7f2f e70b ccc5 2935 00e0 fe2b fdf7

fuse_attr_60 i1 [12, 1, 1, 48]
-67 5 -40 -3 32 28 -9 -11
-21 32 -2 18 -32 31 15 -28
-68 -51 -8 -3 -19 -7 -4 0
-14 -115 127 83 31 33 18 -11
-53 121 -23 -6 44 34 95 -60
4 -15 -7 -2 -58 -95 -6 -16
-71 18 -34 19 29 -32 19 -2
26 -7 -30 -16 -4 -9 1 -18
-17 -15 -32 -15 -24 -21 -30 6
-31 -68 24 -32 -18 21 89 -58
-9 77 -50 42 25 -46 -11 -73
127 -80 74 -48 -9 -34 -78 31
-83 -10 -26 61 -7 -45 -57 22
76 14 -3 16 -96 7 -7 -3
-88 -26 -7 -33 5 -17 -40 -22
-32 97 127 -27 54 32 52 -85
95 40 -31 -30 -7 -18 31 -37
57 78 -15 -113 -13 -28 76 -33
-38 -7 7 24 12 22 -56 1
39 32 -9 18 -47 20 3 2
-10 4 -28 -4 7 24 -28 10
-38 -51 69 -6 4 64 127 1
-35 -17 2 -66 60 -12 -16 -30
25 -64 -38 66 -42 -8 -17 -52
42 21 2 -41 -38 68 -5 -42
-39 -4 -13 -38 25 -26 -18 15
57 66 11 27 -37 23 28 54
-26 -64 -80 83 38 -59 92 43
-111 -127 -64 -29 31 -69 -43 -19
-54 -69 -81 11 -8 -50 -47 -25
-1 33 -3 9 6 5 33 -15
-22 13 23 6 19 31 17 20
00000000: bd05 d8fd 201c f7f5 eb20 fe12 e01f 0fe4
00000010: bccd f8fd edf9 fc00 f28d 7f53 1f21 12f5
00000020: cb79 e9fa 2c22 5fc4 04f1 f9fe c6a1 faf0
00000030: b912 de13 1de0 13fe 1af9 e2f0 fcf7 01ee
00000040: eff1 e0f1 e8eb e206 e1bc 18e0 ee15 59c6
00000050: f74d ce2a 19d2 f5b7 7fb0 4ad0 f7de b21f
00000060: adf6 e63d f9d3 c716 4c0e fd10 a007 f9fd
00000070: a8e6 f9df 05ef d8ea e061 7fe5 3620 34ab
00000080: 5f28 e1e2 f9ee 1fdb 394e f18f f3e4 4cdf
00000090: daf9 0718 0c16 c801 2720 f712 d114 0302
000000a0: f604 e4fc 0718 e40a dacd 45fa 0440 7f01
000000b0: ddef 02be 3cf4 f0e2 19c0 da42 d6f8 efcc
000000c0: 2a15 02d7 da44 fbd6 d9fc f3da 19e6 ee0f
000000d0: 3942 0b1b db17 1c36 e6c0 b053 26c5 5c2b
000000e0: 9181 c0e3 1fbb d5ed cabb af0b f8ce d1e7
000000f0: ff21 fd09 0605 21f1 ea0d 1706 131f 1114

fuse_attr_84 i1 [12, 3, 3, 12]
-28 -27 1 25 -17 -20 -55 45
43 -73 -50 -26 48 -29 47 -14
-42 -29 -24 7 -9 -66 -17 93
12 -49 -8 10 -6 -29 -47 23
61 19 -53 60 -26 -20 -11 -3
18 -21 -41 2 18 -60 -60 -11
-24 8 -19 -68 -60 -77 -31 62
-39 -128 -102 14 -27 60 -33 16
-60 -55 -11 8 22 12 -74 39
41 -19 -9 41 1 10 5 46
0 -79 -11 -28 16 -16 50 -23
-70 -28 -96 48 -79 -109 -118 -32
59 -24 -19 17 -7 -41 -66 25
-23 -60 -103 45 -1 -20 -14 -32
-22 -18 -25 -20 -34 34 24 39
14 -5 21 -23 -15 -28 16 27
-36 5 -10 -3 -8 10 23 3
-12 -1 34 -19 -42 -5 -3 -2
-41 -26 -18 -42 9 -6 18 -42
-16 127 -25 32 -33 -29 17 23
-9 96 10 -6 -43 18 65 -14
-16 3 31 -6 -53 -28 6 -21
-37 -10 -14 -3 43 -15 -16 -12
-6 -36 -71 -3 8 41 1 34
-29 4 -23 -78 10 0 -55 -4
23 -12 -28 -44 5 -11 1 -69
18 -20 -37 -6 6 9 -42 -4
12 -43 -13 -5 -79 15 -27 41
-59 -10 17 34 -2 26 13 -67
23 -15 -6 10 24 -44 -74 -5
-15 6 19 33 1 4 -40 -15
-24 -10 2 7 0 17 22 -6
00000000: e4e5 0119 efec c92d 2bb7 cee6 30e3 2ff2
00000010: d6e3 e807 f7be ef5d 0ccf f80a fae3 d117
00000020: 3d13 cb3c e6ec f5fd 12eb d702 12c4 c4f5
00000030: e808 edbc c4b3 e13e d980 9a0e e53c df10
00000040: c4c9 f508 160c b627 29ed f729 010a 052e
00000050: 00b1 f5e4 10f0 32e9 bae4 a030 b193 8ae0
00000060: 3be8 ed11 f9d7 be19 e9c4 992d ffec f2e0
00000070: eaee e7ec de22 1827 0efb 15e9 f1e4 101b
00000080: dc05 f6fd f80a 1703 f4ff 22ed d6fb fdfe
00000090: d7e6 eed6 09fa 12d6 f07f e720 dfe3 1117
000000a0: f760 0afa d512 41f2 f003 1ffa cbe4 06eb
000000b0: dbf6 f2fd 2bf1 f0f4 fadc b9fd 0829 0122
000000c0: e304 e9b2 0a00 c9fc 17f4 e4d4 05f5 01bb
000000d0: 12ec dbfa 0609 d6fc 0cd5 f3fb b10f e529
000000e0: c5f6 1122 fe1a 0dbd 17f1 fa0a 18d4 b6fb
000000f0: f106 1321 0104 d8f1 e8f6 0207 0011 16fa

fuse_attr_99 i1 [18, 1, 1, 24]
10 -10 71 -6 -2 -13 127 -3
-78 -83 0 17 -13 -6 -23 29
-3 -29 26 -4 -11 -2 17 -61
-25 5 11 5 -10 -2 33 2
-17 -68 8 0 18 -1 -13 -10
-17 -6 -73 -5 20 11 -67 127
25 8 -50 16 6 -19 -11 -4
19 -61 -8 -9 1 -20 127 91
8 -7 -14 1 -26 -26 50 4
-46 -55 -32 127 -9 28 3 -16
-15 2 1 14 4 14 13 5
-3 -13 -8 22 -17 26 39 4
58 -128 76 16 -31 4 47 0
68 74 78 -65 46 -79 -1 -105
-42 -78 -19 -84 -6 -110 44 32
116 -128 64 31 -56 -4 114 48
-75 120 119 124 -1 -96 -94 51
112 126 -98 123 109 -7 15 75
10 -12 65 -9 -6 2 127 -2
-83 -90 -4 11 -11 3 -28 28
-14 -39 28 11 2 -5 20 -64
-24 6 7 4 -11 13 35 2
-18 -67 2 5 20 10 -11 -16
-18 -5 -62 -4 18 3 -69 127
23 24 -58 13 11 7 -9 -2
21 -62 8 -16 -15 8 127 90
11 -5 -22 5 -29 -30 61 7
-36 -47 -25 127 -9 -10 -1 -14
-13 -1 3 0 4 12 10 8
-2 -16 -8 17 -16 22 36 4
31 -128 68 6 -35 0 49 18
79 68 -121 -10 44 -98 -10 -44
00000000: 0af6 47fa fef3 7ffd b2ad 0011 f3fa e91d
00000010: fde3 1afc f5fe 11c3 e705 0b05 f6fe 2102
00000020: efbc 0800 12ff f3f6 effa b7fb 140b bd7f
00000030: 1908 ce10 06ed f5fc 13c3 f8f7 01ec 7f5b
00000040: 08f9 f201 e6e6 3204 d2c9 e07f f71c 03f0
00000050: f102 010e 040e 0d05 fdf3 f816 ef1a 2704
00000060: 3a80 4c10 e104 2f00 444a 4ebf 2eb1 ff97
00000070: d6b2 edac fa92 2c20 7480 401f c8fc 7230
00000080: b578 777c ffa0 a233 707e 9e7b 6df9 0f4b
00000090: 0af4 41f7 fa02 7ffe ada6 fc0b f503 e41c
000000a0: f2d9 1c0b 02fb 14c0 e806 0704 f50d 2302
000000b0: eebd 0205 140a f5f0 eefb c2fc 1203 bb7f
000000c0: 1718 c60d 0b07 f7fe 15c2 08f0 f108 7f5a
000000d0: 0bfb ea05 e3e2 3d07 dcd1 e77f f7f6 fff2
000000e0: f3ff 0300 040c 0a08 fef0 f811 f016 2404
000000f0: 1f80 4406 dd00 3112 4f44 87f6 2c9e f6d4

fuse_attr_44 i1 [8, 3, 3, 8]
16 12 62 22 16 27 -37 -11
-20 -51 3 15 -50 30 -59 107
0 -79 -6 102 105 -66 -57 -66
-79 -2 -39 -9 -15 17 -72 89
-77 -32 -44 52 127 -87 -84 7
-63 13 -66 -2 72 -104 -51 -61
-52 -80 -66 24 58 -107 -29 -50
-55 -9 -81 -2 63 -122 -25 53
-31 41 -71 55 -123 90 16 56
29 18 -16 13 -14 12 18 8
-17 -8 -46 28 38 46 41 52
-19 -21 -26 62 21 -68 28 4
-27 44 -51 15 17 44 28 24
-54 53 -69 42 127 100 17 73
-64 -4 -62 62 61 10 18 36
-56 -32 -95 10 -25 4 27 4
-66 34 -109 77 67 -11 -7 35
-43 -37 -61 70 -12 -31 4 6
3 29 -25 21 2 -2 -14 0
4 -21 6 19 -22 97 -25 -6
10 -25 13 -5 28 127 7 47
-28 -27 -36 26 30 -45 41 -53
41 -52 -64 15 66 -15 -24 -50
-16 -87 10 -13 64 14 26 -40
-23 -4 -42 5 16 -18 43 35
-26 85 -76 10 86 -57 -10 -83
33 -96 -2 2 36 -54 -1 -68
1 -66 -1 42 65 -53 12 -47
-30 -19 -29 8 61 -64 55 -33
-61 20 -46 14 -56 -13 22 78
-6 -13 -36 29 85 -10 -4 -60
-58 54 -23 11 -36 67 35 90
00000000: 100c 3e16 101b dbf5 eccd 030f ce1e c56b
00000010: 00b1 fa66 69be c7be b1fe d9f7 f111 b859
00000020: b3e0 d434 7fa9 ac07 c10d befe 4898 cdc3
00000030: ccb0 be18 3a95 e3ce c9f7 affe 3f86 e735
00000040: e129 b937 855a 1038 1d12 f00d f20c 1208
00000050: eff8 d21c 262e 2934 edeb e63e 15bc 1c04
00000060: e52c cd0f 112c 1c18 ca35 bb2a 7f64 1149
00000070: c0fc c23e 3d0a 1224 c8e0 a10a e704 1b04
00000080: be22 934d 43f5 f923 d5db c346 f4e1 0406
00000090: 031d e715 02fe f200 04eb 0613 ea61 e7fa
000000a0: 0ae7 0dfb 1c7f 072f e4e5 dc1a 1ed3 29cb
000000b0: 29cc c00f 42f1 e8ce f0a9 0af3 400e 1ad8
000000c0: e9fc d605 10ee 2b23 e655 b40a 56c7 f6ad
000000d0: 21a0 fe02 24ca ffbc 01be ff2a 41cb 0cd1
000000e0: e2ed e308 3dc0 37df c314 d20e c8f3 164e
000000f0: faf3 dc1d 55f6 fcc4 c636 e90b dc43 235a

1324 i1 [1, 3, 144, 2] scale=0.08657188 zero_point=-128
0.0 0.0 1.0388626 0.0 1.9911532 0.0 3.0300157 0.0
3.9823065 0.0 5.021169 0.0 5.9734597 0.0 7.0123224 0.0
7.964613 0.0 9.003475 0.0 10.042338 0.0 10.994629 0.0
0.0 1.0388626 1.0388626 1.0388626 1.9911532 1.0388626 3.0300157 1.0388626
3.9823065 1.0388626 5.021169 1.0388626 5.9734597 1.0388626 7.0123224 1.0388626
7.964613 1.0388626 9.003475 1.0388626 10.042338 1.0388626 10.994629 1.0388626
0.0 1.9911532 1.0388626 1.9911532 1.9911532 1.9911532 3.0300157 1.9911532
3.9823065 1.9911532 5.021169 1.9911532 5.9734597 1.9911532 7.0123224 1.9911532
7.964613 1.9911532 9.003475 1.9911532 10.042338 1.9911532 10.994629 1.9911532
0.0 3.0300157 1.0388626 3.0300157 1.9911532 3.0300157 3.0300157 3.0300157
3.9823065 3.0300157 5.021169 3.0300157 5.9734597 3.0300157 7.0123224 3.0300157
7.964613 3.0300157 9.003475 3.0300157 10.042338 3.0300157 10.994629 3.0300157
0.0 3.9823065 1.0388626 3.9823065 1.9911532 3.9823065 3.0300157 3.9823065
3.9823065 3.9823065 5.021169 3.9823065 5.9734597 3.9823065 7.0123224 3.9823065
7.964613 3.9823065 9.003475 3.9823065 10.042338 3.9823065 10.994629 3.9823065
0.0 5.021169 1.0388626 5.021169 1.9911532 5.021169 3.0300157 5.021169
3.9823065 5.021169 5.021169 5.021169 5.9734597 5.021169 7.0123224 5.021169
7.964613 5.021169 9.003475 5.021169 10.042338 5.021169 10.994629 5.021169
0.0 5.9734597 1.0388626 5.9734597 1.9911532 5.9734597 3.0300157 5.9734597
3.9823065 5.9734597 5.021169 5.9734597 5.9734597 5.9734597 7.0123224 5.9734597
7.964613 5.9734597 9.003475 5.9734597 10.042338 5.9734597 10.994629 5.9734597
0.0 7.0123224 1.0388626 7.0123224 1.9911532 7.0123224 3.0300157 7.0123224
3.9823065 7.0123224 5.021169 7.0123224 5.9734597 7.0123224 7.0123224 7.0123224
7.964613 7.0123224 9.003475 7.0123224 10.042338 7.0123224 10.994629 7.0123224
0.0 7.964613 1.0388626 7.964613 1.9911532 7.964613 3.0300157 7.964613
3.9823065 7.964613 5.021169 7.964613 5.9734597 7.964613 7.0123224 7.964613
7.964613 7.964613 9.003475 7.964613 10.042338 7.964613 10.994629 7.964613
0.0 9.003475 1.0388626 9.003475 1.9911532 9.003475 3.0300157 9.003475
3.9823065 9.003475 5.021169 9.003475 5.9734597 9.003475 7.0123224 9.003475
7.964613 9.003475 9.003475 9.003475 10.042338 9.003475 10.994629 9.003475
0.0 10.042338 1.0388626 10.042338 1.9911532 10.042338 3.0300157 10.042338
3.9823065 10.042338 5.021169 10.042338 5.9734597 10.042338 7.0123224 10.042338
00000000: 8080 8c80 9780 a380 ae80 ba80 c580 d180
00000010: dc80 e880 f480 ff80 808c 8c8c 978c a38c
00000020: ae8c ba8c c58c d18c dc8c e88c f48c ff8c
00000030: 8097 8c97 9797 a397 ae97 ba97 c597 d197
00000040: dc97 e897 f497 ff97 80a3 8ca3 97a3 a3a3
00000050: aea3 baa3 c5a3 d1a3 dca3 e8a3 f4a3 ffa3
00000060: 80ae 8cae 97ae a3ae aeae baae c5ae d1ae
00000070: dcae e8ae f4ae ffae 80ba 8cba 97ba a3ba
00000080: aeba baba c5ba d1ba dcba e8ba f4ba ffba
00000090: 80c5 8cc5 97c5 a3c5 aec5 bac5 c5c5 d1c5
000000a0: dcc5 e8c5 f4c5 ffc5 80d1 8cd1 97d1 a3d1
000000b0: aed1 bad1 c5d1 d1d1 dcd1 e8d1 f4d1 ffd1
000000c0: 80dc 8cdc 97dc a3dc aedc badc c5dc d1dc
000000d0: dcdc e8dc f4dc ffdc 80e8 8ce8 97e8 a3e8
000000e0: aee8 bae8 c5e8 d1e8 dce8 e8e8 f4e8 ffe8
000000f0: 80f4 8cf4 97f4 a3f4 aef4 baf4 c5f4 d1f4

fuse_attr_90 i1 [28, 1, 1, 48]
-16 -78 -24 13 -128 -82 -63 -2
-81 -49 -53 -51 -57 118 -52 58
-85 83 -5 -21 -93 41 82 59
47 -14 -15 -5 8 21 28 3
20 -65 -72 -23 -20 -28 25 -33
-27 -8 -13 -8 -51 20 -72 19
-51 -47 -123 -90 0 19 127 -10
-125 -82 99 -102 -25 -7 -94 15
-51 22 -21 -10 45 -111 26 10
-39 62 -44 -8 73 -41 -22 -7
-51 30 50 -3 67 15 75 -12
32 -36 22 5 68 52 1 -20
127 -1 8 53 -66 -67 -33 -30
33 -21 -7 -33 -15 79 -2 -4
37 10 -46 -47 -10 -16 73 -6
-21 2 -9 15 14 3 62 20
22 15 1 -17 12 19 26 31
-11 -11 60 -10 -23 8 39 18
-51 10 -53 21 -32 127 34 -12
-34 -24 14 -13 -12 12 -14 -43
21 -65 -47 22 95 -18 41 40
43 -17 -7 5 2 35 -33 -43
-20 -16 -26 -19 -20 12 2 34
-18 55 -9 8 -12 -3 31 -9
127 14 70 -3 -54 -40 -42 -26
39 14 49 -7 6 -24 13 4
63 6 13 -10 -69 24 -3 -54
-17 31 -11 -21 -8 13 7 23
-21 3 -28 20 -2 -26 5 -9
-15 32 -17 27 -18 8 11 24
-83 10 8 82 -32 40 -35 45
48 -18 -20 17 24 -98 127 40
00000000: f0b2 e80d 80ae c1fe afcf cbcd c776 cc3a
00000010: ab53 fbeb a329 523b 2ff2 f1fb 0815 1c03
00000020: 14bf b8e9 ece4 19df e5f8 f3f8 cd14 b813
00000030: cdd1 85a6 0013 7ff6 83ae 639a e7f9 a20f
00000040: cd16 ebf6 2d91 1a0a d93e d4f8 49d7 eaf9
00000050: cd1e 32fd 430f 4bf4 20dc 1605 4434 01ec
00000060: 7fff 0835 bebd dfe2 21eb f9df f14f fefc
00000070: 250a d2d1 f6f0 49fa eb02 f70f 0e03 3e14
00000080: 160f 01ef 0c13 1a1f f5f5 3cf6 e908 2712
00000090: cd0a cb15 e07f 22f4 dee8 0ef3 f40c f2d5
000000a0: 15bf d116 5fee 2928 2bef f905 0223 dfd5
000000b0: ecf0 e6ed ec0c 0222 ee37 f708 f4fd 1ff7
000000c0: 7f0e 46fd cad8 d6e6 270e 31f9 06e8 0d04
000000d0: 3f06 0df6 bb18 fdca ef1f f5eb f80d 0717
000000e0: eb03 e414 fee6 05f7 f120 ef1b ee08 0b18
000000f0: ad0a 0852 e028 dd2d 30ee ec11 189e 7f28

fuse_attr_52 i1 [32, 3, 3, 24]
7 -64 31 23 -30 6 -4 21
-2 56 -50 -15 -30 2 -7 -80
-92 -1 26 -13 40 -3 -8 22
44 -7 32 -32 1 56 -68 37
-1 32 59 -43 61 -18 7 17
-31 46 4 -5 0 -3 18 -67
21 -123 19 19 39 0 -27 -33
1 1 -13 -82 55 -3 11 33
68 50 -37 -9 -13 -45 45 -5
-56 -6 -35 -23 -3 28 -30 -26
-12 37 -18 14 66 -3 73 -18
58 22 -13 9 -22 -99 -1 93
38 -41 -23 16 -29 4 1 1
31 31 18 19 71 36 9 -31
-56 24 10 -26 -33 21 55 -68
38 -61 -25 48 -61 50 -117 55
1 -22 -18 -32 -10 62 -21 -52
-11 57 -19 -28 -42 1 -23 -48
-4 7 -10 96 0 -127 -14 -24
-23 97 -4 28 -39 31 -2 -20
40 -32 38 23 -70 -63 -47 -38
-10 15 -28 -19 -3 64 -75 18
-14 71 -22 23 23 39 28 -44
1 32 13 79 -2 -7 -77 18
27 -44 50 21 -45 63 -41 4
-60 49 -35 64 23 80 -21 -80
4 3 -60 44 -59 24 -5 -47
19 5 12 8 20 12 -29 67
-41 1 27 -30 -16 -9 56 -69
3 46 16 -48 -4 61 6 10
-19 106 70 65 40 -45 117 27
35 -22 43 -11 0 -56 30 -35
00000000: 07c0 1f17 e206 fc15 fe38 cef1 e202 f9b0
00000010: a4ff 1af3 28fd f816 2cf9 20e0 0138 bc25
00000020: ff20 3bd5 3dee 0711 e12e 04fb 00fd 12bd
00000030: 1585 1313 2700 e5df 0101 f3ae 37fd 0b21
00000040: 4432 dbf7 f3d3 2dfb c8fa dde9 fd1c e2e6
00000050: f425 ee0e 42fd 49ee 3a16 f309 ea9d ff5d
00000060: 26d7 e910 e304 0101 1f1f 1213 4724 09e1
00000070: c818 0ae6 df15 37bc 26c3 e730 c332 8b37
00000080: 01ea eee0 f63e ebcc f539 ede4 d601 e9d0
00000090: fc07 f660 0081 f2e8 e961 fc1c d91f feec
000000a0: 28e0 2617 bac1 d1da f60f e4ed fd40 b512
000000b0: f247 ea17 1727 1cd4 0120 0d4f fef9 b312
000000c0: 1bd4 3215 d33f d704 c431 dd40 1750 ebb0
000000d0: 0403 c42c c518 fbd1 1305 0c08 140c e343
000000e0: d701 1be2 f0f7 38bb 032e 10d0 fc3d 060a
000000f0: ed6a 4641 28d3 751b 23ea 2bf5 00c8 1edd

fuse_attr_64 i1 [12, 3, 3, 12]
-40 69 5 -5 64 50 8 15
3 -21 -2 -8 8 81 84 57
9 127 44 71 -27 -75 -54 35
-20 46 51 -20 -31 65 40 46
-11 -3 -31 -22 4 18 -10 31
18 -73 88 -1 10 6 33 8
-32 10 -25 47 1 -56 99 -17
52 -23 10 12 -49 -17 -47 1
-13 -51 121 2 51 -54 36 -33
-27 -21 -11 -72 53 -105 -98 -13
15 -20 -24 -33 -58 -15 -23 -59
55 -109 -32 -65 -57 -25 -47 -76
-36 30 -15 -1 21 -5 -96 -14
-31 11 -70 -39 40 -10 12 66
7 -101 -21 -3 -8 -57 42 29
19 -115 60 -38 -83 -58 -35 81
108 -22 54 51 -25 -83 36 -128
-37 -22 -62 73 62 15 -50 -11
32 49 53 -25 32 -41 -13 -30
-18 -38 38 32 -20 41 -2 -29
20 21 -8 -29 -27 -44 -12 -11
13 68 9 -37 -29 -3 -56 -26
-43 16 -70 -14 73 6 36 81
-5 6 47 -11 -15 -35 54 42
70 12 34 42 38 32 86 -21
-9 -65 90 85 55 -27 68 -4
-36 -24 47 49 59 28 56 38
-47 -27 -13 -20 -14 -51 -21 -24
-18 -15 -5 -54 -66 -55 -14 -62
-13 -128 -13 -61 -17 -54 9 -78
-54 -51 -20 -25 9 -40 -7 -76
-30 -48 5 -65 -18 -6 -16 -15
00000000: d845 05fb 4032 080f 03eb fef8 0851 5439
00000010: 097f 2c47 e5b5 ca23 ec2e 33ec e141 282e
00000020: f5fd e1ea 0412 f61f 12b7 58ff 0a06 2108
00000030: e00a e72f 01c8 63ef 34e9 0a0c cfef d101
00000040: f3cd 7902 33ca 24df e5eb f5b8 3597 9ef3
00000050: 0fec e8df c6f1 e9c5 3793 e0bf c7e7 d1b4
00000060: dc1e f1ff 15fb a0f2 e10b bad9 28f6 0c42
00000070: 079b ebfd f8c7 2a1d 138d 3cda adc6 dd51
00000080: 6cea 3633 e7ad 2480 dbea c249 3e0f cef5
00000090: 2031 35e7 20d7 f3e2 eeda 2620 ec29 fee3
000000a0: 1415 f8e3 e5d4 f4f5 0d44 09db e3fd c8e6
000000b0: d510 baf2 4906 2451 fb06 2ff5 f1dd 362a
000000c0: 460c 222a 2620 56eb f7bf 5a55 37e5 44fc
000000d0: dce8 2f31 3b1c 3826 d1e5 f3ec f2cd ebe8
000000e0: eef1 fbca bec9 f2c2 f380 f3c3 efca 09b2
000000f0: cacd ece7 09d8 f9b4 e2d0 05bf eefa f0f1

fuse_attr_81 i1 [12, 1, 1, 12]
-73 -15 -7 -36 26 -67 3 127
19 -40 2 48 127 -5 -5 27
-37 22 -64 -117 -3 -19 -114 -40
-103 -25 17 -2 -29 127 43 -21
-58 -32 11 96 127 -82 -51 -25
-36 21 -39 41 49 -57 -24 19
-109 127 -64 65 -27 -4 97 -23
73 96 -74 97 13 -62 99 56
34 -40 33 -22 16 127 -73 -123
-58 35 -8 -4 17 -53 -19 88
-25 -11 127 -1 127 5 14 66
-19 9 -17 34 101 15 76 -34
3 85 -17 113 9 127 -45 -13
34 -12 -52 -26 -11 50 -25 -84
-17 127 0 -17 -75 -47 107 -28
-126 24 110 -51 -5 -93 7 106
-92 14 -109 127 -5 -10 0 -24
-5 93 50 -21 1 127 5 22
00000000: b7f1 f9dc 1abd 037f 13d8 0230 7ffb fb1b
00000010: db16 c08b fded 8ed8 99e7 11fe e37f 2beb
00000020: c6e0 0b60 7fae cde7 dc15 d929 31c7 e813
00000030: 937f c041 e5fc 61e9 4960 b661 0dc2 6338
00000040: 22d8 21ea 107f b785 c623 f8fc 11cb ed58
00000050: e7f5 7fff 7f05 0e42 ed09 ef22 650f 4cde
00000060: 0355 ef71 097f d3f3 22f4 cce6 f532 e7ac
00000070: ef7f 00ef b5d1 6be4 8218 6ecd fba3 076a
00000080: a40e 937f fbf6 00e8 fb5d 32eb 017f 0516

fuse_attr_92 i1 [28, 3, 3, 28]
-11 6 37 -8 7 6 47 16
-48 14 -24 34 41 -34 -36 35
-27 9 -2 -32 53 -20 13 -67
-60 29 -29 -39 28 25 -48 -73
-75 -7 1 20 41 -2 45 15
27 -12 -35 72 14 24 -57 47
10 88 30 -2 -46 -22 -6 -10
-2 11 -54 13 -19 -33 17 -13
12 -60 41 48 2 -33 -37 14
-2 38 -3 -2 -5 15 9 17
-12 30 -9 -43 -31 -47 12 -16
-62 31 26 -3 -50 10 -28 32
60 18 35 -3 -52 2 10 12
1 23 37 9 -5 21 -29 -55
24 9 -35 -30 -21 -25 -22 83
-90 -15 38 -19 -17 -81 -54 127
-94 -38 -73 -72 63 -72 1 -57
-63 -39 -20 19 43 -53 -32 -69
-31 -48 32 54 -73 -74 1 4
-38 -66 15 11 -22 -4 -100 -106
-3 -45 -23 -89 -32 -28 -53 -24
-29 50 22 2 -57 -13 -41 36
-53 -50 16 -14 -23 -5 1 -8
10 -14 -15 -32 25 16 -1 1
15 -36 12 28 -16 32 -2 -48
-78 -10 0 -6 -12 -36 -3 22
-49 -82 8 -49 56 -42 21 1
8 0 52 -56 -4 -10 21 16
11 38 16 3 13 14 19 5
-20 -10 -10 5 -33 28 40 -35
40 -45 40 -14 -38 -2 18 -43
-41 -11 -3 -45 -11 -32 -33 3
00000000: f506 25f8 0706 2f10 d00e e822 29de dc23
00000010: e509 fee0 35ec 0dbd c41d e3d9 1c19 d0b7
00000020: b5f9 0114 29fe 2d0f 1bf4 dd48 0e18 c72f
00000030: 0a58 1efe d2ea faf6 fe0b ca0d eddf 11f3
00000040: 0cc4 2930 02df db0e fe26 fdfe fb0f 0911
00000050: f41e f7d5 e1d1 0cf0 c21f 1afd ce0a e420
00000060: 3c12 23fd cc02 0a0c 0117 2509 fb15 e3c9
00000070: 1809 dde2 ebe7 ea53 a6f1 26ed efaf ca7f
00000080: a2da b7b8 3fb8 01c7 c1d9 ec13 2bcb e0bb
00000090: e1d0 2036 b7b6 0104 dabe 0f0b eafc 9c96
000000a0: fdd3 e9a7 e0e4 cbe8 e332 1602 c7f3 d724
000000b0: cbce 10f2 e9fb 01f8 0af2 f1e0 1910 ff01
000000c0: 0fdc 0c1c f020 fed0 b2f6 00fa f4dc fd16
000000d0: cfae 08cf 38d6 1501 0800 34c8 fcf6 1510
000000e0: 0b26 1003 0d0e 1305 ecf6 f605 df1c 28dd
000000f0: 28d3 28f2 dafe 12d5 d7f5 fdd3 f5e0 df03

fuse_attr_91 i1 [28, 1, 1, 28]
-43 -80 -79 -60 20 74 82 -81
79 22 -68 -7 17 -80 -54 -128
-78 -49 121 -78 -50 -83 18 45
-48 -14 17 69 49 8 127 -36
77 51 -116 -2 -18 -46 2 82
18 -9 11 70 -85 -7 53 -37
-44 -105 14 -51 11 -5 -93 24
59 -12 -15 127 -83 3 28 52
-70 77 101 41 70 51 -52 27
114 47 -84 92 -70 -58 63 -90
-38 -92 57 65 -47 17 42 93
-60 -41 127 -100 -54 -57 -57 97
96 127 -38 57 60 -27 -86 111
-10 -10 -81 2 -123 -53 80 50
-16 -51 -36 -64 -55 -114 104 -1
-32 -62 -46 -54 -11 -86 -40 -6
-2 -28 -32 29 -29 39 27 -32
31 -27 36 127 -36 27 -49 73
-13 29 116 66 6 72 53 97
-5 -8 60 61 -5 78 -48 77
64 127 41 8 -54 86 -25 17
42 -14 18 -45 -17 -118 113 -28
14 89 22 -39 47 121 -12 4
56 -69 -13 -72 -20 -94 127 29
70 -78 -21 39 -29 5 -58 -81
13 -67 -17 -127 61 73 104 31
-12 -106 106 -100 -72 68 -43 -91
-80 0 20 59 -12 100 -121 -14
-111 -83 34 54 1 26 2 -16
46 -114 47 8 103 -118 -39 -101
-54 26 -53 72 -63 -95 -128 -47
-92 -29 -81 127 63 -71 42 36
00000000: d5b0 b1c4 144a 52af 4f16 bcf9 11b0 ca80
00000010: b2cf 79b2 cead 122d d0f2 1145 3108 7fdc
00000020: 4d33 8cfe eed2 0252 12f7 0b46 abf9 35db
00000030: d497 0ecd 0bfb a318 3bf4 f17f ad03 1c34
00000040: ba4d 6529 4633 cc1b 722f ac5c bac6 3fa6
00000050: daa4 3941 d111 2a5d c4d7 7f9c cac7 c761
00000060: 607f da39 3ce5 aa6f f6f6 af02 85cb 5032
00000070: f0cd dcc0 c98e 68ff e0c2 d2ca f5aa d8fa
00000080: fee4 e01d e327 1be0 1fe5 247f dc1b cf49
00000090: f31d 7442 0648 3561 fbf8 3c3d fb4e d04d
000000a0: 407f 2908 ca56 e711 2af2 12d3 ef8a 71e4
000000b0: 0e59 16d9 2f79 f404 38bb f3b8 eca2 7f1d
000000c0: 46b2 eb27 e305 c6af 0dbd ef81 3d49 681f
000000d0: f496 6a9c b844 d5a5 b000 143b f464 87f2
000000e0: 91ad 2236 011a 02f0 2e8e 2f08 678a d99b
000000f0: ca1a cb48 c1a1 80d1 a4e3 af7f 3fb9 2a24

fuse_attr_97 i1 [56, 1, 1, 56]
-14 -23 25 -40 -30 -1 -26 13
-29 -16 -2 18 3 -59 35 8
-3 -23 38 57 -54 -18 19 -23
-56 -40 -61 -51 54 17 -106 79
-60 20 -89 -1 44 102 62 31
-84 -66 -32 19 -79 0 -127 -24
105 47 57 -37 46 -56 36 -26
-24 -86 35 -2 -8 106 -97 -6
19 11 -55 33 1 -42 -29 -45
106 -7 -11 -67 -36 -87 -25 34
-92 -71 -35 -28 -121 25 7 -128
-73 -92 50 -39 75 -9 80 -74
51 -48 -13 -24 -8 -31 82 13
-16 19 17 54 4 70 -5 -34
-23 -28 15 33 27 -2 -1 26
-12 -9 -7 92 -30 15 -4 127
-23 -8 -37 -21 -9 -28 -28 3
9 -14 -7 -37 17 -70 2 -18
-55 -39 64 -53 73 27 -7 -58
-10 -37 18 -15 25 -53 22 -37
9 11 -24 -44 14 -69 -79 -2
-1 83 -2 -63 -71 62 5 -40
-21 41 -74 -23 -58 109 -31 7
-82 43 -1 72 -34 14 29 -87
10 -90 -45 35 -8 -46 -127 -61
-21 -81 25 -8 58 -61 26 -8
96 -46 27 -33 -61 48 127 -98
-45 71 52 -58 -56 -55 -29 47
57 -54 -57 17 6 -33 -36 -42
37 4 3 -17 53 -83 -24 -22
30 49 11 127 -12 48 -22 15
-14 -28 -112 116 4 -38 -106 0
00000000: f2e9 19d8 e2ff e60d e3f0 fe12 03c5 2308
00000010: fde9 2639 caee 13e9 c8d8 c3cd 3611 964f
00000020: c414 a7ff 2c66 3e1f acbe e013 b100 81e8
00000030: 692f 39db 2ec8 24e6 e8aa 23fe f86a 9ffa
00000040: 130b c921 01d6 e3d3 6af9 f5bd dca9 e722
00000050: a4b9 dde4 8719 0780 b7a4 32d9 4bf7 50b6
00000060: 33d0 f3e8 f8e1 520d f013 1136 0446 fbde
00000070: e9e4 0f21 1bfe ff1a f4f7 f95c e20f fc7f
00000080: e9f8 dbeb f7e4 e403 09f2 f9db 11ba 02ee
00000090: c9d9 40cb 491b f9c6 f6db 12f1 19cb 16db
000000a0: 090b e8d4 0ebb b1fe ff53 fec1 b93e 05d8
000000b0: eb29 b6e9 c66d e107 ae2b ff48 de0e 1da9
000000c0: 0aa6 d323 f8d2 81c3 ebaf 19f8 3ac3 1af8
000000d0: 60d2 1bdf c330 7f9e d347 34c6 c8c9 e32f
000000e0: 39ca c711 06df dcd6 2504 03ef 35ad e8ea
000000f0: 1e31 0b7f f430 ea0f f2e4 9074 04da 9600

fuse_attr_69 i1 [8, 1, 1, 32]
-15 -35 42 -29 -30 -21 -3 -2
-12 -58 -11 -25 -25 4 4 5
-7 -4 -4 -14 -15 -48 20 -32
-36 -4 -26 -24 -19 -10 127 -22
13 -107 -2 127 -20 34 -90 29
66 24 6 86 -29 -14 -51 65
-41 -18 -8 -30 -82 -5 0 31
-40 -30 -3 -6 -11 7 -46 20
-38 -43 75 -16 38 22 18 50
-22 -31 -28 45 127 -116 26 -58
-26 -119 -64 -73 43 87 -34 -91
-6 5 -16 -25 -25 41 15 -50
14 -59 72 -81 42 4 127 13
-85 -53 31 -25 58 -26 11 -57
-9 17 15 5 18 -23 -4 6
29 6 9 -34 -12 3 -8 3
-11 35 -42 -99 -35 5 47 24
-12 -49 1 35 -14 -10 -7 -41
-1 38 -6 33 -40 23 -15 -80
86 61 39 -25 10 2 127 -91
31 -30 101 -94 -11 -54 70 -18
-68 -108 12 41 -35 -43 -38 -7
-63 36 -86 -60 -38 5 -40 77
-29 -43 39 -47 87 -18 -60 -128
30 -56 -2 36 -59 -116 -3 -63
48 72 10 90 -42 8 28 127
38 0 23 12 69 -5 -32 -16
101 30 22 10 30 28 -67 -1
76 -28 -64 12 -114 125 -128 102
-7 66 23 -86 -14 32 -42 -86
24 15 13 17 59 0 -18 -7
79 5 20 -11 22 27 -11 -10
00000000: f1dd 2ae3 e2eb fdfe f4c6 f5e7 e704 0405
00000010: f9fc fcf2 f1d0 14e0 dcfc e6e8 edf6 7fea
00000020: 0d95 fe7f ec22 a61d 4218 0656 e3f2 cd41
00000030: d7ee f8e2 aefb 001f d8e2 fdfa f507 d214
00000040: dad5 4bf0 2616 1232 eae1 e42d 7f8c 1ac6
00000050: e689 c0b7 2b57 dea5 fa05 f0e7 e729 0fce
00000060: 0ec5 48af 2a04 7f0d abcb 1fe7 3ae6 0bc7
00000070: f711 0f05 12e9 fc06 1d06 09de f403 f803
00000080: f523 d69d dd05 2f18 f4cf 0123 f2f6 f9d7
00000090: ff26 fa21 d817 f1b0 563d 27e7 0a02 7fa5
000000a0: 1fe2 65a2 f5ca 46ee bc94 0c29 ddd5 daf9
000000b0: c124 aac4 da05 d84d e3d5 27d1 57ee c480
000000c0: 1ec8 fe24 c58c fdc1 3048 0a5a d608 1c7f
000000d0: 2600 170c 45fb e0f0 651e 160a 1e1c bdff
000000e0: 4ce4 c00c 8e7d 8066 f942 17aa f220 d6aa
000000f0: 180f 0d11 3b00 eef9 4f05 14f5 161b f5f6

fuse_attr_51 i1 [24, 3, 3, 24]
57 -26 11 -2 -6 46 1 18
-52 -46 7 0 0 -46 52 -37
-10 10 -8 34 72 -52 -6 -51
4 -70 74 -19 -11 -21 9 -28
-35 -65 -19 -55 39 -92 -1 -1
46 10 -64 -5 -6 26 38 6
0 32 -78 6 9 -3 15 -52
6 127 -1 -16 37 -44 -77 11
61 -54 -7 118 12 10 -25 3
52 6 -62 -3 3 -18 24 -18
-73 33 50 8 51 78 8 17
64 -34 23 44 47 -4 30 7
-127 -91 23 -61 -49 7 -68 -58
-39 -82 -2 12 2 -27 -14 -6
19 0 -26 42 55 -13 37 -2
-20 36 14 -2 -36 41 -40 5
0 21 -47 -27 -21 -75 -83 -45
7 12 -80 34 -55 -34 -43 56
26 21 43 -14 23 29 52 -1
-13 -7 38 2 -15 57 3 -20
-8 -37 -13 46 16 -69 2 52
-72 12 -27 -24 -53 -18 -11 -71
12 -70 34 65 34 16 6 -2
-45 -18 -19 -30 24 11 -20 6
-109 10 21 -11 -11 -10 -79 2
-37 14 -40 -31 29 -46 21 -1
19 -58 7 -7 -117 17 -41 7
-34 -61 30 17 -2 -50 29 -69
-26 69 20 -55 54 -76 -3 62
59 57 3 13 -65 -52 14 61
53 -20 -115 7 76 -50 26 -29
-6 117 81 -83 34 81 -26 9
00000000: 39e6 0bfe fa2e 0112 ccd2 0700 00d2 34db
00000010: f60a f822 48cc facd 04ba 4aed f5eb 09e4
00000020: ddbf edc9 27a4 ffff 2e0a c0fb fa1a 2606
00000030: 0020 b206 09fd 0fcc 067f fff0 25d4 b30b
00000040: 3dca f976 0c0a e703 3406 c2fd 03ee 18ee
00000050: b721 3208 334e 0811 40de 172c 2ffc 1e07
00000060: 81a5 17c3 cf07 bcc6 d9ae fe0c 02e5 f2fa
00000070: 1300 e62a 37f3 25fe ec24 0efe dc29 d805
00000080: 0015 d1e5 ebb5 add3 070c b022 c9de d538
00000090: 1a15 2bf2 171d 34ff f3f9 2602 f139 03ec
000000a0: f8db f32e 10bb 0234 b80c e5e8 cbee f5b9
000000b0: 0cba 2241 2210 06fe d3ee ede2 180b ec06
000000c0: 930a 15f5 f5f6 b102 db0e d8e1 1dd2 15ff
000000d0: 13c6 07f9 8b11 d707 dec3 1e11 fece 1dbb
000000e0: e645 14c9 36b4 fd3e 3b39 030d bfcc 0e3d
000000f0: 35ec 8d07 4cce 1ae3 fa75 51ad 2251 e609

fuse_attr_41 i1 [16, 3, 3, 3]
111 -55 -37 71 -38 1 -43 -6
18 127 -114 5 74 -114 41 -21
-59 70 17 -85 53 -21 -80 81
-68 -30 104 72 39 7 -66 -26
-28 -111 -28 -12 127 60 40 -26
-21 -15 -74 -29 -10 99 34 25
-2 -20 -9 -24 -14 5 -81 -26
11 -128 -61 -5 -82 -47 3 74
55 53 110 83 89 75 47 47
-5 -17 -69 9 -18 -70 24 -9
-66 51 73 48 -8 43 34 -18
46 15 -10 42 59 -95 6 58
-104 -12 28 -40 9 31 -127 -12
63 -113 -42 1 -50 66 86 27
31 4 23 -65 -126 -59 43 102
61 29 33 -9 -87 -128 -50 30
86 60 28 35 -20 -63 -96 -23
-13 -7 -48 -40 -32 -3 -24 -29
-87 -43 -23 -112 -63 -39 -32 -26
-24 73 51 44 127 94 83 97
53 26 -35 -59 -12 65 51 75
127 91 58 -61 -44 -14 -22 2
28 66 45 9 -70 -31 -54 -102
-50 -61 34 15 -51 53 19 -18
10 -27 -48 -22 -36 -45 127 55
49 16 -7 -3 4 4 2 74
24 32 5 35 46 -27 14 41
36 -34 -59 63 19 -34 31 4
-28 38 42 -1 56 90 41 41
56 52 -62 -32 13 -128 -89 -20
-89 -69 35 -22 21 24 -48 -19
-12 59 29 45 -24 33 36 -128
00000000: 6fc9 db47 da01 d5fa 127f 8e05 4a8e 29eb
00000010: c546 11ab 35eb b051 bce2 6848 2707 bee6
00000020: e491 e4f4 7f3c 28e6 ebf1 b6e3 f663 2219
00000030: feec f7e8 f205 afe6 0b80 c3fb aed1 034a
00000040: 3735 6e53 594b 2f2f fbef bb09 eeba 18f7
00000050: be33 4930 f82b 22ee 2e0f f62a 3ba1 063a
00000060: 98f4 1cd8 091f 81f4 3f8f d601 ce42 561b
00000070: 1f04 17bf 82c5 2b66 3d1d 21f7 a980 ce1e
00000080: 563c 1c23 ecc1 a0e9 f3f9 d0d8 e0fd e8e3
00000090: a9d5 e990 c1d9 e0e6 e849 332c 7f5e 5361
000000a0: 351a ddc5 f441 334b 7f5b 3ac3 d4f2 ea02
000000b0: 1c42 2d09 bae1 ca9a cec3 220f cd35 13ee
000000c0: 0ae5 d0ea dcd3 7f37 3110 f9fd 0404 024a
000000d0: 1820 0523 2ee5 0e29 24de c53f 13de 1f04
000000e0: e426 2aff 385a 2929 3834 c2e0 0d80 a7ec
000000f0: a7bb 23ea 1518 d0ed f43b 1d2d e821 2480

1160 i1 [1, 3, 576, 2] scale=0.18101393 zero_point=-128
0.0 0.0 1.0860835 0.0 1.9911532 0.0 3.0772367 0.0
3.9823065 0.0 5.06839 0.0 5.9734597 0.0 7.059543 0.0
7.964613 0.0 9.050696 0.0 9.955766 0.0 11.041849 0.0
11.946919 0.0 13.033003 0.0 13.938072 0.0 15.024156 0.0
15.929226 0.0 17.015308 0.0 17.92038 0.0 19.006462 0.0
19.911531 0.0 20.997616 0.0 22.083698 0.0 22.98877 0.0
0.0 1.0860835 1.0860835 1.0860835 1.9911532 1.0860835 3.0772367 1.0860835
3.9823065 1.0860835 5.06839 1.0860835 5.9734597 1.0860835 7.059543 1.0860835
7.964613 1.0860835 9.050696 1.0860835 9.955766 1.0860835 11.041849 1.0860835
11.946919 1.0860835 13.033003 1.0860835 13.938072 1.0860835 15.024156 1.0860835
15.929226 1.0860835 17.015308 1.0860835 17.92038 1.0860835 19.006462 1.0860835
19.911531 1.0860835 20.997616 1.0860835 22.083698 1.0860835 22.98877 1.0860835
0.0 1.9911532 1.0860835 1.9911532 1.9911532 1.9911532 3.0772367 1.9911532
3.9823065 1.9911532 5.06839 1.9911532 5.9734597 1.9911532 7.059543 1.9911532
7.964613 1.9911532 9.050696 1.9911532 9.955766 1.9911532 11.041849 1.9911532
11.946919 1.9911532 13.033003 1.9911532 13.938072 1.9911532 15.024156 1.9911532
15.929226 1.9911532 17.015308 1.9911532 17.92038 1.9911532 19.006462 1.9911532
19.911531 1.9911532 20.997616 1.9911532 22.083698 1.9911532 22.98877 1.9911532
0.0 3.0772367 1.0860835 3.0772367 1.9911532 3.0772367 3.0772367 3.0772367
3.9823065 3.0772367 5.06839 3.0772367 5.9734597 3.0772367 7.059543 3.0772367
7.964613 3.0772367 9.050696 3.0772367 9.955766 3.0772367 11.041849 3.0772367
11.946919 3.0772367 13.033003 3.0772367 13.938072 3.0772367 15.024156 3.0772367
15.929226 3.0772367 17.015308 3.0772367 17.92038 3.0772367 19.006462 3.0772367
19.911531 3.0772367 20.997616 3.0772367 22.083698 3.0772367 22.98877 3.0772367
0.0 3.9823065 1.0860835 3.9823065 1.9911532 3.9823065 3.0772367 3.9823065
3.9823065 3.9823065 5.06839 3.9823065 5.9734597 3.9823065 7.059543 3.9823065
7.964613 3.9823065 9.050696 3.9823065 9.955766 3.9823065 11.041849 3.9823065
11.946919 3.9823065 13.033003 3.9823065 13.938072 3.9823065 15.024156 3.9823065
15.929226 3.9823065 17.015308 3.9823065 17.92038 3.9823065 19.006462 3.9823065
19.911531 3.9823065 20.997616 3.9823065 22.083698 3.9823065 22.98877 3.9823065
0.0 5.06839 1.0860835 5.06839 1.9911532 5.06839 3.0772367 5.06839
3.9823065 5.06839 5.06839 5.06839 5.9734597 5.06839 7.059543 5.06839
00000000: 8080 8680 8b80 9180 9680 9c80 a180 a780
00000010: ac80 b280 b780 bd80 c280 c880 cd80 d380
00000020: d880 de80 e380 e980 ee80 f480 fa80 ff80
00000030: 8086 8686 8b86 9186 9686 9c86 a186 a786
00000040: ac86 b286 b786 bd86 c286 c886 cd86 d386
00000050: d886 de86 e386 e986 ee86 f486 fa86 ff86
00000060: 808b 868b 8b8b 918b 968b 9c8b a18b a78b
00000070: ac8b b28b b78b bd8b c28b c88b cd8b d38b
00000080: d88b de8b e38b e98b ee8b f48b fa8b ff8b
00000090: 8091 8691 8b91 9191 9691 9c91 a191 a791
000000a0: ac91 b291 b791 bd91 c291 c891 cd91 d391
000000b0: d891 de91 e391 e991 ee91 f491 fa91 ff91
000000c0: 8096 8696 8b96 9196 9696 9c96 a196 a796
000000d0: ac96 b296 b796 bd96 c296 c896 cd96 d396
000000e0: d896 de96 e396 e996 ee96 f496 fa96 ff96
000000f0: 809c 869c 8b9c 919c 969c 9c9c a19c a79c
